HloModule jit_step, entry_computation_layout={(u32[2]{0}, f64[1,1,5]{2,1,0}, f64[5]{0}, f64[5,5]{1,0}, f64[100]{0}, /*index=5*/f64[100]{0}, f64[100,5]{1,0}, s64[1]{0}, f64[5]{0}, f64[5]{0}, /*index=10*/f64[5]{0}, f64[5]{0}, f64[100]{0}, f64[5,100]{1,0}, f64[10]{0}, /*index=15*/f64[100,10]{1,0})->(f64[5]{0}, f64[5]{0}, f64[5]{0}, f64[5]{0}, f64[100]{0}, /*index=5*/f64[5,100]{1,0}, f64[10]{0}, f64[100,10]{1,0}, s32[], pred[], /*index=10*/s32[], s32[], f64[5]{0}, f64[5]{0}, f64[5]{0}, /*index=15*/f64[5]{0}, f64[100]{0}, f64[5,100]{1,0}, f64[10]{0}, f64[100,10]{1,0}, /*index=20*/f64[5]{0}, f64[5]{0}, f64[5]{0}, f64[5]{0}, f64[100]{0}, /*index=25*/f64[5,100]{1,0}, f64[10]{0}, f64[100,10]{1,0}, f64[5]{0}, f64[5,5]{1,0}, /*index=30*/f64[100,5]{1,0}, f64[100,5]{1,0}, f64[100,5]{1,0}, f64[100,5]{1,0}, f64[100,100]{1,0}, /*index=35*/f64[100,5,100]{2,1,0}, f64[100,10]{1,0}, f64[100,100,10]{2,1,0}, f64[100,5]{1,0}, f64[100,5]{1,0}, /*index=40*/f64[100,5]{1,0}, f64[100,5]{1,0}, f64[100,100]{1,0}, f64[100,5,100]{2,1,0}, f64[100,10]{1,0}, /*index=45*/f64[100,100,10]{2,1,0}, f64[100]{0}, f64[100]{0}, f64[100,5]{1,0}, f64[50]{0}, /*index=50*/f64[5]{0}, f64[5]{0})}, allow_spmd_sharding_propagation_to_output={true,true,true,true,true,true,true,true,true,true,true,true,true,true,true,true,true,true,true,true,true,true,true,true,true,true,true,true,true,true,true,true,true,true,true,true,true,true,true,true,true,true,true,true,true,true,true,true,true,true,true,true}

%fused_computation (param_0.2: u32[], param_1.5: u32[4], param_2.6: u32[50], param_3.7: u32[50], param_4.12: s64[]) -> u32[50] {
  %param_3.7 = u32[50]{0} parameter(3)
  %param_2.6 = u32[50]{0} parameter(2)
  %add.1647 = u32[50]{0} add(u32[50]{0} %param_3.7, u32[50]{0} %param_2.6), metadata={op_name="jit(step)/jit(main)/while/body/add" source_file="/home/mathis/repos/backward_ica/src/training.py" source_line=415}
  %param_1.5 = u32[4]{0} parameter(1)
  %slice.453 = u32[1]{0} slice(u32[4]{0} %param_1.5), slice={[0:1]}, metadata={op_name="jit(step)/jit(main)/while/body/slice[start_indices=(0,) limit_indices=(1,) strides=(1,)]" source_file="/home/mathis/repos/backward_ica/src/training.py" source_line=415}
  %reshape.4231 = u32[] reshape(u32[1]{0} %slice.453), metadata={op_name="jit(step)/jit(main)/while/body/squeeze[dimensions=(0,)]" source_file="/home/mathis/repos/backward_ica/src/training.py" source_line=415}
  %broadcast.6643 = u32[50]{0} broadcast(u32[] %reshape.4231), dimensions={}, metadata={op_name="jit(step)/jit(main)/while/body/shift_left" source_file="/home/mathis/repos/backward_ica/src/training.py" source_line=415}
  %shift-left.165 = u32[50]{0} shift-left(u32[50]{0} %param_2.6, u32[50]{0} %broadcast.6643), metadata={op_name="jit(step)/jit(main)/while/body/shift_left" source_file="/home/mathis/repos/backward_ica/src/training.py" source_line=415}
  %constant.5073 = u32[] constant(32)
  %subtract.307 = u32[] subtract(u32[] %constant.5073, u32[] %reshape.4231), metadata={op_name="jit(step)/jit(main)/while/body/sub" source_file="/home/mathis/repos/backward_ica/src/training.py" source_line=415}
  %broadcast.6642 = u32[50]{0} broadcast(u32[] %subtract.307), dimensions={}, metadata={op_name="jit(step)/jit(main)/while/body/shift_right_logical" source_file="/home/mathis/repos/backward_ica/src/training.py" source_line=415}
  %shift-right-logical.166 = u32[50]{0} shift-right-logical(u32[50]{0} %param_2.6, u32[50]{0} %broadcast.6642), metadata={op_name="jit(step)/jit(main)/while/body/shift_right_logical" source_file="/home/mathis/repos/backward_ica/src/training.py" source_line=415}
  %or.196 = u32[50]{0} or(u32[50]{0} %shift-left.165, u32[50]{0} %shift-right-logical.166), metadata={op_name="jit(step)/jit(main)/while/body/or" source_file="/home/mathis/repos/backward_ica/src/training.py" source_line=415}
  %xor.202 = u32[50]{0} xor(u32[50]{0} %add.1647, u32[50]{0} %or.196), metadata={op_name="jit(step)/jit(main)/while/body/xor" source_file="/home/mathis/repos/backward_ica/src/training.py" source_line=415}
  %add.1646 = u32[50]{0} add(u32[50]{0} %add.1647, u32[50]{0} %xor.202), metadata={op_name="jit(step)/jit(main)/while/body/add" source_file="/home/mathis/repos/backward_ica/src/training.py" source_line=415}
  %slice.452 = u32[1]{0} slice(u32[4]{0} %param_1.5), slice={[1:2]}, metadata={op_name="jit(step)/jit(main)/while/body/slice[start_indices=(1,) limit_indices=(2,) strides=(1,)]" source_file="/home/mathis/repos/backward_ica/src/training.py" source_line=415}
  %reshape.4230 = u32[] reshape(u32[1]{0} %slice.452), metadata={op_name="jit(step)/jit(main)/while/body/squeeze[dimensions=(0,)]" source_file="/home/mathis/repos/backward_ica/src/training.py" source_line=415}
  %broadcast.6640 = u32[50]{0} broadcast(u32[] %reshape.4230), dimensions={}, metadata={op_name="jit(step)/jit(main)/while/body/shift_left" source_file="/home/mathis/repos/backward_ica/src/training.py" source_line=415}
  %shift-left.164 = u32[50]{0} shift-left(u32[50]{0} %xor.202, u32[50]{0} %broadcast.6640), metadata={op_name="jit(step)/jit(main)/while/body/shift_left" source_file="/home/mathis/repos/backward_ica/src/training.py" source_line=415}
  %subtract.306 = u32[] subtract(u32[] %constant.5073, u32[] %reshape.4230), metadata={op_name="jit(step)/jit(main)/while/body/sub" source_file="/home/mathis/repos/backward_ica/src/training.py" source_line=415}
  %broadcast.6638 = u32[50]{0} broadcast(u32[] %subtract.306), dimensions={}, metadata={op_name="jit(step)/jit(main)/while/body/shift_right_logical" source_file="/home/mathis/repos/backward_ica/src/training.py" source_line=415}
  %shift-right-logical.165 = u32[50]{0} shift-right-logical(u32[50]{0} %xor.202, u32[50]{0} %broadcast.6638), metadata={op_name="jit(step)/jit(main)/while/body/shift_right_logical" source_file="/home/mathis/repos/backward_ica/src/training.py" source_line=415}
  %or.195 = u32[50]{0} or(u32[50]{0} %shift-left.164, u32[50]{0} %shift-right-logical.165), metadata={op_name="jit(step)/jit(main)/while/body/or" source_file="/home/mathis/repos/backward_ica/src/training.py" source_line=415}
  %xor.201 = u32[50]{0} xor(u32[50]{0} %add.1646, u32[50]{0} %or.195), metadata={op_name="jit(step)/jit(main)/while/body/xor" source_file="/home/mathis/repos/backward_ica/src/training.py" source_line=415}
  %add.1645 = u32[50]{0} add(u32[50]{0} %add.1646, u32[50]{0} %xor.201), metadata={op_name="jit(step)/jit(main)/while/body/add" source_file="/home/mathis/repos/backward_ica/src/training.py" source_line=415}
  %slice.451 = u32[1]{0} slice(u32[4]{0} %param_1.5), slice={[2:3]}, metadata={op_name="jit(step)/jit(main)/while/body/slice[start_indices=(2,) limit_indices=(3,) strides=(1,)]" source_file="/home/mathis/repos/backward_ica/src/training.py" source_line=415}
  %reshape.4229 = u32[] reshape(u32[1]{0} %slice.451), metadata={op_name="jit(step)/jit(main)/while/body/squeeze[dimensions=(0,)]" source_file="/home/mathis/repos/backward_ica/src/training.py" source_line=415}
  %broadcast.6637 = u32[50]{0} broadcast(u32[] %reshape.4229), dimensions={}, metadata={op_name="jit(step)/jit(main)/while/body/shift_left" source_file="/home/mathis/repos/backward_ica/src/training.py" source_line=415}
  %shift-left.163 = u32[50]{0} shift-left(u32[50]{0} %xor.201, u32[50]{0} %broadcast.6637), metadata={op_name="jit(step)/jit(main)/while/body/shift_left" source_file="/home/mathis/repos/backward_ica/src/training.py" source_line=415}
  %subtract.305 = u32[] subtract(u32[] %constant.5073, u32[] %reshape.4229), metadata={op_name="jit(step)/jit(main)/while/body/sub" source_file="/home/mathis/repos/backward_ica/src/training.py" source_line=415}
  %broadcast.6636 = u32[50]{0} broadcast(u32[] %subtract.305), dimensions={}, metadata={op_name="jit(step)/jit(main)/while/body/shift_right_logical" source_file="/home/mathis/repos/backward_ica/src/training.py" source_line=415}
  %shift-right-logical.164 = u32[50]{0} shift-right-logical(u32[50]{0} %xor.201, u32[50]{0} %broadcast.6636), metadata={op_name="jit(step)/jit(main)/while/body/shift_right_logical" source_file="/home/mathis/repos/backward_ica/src/training.py" source_line=415}
  %or.194 = u32[50]{0} or(u32[50]{0} %shift-left.163, u32[50]{0} %shift-right-logical.164), metadata={op_name="jit(step)/jit(main)/while/body/or" source_file="/home/mathis/repos/backward_ica/src/training.py" source_line=415}
  %xor.199 = u32[50]{0} xor(u32[50]{0} %add.1645, u32[50]{0} %or.194), metadata={op_name="jit(step)/jit(main)/while/body/xor" source_file="/home/mathis/repos/backward_ica/src/training.py" source_line=415}
  %add.1644 = u32[50]{0} add(u32[50]{0} %add.1645, u32[50]{0} %xor.199), metadata={op_name="jit(step)/jit(main)/while/body/add" source_file="/home/mathis/repos/backward_ica/src/training.py" source_line=415}
  %slice.450 = u32[1]{0} slice(u32[4]{0} %param_1.5), slice={[3:4]}, metadata={op_name="jit(step)/jit(main)/while/body/slice[start_indices=(3,) limit_indices=(4,) strides=(1,)]" source_file="/home/mathis/repos/backward_ica/src/training.py" source_line=415}
  %reshape.4228 = u32[] reshape(u32[1]{0} %slice.450), metadata={op_name="jit(step)/jit(main)/while/body/squeeze[dimensions=(0,)]" source_file="/home/mathis/repos/backward_ica/src/training.py" source_line=415}
  %broadcast.6635 = u32[50]{0} broadcast(u32[] %reshape.4228), dimensions={}, metadata={op_name="jit(step)/jit(main)/while/body/shift_left" source_file="/home/mathis/repos/backward_ica/src/training.py" source_line=415}
  %shift-left.162 = u32[50]{0} shift-left(u32[50]{0} %xor.199, u32[50]{0} %broadcast.6635), metadata={op_name="jit(step)/jit(main)/while/body/shift_left" source_file="/home/mathis/repos/backward_ica/src/training.py" source_line=415}
  %subtract.304 = u32[] subtract(u32[] %constant.5073, u32[] %reshape.4228), metadata={op_name="jit(step)/jit(main)/while/body/sub" source_file="/home/mathis/repos/backward_ica/src/training.py" source_line=415}
  %broadcast.6634 = u32[50]{0} broadcast(u32[] %subtract.304), dimensions={}, metadata={op_name="jit(step)/jit(main)/while/body/shift_right_logical" source_file="/home/mathis/repos/backward_ica/src/training.py" source_line=415}
  %shift-right-logical.163 = u32[50]{0} shift-right-logical(u32[50]{0} %xor.199, u32[50]{0} %broadcast.6634), metadata={op_name="jit(step)/jit(main)/while/body/shift_right_logical" source_file="/home/mathis/repos/backward_ica/src/training.py" source_line=415}
  %or.193 = u32[50]{0} or(u32[50]{0} %shift-left.162, u32[50]{0} %shift-right-logical.163), metadata={op_name="jit(step)/jit(main)/while/body/or" source_file="/home/mathis/repos/backward_ica/src/training.py" source_line=415}
  %xor.198 = u32[50]{0} xor(u32[50]{0} %add.1644, u32[50]{0} %or.193), metadata={op_name="jit(step)/jit(main)/while/body/xor" source_file="/home/mathis/repos/backward_ica/src/training.py" source_line=415}
  %param_0.2 = u32[] parameter(0)
  %broadcast.6632 = u32[50]{0} broadcast(u32[] %param_0.2), dimensions={}, metadata={op_name="jit(step)/jit(main)/while/body/add" source_file="/home/mathis/repos/backward_ica/src/training.py" source_line=415}
  %add.1643 = u32[50]{0} add(u32[50]{0} %xor.198, u32[50]{0} %broadcast.6632), metadata={op_name="jit(step)/jit(main)/while/body/add" source_file="/home/mathis/repos/backward_ica/src/training.py" source_line=415}
  %param_4.12 = s64[] parameter(4)
  %constant.5074 = s64[] constant(1)
  %add.1648 = s64[] add(s64[] %param_4.12, s64[] %constant.5074), metadata={op_name="jit(step)/jit(main)/while/body/add" source_file="/home/mathis/repos/backward_ica/src/training.py" source_line=415}
  %convert.248 = u32[] convert(s64[] %add.1648), metadata={op_name="jit(step)/jit(main)/while/body/convert_element_type[new_dtype=uint32 weak_type=False]" source_file="/home/mathis/repos/backward_ica/src/training.py" source_line=415}
  %broadcast.6630 = u32[50]{0} broadcast(u32[] %convert.248), dimensions={}, metadata={op_name="jit(step)/jit(main)/while/body/add" source_file="/home/mathis/repos/backward_ica/src/training.py" source_line=415}
  ROOT %add.1642 = u32[50]{0} add(u32[50]{0} %add.1643, u32[50]{0} %broadcast.6630), metadata={op_name="jit(step)/jit(main)/while/body/add" source_file="/home/mathis/repos/backward_ica/src/training.py" source_line=415}
}

%fused_computation.1 (param_0.4: u32[], param_1.11: u32[4], param_2.14: u32[50], param_3.17: u32[50]) -> u32[50] {
  %param_3.17 = u32[50]{0} parameter(3)
  %param_2.14 = u32[50]{0} parameter(2)
  %add.1653 = u32[50]{0} add(u32[50]{0} %param_3.17, u32[50]{0} %param_2.14), metadata={op_name="jit(step)/jit(main)/while/body/add" source_file="/home/mathis/repos/backward_ica/src/training.py" source_line=415}
  %param_1.11 = u32[4]{0} parameter(1)
  %slice.456 = u32[1]{0} slice(u32[4]{0} %param_1.11), slice={[0:1]}, metadata={op_name="jit(step)/jit(main)/while/body/slice[start_indices=(0,) limit_indices=(1,) strides=(1,)]" source_file="/home/mathis/repos/backward_ica/src/training.py" source_line=415}
  %reshape.4234 = u32[] reshape(u32[1]{0} %slice.456), metadata={op_name="jit(step)/jit(main)/while/body/squeeze[dimensions=(0,)]" source_file="/home/mathis/repos/backward_ica/src/training.py" source_line=415}
  %broadcast.6650 = u32[50]{0} broadcast(u32[] %reshape.4234), dimensions={}, metadata={op_name="jit(step)/jit(main)/while/body/shift_left" source_file="/home/mathis/repos/backward_ica/src/training.py" source_line=415}
  %shift-left.168 = u32[50]{0} shift-left(u32[50]{0} %param_2.14, u32[50]{0} %broadcast.6650), metadata={op_name="jit(step)/jit(main)/while/body/shift_left" source_file="/home/mathis/repos/backward_ica/src/training.py" source_line=415}
  %constant.5075 = u32[] constant(32)
  %subtract.310 = u32[] subtract(u32[] %constant.5075, u32[] %reshape.4234), metadata={op_name="jit(step)/jit(main)/while/body/sub" source_file="/home/mathis/repos/backward_ica/src/training.py" source_line=415}
  %broadcast.6649 = u32[50]{0} broadcast(u32[] %subtract.310), dimensions={}, metadata={op_name="jit(step)/jit(main)/while/body/shift_right_logical" source_file="/home/mathis/repos/backward_ica/src/training.py" source_line=415}
  %shift-right-logical.169 = u32[50]{0} shift-right-logical(u32[50]{0} %param_2.14, u32[50]{0} %broadcast.6649), metadata={op_name="jit(step)/jit(main)/while/body/shift_right_logical" source_file="/home/mathis/repos/backward_ica/src/training.py" source_line=415}
  %or.200 = u32[50]{0} or(u32[50]{0} %shift-left.168, u32[50]{0} %shift-right-logical.169), metadata={op_name="jit(step)/jit(main)/while/body/or" source_file="/home/mathis/repos/backward_ica/src/training.py" source_line=415}
  %xor.205 = u32[50]{0} xor(u32[50]{0} %add.1653, u32[50]{0} %or.200), metadata={op_name="jit(step)/jit(main)/while/body/xor" source_file="/home/mathis/repos/backward_ica/src/training.py" source_line=415}
  %add.1652 = u32[50]{0} add(u32[50]{0} %add.1653, u32[50]{0} %xor.205), metadata={op_name="jit(step)/jit(main)/while/body/add" source_file="/home/mathis/repos/backward_ica/src/training.py" source_line=415}
  %slice.455 = u32[1]{0} slice(u32[4]{0} %param_1.11), slice={[1:2]}, metadata={op_name="jit(step)/jit(main)/while/body/slice[start_indices=(1,) limit_indices=(2,) strides=(1,)]" source_file="/home/mathis/repos/backward_ica/src/training.py" source_line=415}
  %reshape.4233 = u32[] reshape(u32[1]{0} %slice.455), metadata={op_name="jit(step)/jit(main)/while/body/squeeze[dimensions=(0,)]" source_file="/home/mathis/repos/backward_ica/src/training.py" source_line=415}
  %broadcast.6648 = u32[50]{0} broadcast(u32[] %reshape.4233), dimensions={}, metadata={op_name="jit(step)/jit(main)/while/body/shift_left" source_file="/home/mathis/repos/backward_ica/src/training.py" source_line=415}
  %shift-left.167 = u32[50]{0} shift-left(u32[50]{0} %xor.205, u32[50]{0} %broadcast.6648), metadata={op_name="jit(step)/jit(main)/while/body/shift_left" source_file="/home/mathis/repos/backward_ica/src/training.py" source_line=415}
  %subtract.309 = u32[] subtract(u32[] %constant.5075, u32[] %reshape.4233), metadata={op_name="jit(step)/jit(main)/while/body/sub" source_file="/home/mathis/repos/backward_ica/src/training.py" source_line=415}
  %broadcast.6647 = u32[50]{0} broadcast(u32[] %subtract.309), dimensions={}, metadata={op_name="jit(step)/jit(main)/while/body/shift_right_logical" source_file="/home/mathis/repos/backward_ica/src/training.py" source_line=415}
  %shift-right-logical.168 = u32[50]{0} shift-right-logical(u32[50]{0} %xor.205, u32[50]{0} %broadcast.6647), metadata={op_name="jit(step)/jit(main)/while/body/shift_right_logical" source_file="/home/mathis/repos/backward_ica/src/training.py" source_line=415}
  %or.198 = u32[50]{0} or(u32[50]{0} %shift-left.167, u32[50]{0} %shift-right-logical.168), metadata={op_name="jit(step)/jit(main)/while/body/or" source_file="/home/mathis/repos/backward_ica/src/training.py" source_line=415}
  %xor.204 = u32[50]{0} xor(u32[50]{0} %add.1652, u32[50]{0} %or.198), metadata={op_name="jit(step)/jit(main)/while/body/xor" source_file="/home/mathis/repos/backward_ica/src/training.py" source_line=415}
  %add.1651 = u32[50]{0} add(u32[50]{0} %add.1652, u32[50]{0} %xor.204), metadata={op_name="jit(step)/jit(main)/while/body/add" source_file="/home/mathis/repos/backward_ica/src/training.py" source_line=415}
  %slice.454 = u32[1]{0} slice(u32[4]{0} %param_1.11), slice={[2:3]}, metadata={op_name="jit(step)/jit(main)/while/body/slice[start_indices=(2,) limit_indices=(3,) strides=(1,)]" source_file="/home/mathis/repos/backward_ica/src/training.py" source_line=415}
  %reshape.4232 = u32[] reshape(u32[1]{0} %slice.454), metadata={op_name="jit(step)/jit(main)/while/body/squeeze[dimensions=(0,)]" source_file="/home/mathis/repos/backward_ica/src/training.py" source_line=415}
  %broadcast.6646 = u32[50]{0} broadcast(u32[] %reshape.4232), dimensions={}, metadata={op_name="jit(step)/jit(main)/while/body/shift_left" source_file="/home/mathis/repos/backward_ica/src/training.py" source_line=415}
  %shift-left.166 = u32[50]{0} shift-left(u32[50]{0} %xor.204, u32[50]{0} %broadcast.6646), metadata={op_name="jit(step)/jit(main)/while/body/shift_left" source_file="/home/mathis/repos/backward_ica/src/training.py" source_line=415}
  %subtract.308 = u32[] subtract(u32[] %constant.5075, u32[] %reshape.4232), metadata={op_name="jit(step)/jit(main)/while/body/sub" source_file="/home/mathis/repos/backward_ica/src/training.py" source_line=415}
  %broadcast.6645 = u32[50]{0} broadcast(u32[] %subtract.308), dimensions={}, metadata={op_name="jit(step)/jit(main)/while/body/shift_right_logical" source_file="/home/mathis/repos/backward_ica/src/training.py" source_line=415}
  %shift-right-logical.167 = u32[50]{0} shift-right-logical(u32[50]{0} %xor.204, u32[50]{0} %broadcast.6645), metadata={op_name="jit(step)/jit(main)/while/body/shift_right_logical" source_file="/home/mathis/repos/backward_ica/src/training.py" source_line=415}
  %or.197 = u32[50]{0} or(u32[50]{0} %shift-left.166, u32[50]{0} %shift-right-logical.167), metadata={op_name="jit(step)/jit(main)/while/body/or" source_file="/home/mathis/repos/backward_ica/src/training.py" source_line=415}
  %xor.203 = u32[50]{0} xor(u32[50]{0} %add.1651, u32[50]{0} %or.197), metadata={op_name="jit(step)/jit(main)/while/body/xor" source_file="/home/mathis/repos/backward_ica/src/training.py" source_line=415}
  %add.1650 = u32[50]{0} add(u32[50]{0} %add.1651, u32[50]{0} %xor.203), metadata={op_name="jit(step)/jit(main)/while/body/add" source_file="/home/mathis/repos/backward_ica/src/training.py" source_line=415}
  %param_0.4 = u32[] parameter(0)
  %broadcast.6644 = u32[50]{0} broadcast(u32[] %param_0.4), dimensions={}, metadata={op_name="jit(step)/jit(main)/while/body/add" source_file="/home/mathis/repos/backward_ica/src/training.py" source_line=415}
  ROOT %add.1649 = u32[50]{0} add(u32[50]{0} %add.1650, u32[50]{0} %broadcast.6644), metadata={op_name="jit(step)/jit(main)/while/body/add" source_file="/home/mathis/repos/backward_ica/src/training.py" source_line=415}
}

%region_0.67.clone.clone.clone (arg_tuple.53: (s64[], u32[50], u32[50], u32[], u32[], /*index=5*/u32[], u32[4], u32[4])) -> (s64[], u32[50], u32[50], u32[], u32[], /*index=5*/u32[], u32[4], u32[4]) {
  %arg_tuple.53 = (s64[], u32[50]{0}, u32[50]{0}, u32[], u32[], /*index=5*/u32[], u32[4]{0}, u32[4]{0}) parameter(0)
  %get-tuple-element.3096 = s64[] get-tuple-element((s64[], u32[50]{0}, u32[50]{0}, u32[], u32[], /*index=5*/u32[], u32[4]{0}, u32[4]{0}) %arg_tuple.53), index=0
  %copy.2558 = s64[] copy(s64[] %get-tuple-element.3096)
  %constant.3322 = s64[] constant(1)
  %add.1125 = s64[] add(s64[] %copy.2558, s64[] %constant.3322), metadata={op_name="jit(step)/jit(main)/while/body/add" source_file="/home/mathis/repos/backward_ica/src/training.py" source_line=415}
  %get-tuple-element.3099 = u32[] get-tuple-element((s64[], u32[50]{0}, u32[50]{0}, u32[], u32[], /*index=5*/u32[], u32[4]{0}, u32[4]{0}) %arg_tuple.53), index=3
  %copy.2561 = u32[] copy(u32[] %get-tuple-element.3099)
  %get-tuple-element.3102 = u32[4]{0} get-tuple-element((s64[], u32[50]{0}, u32[50]{0}, u32[], u32[], /*index=5*/u32[], u32[4]{0}, u32[4]{0}) %arg_tuple.53), index=6
  %copy.2564 = u32[4]{0} copy(u32[4]{0} %get-tuple-element.3102)
  %get-tuple-element.3098 = u32[50]{0} get-tuple-element((s64[], u32[50]{0}, u32[50]{0}, u32[], u32[], /*index=5*/u32[], u32[4]{0}, u32[4]{0}) %arg_tuple.53), index=2
  %copy.2560 = u32[50]{0} copy(u32[50]{0} %get-tuple-element.3098)
  %get-tuple-element.3097 = u32[50]{0} get-tuple-element((s64[], u32[50]{0}, u32[50]{0}, u32[], u32[], /*index=5*/u32[], u32[4]{0}, u32[4]{0}) %arg_tuple.53), index=1
  %copy.2559 = u32[50]{0} copy(u32[50]{0} %get-tuple-element.3097)
  %fusion.1 = u32[50]{0} fusion(u32[] %copy.2561, u32[4]{0} %copy.2564, u32[50]{0} %copy.2560, u32[50]{0} %copy.2559), kind=kLoop, calls=%fused_computation.1, metadata={op_name="jit(step)/jit(main)/while/body/add" source_file="/home/mathis/repos/backward_ica/src/training.py" source_line=415}
  %get-tuple-element.3100 = u32[] get-tuple-element((s64[], u32[50]{0}, u32[50]{0}, u32[], u32[], /*index=5*/u32[], u32[4]{0}, u32[4]{0}) %arg_tuple.53), index=4
  %copy.2562 = u32[] copy(u32[] %get-tuple-element.3100)
  %fusion = u32[50]{0} fusion(u32[] %copy.2562, u32[4]{0} %copy.2564, u32[50]{0} %copy.2560, u32[50]{0} %copy.2559, s64[] %copy.2558), kind=kLoop, calls=%fused_computation, metadata={op_name="jit(step)/jit(main)/while/body/add" source_file="/home/mathis/repos/backward_ica/src/training.py" source_line=415}
  %copy.2569 = u32[] copy(u32[] %copy.2562), control-predecessors={%copy.2561}
  %get-tuple-element.3101 = u32[] get-tuple-element((s64[], u32[50]{0}, u32[50]{0}, u32[], u32[], /*index=5*/u32[], u32[4]{0}, u32[4]{0}) %arg_tuple.53), index=5
  %copy.2563 = u32[] copy(u32[] %get-tuple-element.3101)
  %copy.2570 = u32[] copy(u32[] %copy.2563), control-predecessors={%copy.2562}
  %copy.2571 = u32[] copy(u32[] %copy.2561), control-predecessors={%copy.2563}
  %get-tuple-element.3103 = u32[4]{0} get-tuple-element((s64[], u32[50]{0}, u32[50]{0}, u32[], u32[], /*index=5*/u32[], u32[4]{0}, u32[4]{0}) %arg_tuple.53), index=7
  %copy.2565 = u32[4]{0} copy(u32[4]{0} %get-tuple-element.3103)
  %copy.2572 = u32[4]{0} copy(u32[4]{0} %copy.2565), control-predecessors={%copy.2564}
  %copy.2573 = u32[4]{0} copy(u32[4]{0} %copy.2564), control-predecessors={%copy.2565}
  ROOT %tuple.377 = (s64[], u32[50]{0}, u32[50]{0}, u32[], u32[], /*index=5*/u32[], u32[4]{0}, u32[4]{0}) tuple(s64[] %add.1125, u32[50]{0} %fusion.1, u32[50]{0} %fusion, u32[] %copy.2569, u32[] %copy.2570, /*index=5*/u32[] %copy.2571, u32[4]{0} %copy.2572, u32[4]{0} %copy.2573)
}

%region_1.131.clone.clone (arg_tuple.54: (s64[], u32[50], u32[50], u32[], u32[], /*index=5*/u32[], u32[4], u32[4])) -> pred[] {
  %arg_tuple.54 = (s64[], u32[50]{0}, u32[50]{0}, u32[], u32[], /*index=5*/u32[], u32[4]{0}, u32[4]{0}) parameter(0)
  %get-tuple-element.2308 = s64[] get-tuple-element((s64[], u32[50]{0}, u32[50]{0}, u32[], u32[], /*index=5*/u32[], u32[4]{0}, u32[4]{0}) %arg_tuple.54), index=0
  %constant.3323 = s64[] constant(5)
  ROOT %compare.644 = pred[] compare(s64[] %get-tuple-element.2308, s64[] %constant.3323), direction=LT, metadata={op_name="jit(step)/jit(main)/while/cond/lt" source_file="/home/mathis/repos/backward_ica/src/training.py" source_line=415}
}

%region_20.2929 (Arg_0.2930: f64[], Arg_1.2931: f64[]) -> f64[] {
  %Arg_0.2930 = f64[] parameter(0)
  %Arg_1.2931 = f64[] parameter(1)
  ROOT %add.2932 = f64[] add(f64[] %Arg_0.2930, f64[] %Arg_1.2931), metadata={op_name="jit(step)/jit(main)/while/body/cond/branch_0_fun/vmap(transpose(vmap(jvp(jit(_diag)))))/jit(_where)/reduce_sum[axes=(1,)]" source_file="/home/mathis/repos/backward_ica/src/variational/inference_nets.py" source_line=107}
}

%region_21.2946 (Arg_0.2947: f64[], Arg_1.2948: f64[]) -> f64[] {
  %Arg_0.2947 = f64[] parameter(0)
  %Arg_1.2948 = f64[] parameter(1)
  ROOT %add.2949 = f64[] add(f64[] %Arg_0.2947, f64[] %Arg_1.2948), metadata={op_name="jit(step)/jit(main)/while/body/cond/branch_0_fun/vmap(transpose(vmap(jvp(jit(_diag)))))/jit(_where)/reduce_sum[axes=(1,)]" source_file="/home/mathis/repos/backward_ica/src/variational/inference_nets.py" source_line=107}
}

%region_12.1754 (Arg_0.1755: f64[], Arg_1.1756: f64[]) -> f64[] {
  %Arg_0.1755 = f64[] parameter(0)
  %Arg_1.1756 = f64[] parameter(1)
  ROOT %add.1757 = f64[] add(f64[] %Arg_0.1755, f64[] %Arg_1.1756), metadata={op_name="jit(step)/jit(main)/while/body/cond/branch_0_fun/vmap(transpose(vmap(jvp(jit(_diag)))))/jit(_where)/reduce_sum[axes=(1,)]" source_file="/home/mathis/repos/backward_ica/src/variational/inference_nets.py" source_line=107}
}

%region_13.1771 (Arg_0.1772: f64[], Arg_1.1773: f64[]) -> f64[] {
  %Arg_0.1772 = f64[] parameter(0)
  %Arg_1.1773 = f64[] parameter(1)
  ROOT %add.1774 = f64[] add(f64[] %Arg_0.1772, f64[] %Arg_1.1773), metadata={op_name="jit(step)/jit(main)/while/body/cond/branch_0_fun/vmap(transpose(vmap(jvp(jit(_diag)))))/jit(_where)/reduce_sum[axes=(1,)]" source_file="/home/mathis/repos/backward_ica/src/variational/inference_nets.py" source_line=107}
}

%and.reduce_sub_computation.2 (lhs.2: pred[], rhs.2: pred[]) -> pred[] {
  %lhs.2 = pred[] parameter(0)
  %rhs.2 = pred[] parameter(1)
  ROOT %and.5 = pred[] and(pred[] %lhs.2, pred[] %rhs.2)
}

%fused_computation.2 (param_0.5: f64[5,5], param_1.15: f64[5], param_2.19: s32[], param_3.24: s32[2], param_4.37: s32[5,2]) -> f64[5,5] {
  %param_0.5 = f64[5,5]{1,0} parameter(0)
  %constant.5078 = s32[] constant(0)
  %broadcast.6652 = s32[2]{0} broadcast(s32[] %constant.5078), dimensions={}
  %param_3.24 = s32[2]{0} parameter(3)
  %compare.1026 = pred[2]{0} compare(s32[2]{0} %broadcast.6652, s32[2]{0} %param_3.24), direction=LE
  %constant.5077 = s32[] constant(4)
  %broadcast.6651 = s32[2]{0} broadcast(s32[] %constant.5077), dimensions={}
  %compare.1024 = pred[2]{0} compare(s32[2]{0} %broadcast.6651, s32[2]{0} %param_3.24), direction=GE
  %and.54 = pred[2]{0} and(pred[2]{0} %compare.1026, pred[2]{0} %compare.1024)
  %constant.5076 = pred[] constant(true)
  %reduce.145 = pred[] reduce(pred[2]{0} %and.54, pred[] %constant.5076), dimensions={0}, to_apply=%and.reduce_sub_computation.2
  %reshape.4238 = pred[1,1]{1,0} reshape(pred[] %reduce.145)
  %param_4.37 = s32[5,2]{1,0} parameter(4)
  %param_2.19 = s32[] parameter(2)
  %dynamic-slice.32 = s32[1,2]{1,0} dynamic-slice(s32[5,2]{1,0} %param_4.37, s32[] %param_2.19, s32[] %constant.5078), dynamic_slice_sizes={1,2}
  %slice.458 = s32[1,1]{1,0} slice(s32[1,2]{1,0} %dynamic-slice.32), slice={[0:1], [0:1]}
  %reshape.4237 = s32[] reshape(s32[1,1]{1,0} %slice.458)
  %reshape.4239 = s32[2]{0} reshape(s32[1,2]{1,0} %dynamic-slice.32)
  %slice.457 = s32[1]{0} slice(s32[2]{0} %reshape.4239), slice={[1:2]}
  %reshape.4236 = s32[] reshape(s32[1]{0} %slice.457)
  %dynamic-slice.31 = f64[1,1]{1,0} dynamic-slice(f64[5,5]{1,0} %param_0.5, s32[] %reshape.4237, s32[] %reshape.4236), dynamic_slice_sizes={1,1}
  %param_1.15 = f64[5]{0} parameter(1)
  %dynamic-slice.30 = f64[1]{0} dynamic-slice(f64[5]{0} %param_1.15, s32[] %param_2.19), dynamic_slice_sizes={1}
  %reshape.4235 = f64[1,1]{1,0} reshape(f64[1]{0} %dynamic-slice.30)
  %add.1654 = f64[1,1]{1,0} add(f64[1,1]{1,0} %dynamic-slice.31, f64[1,1]{1,0} %reshape.4235), metadata={op_name="/add" source_file="/home/mathis/repos/backward_ica/src/stats/distributions.py" source_line=211}
  %select.1860 = f64[1,1]{1,0} select(pred[1,1]{1,0} %reshape.4238, f64[1,1]{1,0} %add.1654, f64[1,1]{1,0} %dynamic-slice.31)
  ROOT %dynamic-update-slice.86 = f64[5,5]{1,0} dynamic-update-slice(f64[5,5]{1,0} %param_0.5, f64[1,1]{1,0} %select.1860, s32[] %reshape.4237, s32[] %reshape.4236)
}

%fused_computation.3 (param_0.8: s32[5,2], param_1.20: s32[]) -> s32[2] {
  %param_0.8 = s32[5,2]{1,0} parameter(0)
  %param_1.20 = s32[] parameter(1)
  %constant.5079 = s32[] constant(0)
  %dynamic-slice.33 = s32[1,2]{1,0} dynamic-slice(s32[5,2]{1,0} %param_0.8, s32[] %param_1.20, s32[] %constant.5079), dynamic_slice_sizes={1,2}
  %slice.460 = s32[1,1]{1,0} slice(s32[1,2]{1,0} %dynamic-slice.33), slice={[0:1], [0:1]}
  %reshape.4241 = s32[1]{0} reshape(s32[1,1]{1,0} %slice.460)
  %reshape.4240 = s32[2]{0} reshape(s32[1,2]{1,0} %dynamic-slice.33)
  %slice.459 = s32[1]{0} slice(s32[2]{0} %reshape.4240), slice={[1:2]}
  ROOT %concatenate.54 = s32[2]{0} concatenate(s32[1]{0} %reshape.4241, s32[1]{0} %slice.459), dimensions={0}
}

%while_body.2 (param.4: (s32[], f64[5,5], s32[5,2], f64[5])) -> (s32[], f64[5,5], s32[5,2], f64[5]) {
  %param.4 = (s32[], f64[5,5]{1,0}, s32[5,2]{1,0}, f64[5]{0}) parameter(0)
  %get-tuple-element.2835 = s32[] get-tuple-element((s32[], f64[5,5]{1,0}, s32[5,2]{1,0}, f64[5]{0}) %param.4), index=0
  %copy.2154 = s32[] copy(s32[] %get-tuple-element.2835)
  %constant.2595 = s32[] constant(1)
  %add.543 = s32[] add(s32[] %copy.2154, s32[] %constant.2595)
  %get-tuple-element.2836 = f64[5,5]{1,0} get-tuple-element((s32[], f64[5,5]{1,0}, s32[5,2]{1,0}, f64[5]{0}) %param.4), index=1
  %get-tuple-element.2842 = f64[5]{0} get-tuple-element((s32[], f64[5,5]{1,0}, s32[5,2]{1,0}, f64[5]{0}) %param.4), index=3
  %get-tuple-element.2841 = s32[5,2]{1,0} get-tuple-element((s32[], f64[5,5]{1,0}, s32[5,2]{1,0}, f64[5]{0}) %param.4), index=2
  %fusion.3 = s32[2]{0} fusion(s32[5,2]{1,0} %get-tuple-element.2841, s32[] %copy.2154), kind=kLoop, calls=%fused_computation.3
  %fusion.2 = f64[5,5]{1,0} fusion(f64[5,5]{1,0} %get-tuple-element.2836, f64[5]{0} %get-tuple-element.2842, s32[] %copy.2154, s32[2]{0} %fusion.3, s32[5,2]{1,0} %get-tuple-element.2841), kind=kLoop, calls=%fused_computation.2
  ROOT %tuple.345 = (s32[], f64[5,5]{1,0}, s32[5,2]{1,0}, f64[5]{0}) tuple(s32[] %add.543, f64[5,5]{1,0} %fusion.2, s32[5,2]{1,0} %get-tuple-element.2841, f64[5]{0} %get-tuple-element.2842)
}

%while_cond.2 (param.5: (s32[], f64[5,5], s32[5,2], f64[5])) -> pred[] {
  %param.5 = (s32[], f64[5,5]{1,0}, s32[5,2]{1,0}, f64[5]{0}) parameter(0)
  %get-tuple-element.246 = s32[] get-tuple-element((s32[], f64[5,5]{1,0}, s32[5,2]{1,0}, f64[5]{0}) %param.5), index=0
  %constant.2603 = s32[] constant(5)
  ROOT %compare.490 = pred[] compare(s32[] %get-tuple-element.246, s32[] %constant.2603), direction=LT
}

%fused_computation.4 (param_0.11: u32[], param_1.26: u32[4], param_2.27: u32[100], param_3.32: u32[100], param_4.50: s64[]) -> u32[100] {
  %param_3.32 = u32[100]{0} parameter(3)
  %param_2.27 = u32[100]{0} parameter(2)
  %add.1661 = u32[100]{0} add(u32[100]{0} %param_3.32, u32[100]{0} %param_2.27), metadata={op_name="jit(step)/jit(main)/while/body/cond/branch_0_fun/while/body/add" source_file="/home/mathis/venvs/jax_gpu/lib/python3.10/site-packages/haiku/_src/initializers.py" source_line=88}
  %param_1.26 = u32[4]{0} parameter(1)
  %slice.464 = u32[1]{0} slice(u32[4]{0} %param_1.26), slice={[0:1]}, metadata={op_name="jit(step)/jit(main)/while/body/cond/branch_0_fun/while/body/slice[start_indices=(0,) limit_indices=(1,) strides=(1,)]" source_file="/home/mathis/venvs/jax_gpu/lib/python3.10/site-packages/haiku/_src/initializers.py" source_line=88}
  %reshape.4245 = u32[] reshape(u32[1]{0} %slice.464), metadata={op_name="jit(step)/jit(main)/while/body/cond/branch_0_fun/while/body/squeeze[dimensions=(0,)]" source_file="/home/mathis/venvs/jax_gpu/lib/python3.10/site-packages/haiku/_src/initializers.py" source_line=88}
  %broadcast.6662 = u32[100]{0} broadcast(u32[] %reshape.4245), dimensions={}, metadata={op_name="jit(step)/jit(main)/while/body/cond/branch_0_fun/while/body/shift_left" source_file="/home/mathis/venvs/jax_gpu/lib/python3.10/site-packages/haiku/_src/initializers.py" source_line=88}
  %shift-left.172 = u32[100]{0} shift-left(u32[100]{0} %param_2.27, u32[100]{0} %broadcast.6662), metadata={op_name="jit(step)/jit(main)/while/body/cond/branch_0_fun/while/body/shift_left" source_file="/home/mathis/venvs/jax_gpu/lib/python3.10/site-packages/haiku/_src/initializers.py" source_line=88}
  %constant.5081 = u32[] constant(32)
  %subtract.314 = u32[] subtract(u32[] %constant.5081, u32[] %reshape.4245), metadata={op_name="jit(step)/jit(main)/while/body/cond/branch_0_fun/while/body/sub" source_file="/home/mathis/venvs/jax_gpu/lib/python3.10/site-packages/haiku/_src/initializers.py" source_line=88}
  %broadcast.6661 = u32[100]{0} broadcast(u32[] %subtract.314), dimensions={}, metadata={op_name="jit(step)/jit(main)/while/body/cond/branch_0_fun/while/body/shift_right_logical" source_file="/home/mathis/venvs/jax_gpu/lib/python3.10/site-packages/haiku/_src/initializers.py" source_line=88}
  %shift-right-logical.173 = u32[100]{0} shift-right-logical(u32[100]{0} %param_2.27, u32[100]{0} %broadcast.6661), metadata={op_name="jit(step)/jit(main)/while/body/cond/branch_0_fun/while/body/shift_right_logical" source_file="/home/mathis/venvs/jax_gpu/lib/python3.10/site-packages/haiku/_src/initializers.py" source_line=88}
  %or.204 = u32[100]{0} or(u32[100]{0} %shift-left.172, u32[100]{0} %shift-right-logical.173), metadata={op_name="jit(step)/jit(main)/while/body/cond/branch_0_fun/while/body/or" source_file="/home/mathis/venvs/jax_gpu/lib/python3.10/site-packages/haiku/_src/initializers.py" source_line=88}
  %xor.209 = u32[100]{0} xor(u32[100]{0} %add.1661, u32[100]{0} %or.204), metadata={op_name="jit(step)/jit(main)/while/body/cond/branch_0_fun/while/body/xor" source_file="/home/mathis/venvs/jax_gpu/lib/python3.10/site-packages/haiku/_src/initializers.py" source_line=88}
  %add.1660 = u32[100]{0} add(u32[100]{0} %add.1661, u32[100]{0} %xor.209), metadata={op_name="jit(step)/jit(main)/while/body/cond/branch_0_fun/while/body/add" source_file="/home/mathis/venvs/jax_gpu/lib/python3.10/site-packages/haiku/_src/initializers.py" source_line=88}
  %slice.463 = u32[1]{0} slice(u32[4]{0} %param_1.26), slice={[1:2]}, metadata={op_name="jit(step)/jit(main)/while/body/cond/branch_0_fun/while/body/slice[start_indices=(1,) limit_indices=(2,) strides=(1,)]" source_file="/home/mathis/venvs/jax_gpu/lib/python3.10/site-packages/haiku/_src/initializers.py" source_line=88}
  %reshape.4244 = u32[] reshape(u32[1]{0} %slice.463), metadata={op_name="jit(step)/jit(main)/while/body/cond/branch_0_fun/while/body/squeeze[dimensions=(0,)]" source_file="/home/mathis/venvs/jax_gpu/lib/python3.10/site-packages/haiku/_src/initializers.py" source_line=88}
  %broadcast.6660 = u32[100]{0} broadcast(u32[] %reshape.4244), dimensions={}, metadata={op_name="jit(step)/jit(main)/while/body/cond/branch_0_fun/while/body/shift_left" source_file="/home/mathis/venvs/jax_gpu/lib/python3.10/site-packages/haiku/_src/initializers.py" source_line=88}
  %shift-left.171 = u32[100]{0} shift-left(u32[100]{0} %xor.209, u32[100]{0} %broadcast.6660), metadata={op_name="jit(step)/jit(main)/while/body/cond/branch_0_fun/while/body/shift_left" source_file="/home/mathis/venvs/jax_gpu/lib/python3.10/site-packages/haiku/_src/initializers.py" source_line=88}
  %subtract.313 = u32[] subtract(u32[] %constant.5081, u32[] %reshape.4244), metadata={op_name="jit(step)/jit(main)/while/body/cond/branch_0_fun/while/body/sub" source_file="/home/mathis/venvs/jax_gpu/lib/python3.10/site-packages/haiku/_src/initializers.py" source_line=88}
  %broadcast.6659 = u32[100]{0} broadcast(u32[] %subtract.313), dimensions={}, metadata={op_name="jit(step)/jit(main)/while/body/cond/branch_0_fun/while/body/shift_right_logical" source_file="/home/mathis/venvs/jax_gpu/lib/python3.10/site-packages/haiku/_src/initializers.py" source_line=88}
  %shift-right-logical.172 = u32[100]{0} shift-right-logical(u32[100]{0} %xor.209, u32[100]{0} %broadcast.6659), metadata={op_name="jit(step)/jit(main)/while/body/cond/branch_0_fun/while/body/shift_right_logical" source_file="/home/mathis/venvs/jax_gpu/lib/python3.10/site-packages/haiku/_src/initializers.py" source_line=88}
  %or.203 = u32[100]{0} or(u32[100]{0} %shift-left.171, u32[100]{0} %shift-right-logical.172), metadata={op_name="jit(step)/jit(main)/while/body/cond/branch_0_fun/while/body/or" source_file="/home/mathis/venvs/jax_gpu/lib/python3.10/site-packages/haiku/_src/initializers.py" source_line=88}
  %xor.208 = u32[100]{0} xor(u32[100]{0} %add.1660, u32[100]{0} %or.203), metadata={op_name="jit(step)/jit(main)/while/body/cond/branch_0_fun/while/body/xor" source_file="/home/mathis/venvs/jax_gpu/lib/python3.10/site-packages/haiku/_src/initializers.py" source_line=88}
  %add.1659 = u32[100]{0} add(u32[100]{0} %add.1660, u32[100]{0} %xor.208), metadata={op_name="jit(step)/jit(main)/while/body/cond/branch_0_fun/while/body/add" source_file="/home/mathis/venvs/jax_gpu/lib/python3.10/site-packages/haiku/_src/initializers.py" source_line=88}
  %slice.462 = u32[1]{0} slice(u32[4]{0} %param_1.26), slice={[2:3]}, metadata={op_name="jit(step)/jit(main)/while/body/cond/branch_0_fun/while/body/slice[start_indices=(2,) limit_indices=(3,) strides=(1,)]" source_file="/home/mathis/venvs/jax_gpu/lib/python3.10/site-packages/haiku/_src/initializers.py" source_line=88}
  %reshape.4243 = u32[] reshape(u32[1]{0} %slice.462), metadata={op_name="jit(step)/jit(main)/while/body/cond/branch_0_fun/while/body/squeeze[dimensions=(0,)]" source_file="/home/mathis/venvs/jax_gpu/lib/python3.10/site-packages/haiku/_src/initializers.py" source_line=88}
  %broadcast.6658 = u32[100]{0} broadcast(u32[] %reshape.4243), dimensions={}, metadata={op_name="jit(step)/jit(main)/while/body/cond/branch_0_fun/while/body/shift_left" source_file="/home/mathis/venvs/jax_gpu/lib/python3.10/site-packages/haiku/_src/initializers.py" source_line=88}
  %shift-left.170 = u32[100]{0} shift-left(u32[100]{0} %xor.208, u32[100]{0} %broadcast.6658), metadata={op_name="jit(step)/jit(main)/while/body/cond/branch_0_fun/while/body/shift_left" source_file="/home/mathis/venvs/jax_gpu/lib/python3.10/site-packages/haiku/_src/initializers.py" source_line=88}
  %subtract.312 = u32[] subtract(u32[] %constant.5081, u32[] %reshape.4243), metadata={op_name="jit(step)/jit(main)/while/body/cond/branch_0_fun/while/body/sub" source_file="/home/mathis/venvs/jax_gpu/lib/python3.10/site-packages/haiku/_src/initializers.py" source_line=88}
  %broadcast.6657 = u32[100]{0} broadcast(u32[] %subtract.312), dimensions={}, metadata={op_name="jit(step)/jit(main)/while/body/cond/branch_0_fun/while/body/shift_right_logical" source_file="/home/mathis/venvs/jax_gpu/lib/python3.10/site-packages/haiku/_src/initializers.py" source_line=88}
  %shift-right-logical.171 = u32[100]{0} shift-right-logical(u32[100]{0} %xor.208, u32[100]{0} %broadcast.6657), metadata={op_name="jit(step)/jit(main)/while/body/cond/branch_0_fun/while/body/shift_right_logical" source_file="/home/mathis/venvs/jax_gpu/lib/python3.10/site-packages/haiku/_src/initializers.py" source_line=88}
  %or.202 = u32[100]{0} or(u32[100]{0} %shift-left.170, u32[100]{0} %shift-right-logical.171), metadata={op_name="jit(step)/jit(main)/while/body/cond/branch_0_fun/while/body/or" source_file="/home/mathis/venvs/jax_gpu/lib/python3.10/site-packages/haiku/_src/initializers.py" source_line=88}
  %xor.207 = u32[100]{0} xor(u32[100]{0} %add.1659, u32[100]{0} %or.202), metadata={op_name="jit(step)/jit(main)/while/body/cond/branch_0_fun/while/body/xor" source_file="/home/mathis/venvs/jax_gpu/lib/python3.10/site-packages/haiku/_src/initializers.py" source_line=88}
  %add.1657 = u32[100]{0} add(u32[100]{0} %add.1659, u32[100]{0} %xor.207), metadata={op_name="jit(step)/jit(main)/while/body/cond/branch_0_fun/while/body/add" source_file="/home/mathis/venvs/jax_gpu/lib/python3.10/site-packages/haiku/_src/initializers.py" source_line=88}
  %slice.461 = u32[1]{0} slice(u32[4]{0} %param_1.26), slice={[3:4]}, metadata={op_name="jit(step)/jit(main)/while/body/cond/branch_0_fun/while/body/slice[start_indices=(3,) limit_indices=(4,) strides=(1,)]" source_file="/home/mathis/venvs/jax_gpu/lib/python3.10/site-packages/haiku/_src/initializers.py" source_line=88}
  %reshape.4242 = u32[] reshape(u32[1]{0} %slice.461), metadata={op_name="jit(step)/jit(main)/while/body/cond/branch_0_fun/while/body/squeeze[dimensions=(0,)]" source_file="/home/mathis/venvs/jax_gpu/lib/python3.10/site-packages/haiku/_src/initializers.py" source_line=88}
  %broadcast.6656 = u32[100]{0} broadcast(u32[] %reshape.4242), dimensions={}, metadata={op_name="jit(step)/jit(main)/while/body/cond/branch_0_fun/while/body/shift_left" source_file="/home/mathis/venvs/jax_gpu/lib/python3.10/site-packages/haiku/_src/initializers.py" source_line=88}
  %shift-left.169 = u32[100]{0} shift-left(u32[100]{0} %xor.207, u32[100]{0} %broadcast.6656), metadata={op_name="jit(step)/jit(main)/while/body/cond/branch_0_fun/while/body/shift_left" source_file="/home/mathis/venvs/jax_gpu/lib/python3.10/site-packages/haiku/_src/initializers.py" source_line=88}
  %subtract.311 = u32[] subtract(u32[] %constant.5081, u32[] %reshape.4242), metadata={op_name="jit(step)/jit(main)/while/body/cond/branch_0_fun/while/body/sub" source_file="/home/mathis/venvs/jax_gpu/lib/python3.10/site-packages/haiku/_src/initializers.py" source_line=88}
  %broadcast.6655 = u32[100]{0} broadcast(u32[] %subtract.311), dimensions={}, metadata={op_name="jit(step)/jit(main)/while/body/cond/branch_0_fun/while/body/shift_right_logical" source_file="/home/mathis/venvs/jax_gpu/lib/python3.10/site-packages/haiku/_src/initializers.py" source_line=88}
  %shift-right-logical.170 = u32[100]{0} shift-right-logical(u32[100]{0} %xor.207, u32[100]{0} %broadcast.6655), metadata={op_name="jit(step)/jit(main)/while/body/cond/branch_0_fun/while/body/shift_right_logical" source_file="/home/mathis/venvs/jax_gpu/lib/python3.10/site-packages/haiku/_src/initializers.py" source_line=88}
  %or.201 = u32[100]{0} or(u32[100]{0} %shift-left.169, u32[100]{0} %shift-right-logical.170), metadata={op_name="jit(step)/jit(main)/while/body/cond/branch_0_fun/while/body/or" source_file="/home/mathis/venvs/jax_gpu/lib/python3.10/site-packages/haiku/_src/initializers.py" source_line=88}
  %xor.206 = u32[100]{0} xor(u32[100]{0} %add.1657, u32[100]{0} %or.201), metadata={op_name="jit(step)/jit(main)/while/body/cond/branch_0_fun/while/body/xor" source_file="/home/mathis/venvs/jax_gpu/lib/python3.10/site-packages/haiku/_src/initializers.py" source_line=88}
  %param_0.11 = u32[] parameter(0)
  %broadcast.6654 = u32[100]{0} broadcast(u32[] %param_0.11), dimensions={}, metadata={op_name="jit(step)/jit(main)/while/body/cond/branch_0_fun/while/body/add" source_file="/home/mathis/venvs/jax_gpu/lib/python3.10/site-packages/haiku/_src/initializers.py" source_line=88}
  %add.1656 = u32[100]{0} add(u32[100]{0} %xor.206, u32[100]{0} %broadcast.6654), metadata={op_name="jit(step)/jit(main)/while/body/cond/branch_0_fun/while/body/add" source_file="/home/mathis/venvs/jax_gpu/lib/python3.10/site-packages/haiku/_src/initializers.py" source_line=88}
  %param_4.50 = s64[] parameter(4)
  %constant.5083 = s64[] constant(1)
  %add.1662 = s64[] add(s64[] %param_4.50, s64[] %constant.5083), metadata={op_name="jit(step)/jit(main)/while/body/cond/branch_0_fun/while/body/add" source_file="/home/mathis/repos/backward_ica/src/online_smoothing.py" source_line=621}
  %convert.249 = u32[] convert(s64[] %add.1662), metadata={op_name="jit(step)/jit(main)/while/body/cond/branch_0_fun/while/body/convert_element_type[new_dtype=uint32 weak_type=False]" source_file="/home/mathis/venvs/jax_gpu/lib/python3.10/site-packages/haiku/_src/initializers.py" source_line=88}
  %broadcast.6653 = u32[100]{0} broadcast(u32[] %convert.249), dimensions={}, metadata={op_name="jit(step)/jit(main)/while/body/cond/branch_0_fun/while/body/add" source_file="/home/mathis/venvs/jax_gpu/lib/python3.10/site-packages/haiku/_src/initializers.py" source_line=88}
  ROOT %add.1655 = u32[100]{0} add(u32[100]{0} %add.1656, u32[100]{0} %broadcast.6653), metadata={op_name="jit(step)/jit(main)/while/body/cond/branch_0_fun/while/body/add" source_file="/home/mathis/venvs/jax_gpu/lib/python3.10/site-packages/haiku/_src/initializers.py" source_line=88}
}

%fused_computation.5 (param_0.13: u32[], param_1.32: u32[4], param_2.35: u32[100], param_3.42: u32[100]) -> u32[100] {
  %param_3.42 = u32[100]{0} parameter(3)
  %param_2.35 = u32[100]{0} parameter(2)
  %add.1667 = u32[100]{0} add(u32[100]{0} %param_3.42, u32[100]{0} %param_2.35), metadata={op_name="jit(step)/jit(main)/while/body/cond/branch_0_fun/while/body/add" source_file="/home/mathis/venvs/jax_gpu/lib/python3.10/site-packages/haiku/_src/initializers.py" source_line=88}
  %param_1.32 = u32[4]{0} parameter(1)
  %slice.467 = u32[1]{0} slice(u32[4]{0} %param_1.32), slice={[0:1]}, metadata={op_name="jit(step)/jit(main)/while/body/cond/branch_0_fun/while/body/slice[start_indices=(0,) limit_indices=(1,) strides=(1,)]" source_file="/home/mathis/venvs/jax_gpu/lib/python3.10/site-packages/haiku/_src/initializers.py" source_line=88}
  %reshape.4248 = u32[] reshape(u32[1]{0} %slice.467), metadata={op_name="jit(step)/jit(main)/while/body/cond/branch_0_fun/while/body/squeeze[dimensions=(0,)]" source_file="/home/mathis/venvs/jax_gpu/lib/python3.10/site-packages/haiku/_src/initializers.py" source_line=88}
  %broadcast.6669 = u32[100]{0} broadcast(u32[] %reshape.4248), dimensions={}, metadata={op_name="jit(step)/jit(main)/while/body/cond/branch_0_fun/while/body/shift_left" source_file="/home/mathis/venvs/jax_gpu/lib/python3.10/site-packages/haiku/_src/initializers.py" source_line=88}
  %shift-left.176 = u32[100]{0} shift-left(u32[100]{0} %param_2.35, u32[100]{0} %broadcast.6669), metadata={op_name="jit(step)/jit(main)/while/body/cond/branch_0_fun/while/body/shift_left" source_file="/home/mathis/venvs/jax_gpu/lib/python3.10/site-packages/haiku/_src/initializers.py" source_line=88}
  %constant.5084 = u32[] constant(32)
  %subtract.317 = u32[] subtract(u32[] %constant.5084, u32[] %reshape.4248), metadata={op_name="jit(step)/jit(main)/while/body/cond/branch_0_fun/while/body/sub" source_file="/home/mathis/venvs/jax_gpu/lib/python3.10/site-packages/haiku/_src/initializers.py" source_line=88}
  %broadcast.6668 = u32[100]{0} broadcast(u32[] %subtract.317), dimensions={}, metadata={op_name="jit(step)/jit(main)/while/body/cond/branch_0_fun/while/body/shift_right_logical" source_file="/home/mathis/venvs/jax_gpu/lib/python3.10/site-packages/haiku/_src/initializers.py" source_line=88}
  %shift-right-logical.176 = u32[100]{0} shift-right-logical(u32[100]{0} %param_2.35, u32[100]{0} %broadcast.6668), metadata={op_name="jit(step)/jit(main)/while/body/cond/branch_0_fun/while/body/shift_right_logical" source_file="/home/mathis/venvs/jax_gpu/lib/python3.10/site-packages/haiku/_src/initializers.py" source_line=88}
  %or.207 = u32[100]{0} or(u32[100]{0} %shift-left.176, u32[100]{0} %shift-right-logical.176), metadata={op_name="jit(step)/jit(main)/while/body/cond/branch_0_fun/while/body/or" source_file="/home/mathis/venvs/jax_gpu/lib/python3.10/site-packages/haiku/_src/initializers.py" source_line=88}
  %xor.213 = u32[100]{0} xor(u32[100]{0} %add.1667, u32[100]{0} %or.207), metadata={op_name="jit(step)/jit(main)/while/body/cond/branch_0_fun/while/body/xor" source_file="/home/mathis/venvs/jax_gpu/lib/python3.10/site-packages/haiku/_src/initializers.py" source_line=88}
  %add.1666 = u32[100]{0} add(u32[100]{0} %add.1667, u32[100]{0} %xor.213), metadata={op_name="jit(step)/jit(main)/while/body/cond/branch_0_fun/while/body/add" source_file="/home/mathis/venvs/jax_gpu/lib/python3.10/site-packages/haiku/_src/initializers.py" source_line=88}
  %slice.466 = u32[1]{0} slice(u32[4]{0} %param_1.32), slice={[1:2]}, metadata={op_name="jit(step)/jit(main)/while/body/cond/branch_0_fun/while/body/slice[start_indices=(1,) limit_indices=(2,) strides=(1,)]" source_file="/home/mathis/venvs/jax_gpu/lib/python3.10/site-packages/haiku/_src/initializers.py" source_line=88}
  %reshape.4247 = u32[] reshape(u32[1]{0} %slice.466), metadata={op_name="jit(step)/jit(main)/while/body/cond/branch_0_fun/while/body/squeeze[dimensions=(0,)]" source_file="/home/mathis/venvs/jax_gpu/lib/python3.10/site-packages/haiku/_src/initializers.py" source_line=88}
  %broadcast.6667 = u32[100]{0} broadcast(u32[] %reshape.4247), dimensions={}, metadata={op_name="jit(step)/jit(main)/while/body/cond/branch_0_fun/while/body/shift_left" source_file="/home/mathis/venvs/jax_gpu/lib/python3.10/site-packages/haiku/_src/initializers.py" source_line=88}
  %shift-left.174 = u32[100]{0} shift-left(u32[100]{0} %xor.213, u32[100]{0} %broadcast.6667), metadata={op_name="jit(step)/jit(main)/while/body/cond/branch_0_fun/while/body/shift_left" source_file="/home/mathis/venvs/jax_gpu/lib/python3.10/site-packages/haiku/_src/initializers.py" source_line=88}
  %subtract.316 = u32[] subtract(u32[] %constant.5084, u32[] %reshape.4247), metadata={op_name="jit(step)/jit(main)/while/body/cond/branch_0_fun/while/body/sub" source_file="/home/mathis/venvs/jax_gpu/lib/python3.10/site-packages/haiku/_src/initializers.py" source_line=88}
  %broadcast.6666 = u32[100]{0} broadcast(u32[] %subtract.316), dimensions={}, metadata={op_name="jit(step)/jit(main)/while/body/cond/branch_0_fun/while/body/shift_right_logical" source_file="/home/mathis/venvs/jax_gpu/lib/python3.10/site-packages/haiku/_src/initializers.py" source_line=88}
  %shift-right-logical.175 = u32[100]{0} shift-right-logical(u32[100]{0} %xor.213, u32[100]{0} %broadcast.6666), metadata={op_name="jit(step)/jit(main)/while/body/cond/branch_0_fun/while/body/shift_right_logical" source_file="/home/mathis/venvs/jax_gpu/lib/python3.10/site-packages/haiku/_src/initializers.py" source_line=88}
  %or.206 = u32[100]{0} or(u32[100]{0} %shift-left.174, u32[100]{0} %shift-right-logical.175), metadata={op_name="jit(step)/jit(main)/while/body/cond/branch_0_fun/while/body/or" source_file="/home/mathis/venvs/jax_gpu/lib/python3.10/site-packages/haiku/_src/initializers.py" source_line=88}
  %xor.212 = u32[100]{0} xor(u32[100]{0} %add.1666, u32[100]{0} %or.206), metadata={op_name="jit(step)/jit(main)/while/body/cond/branch_0_fun/while/body/xor" source_file="/home/mathis/venvs/jax_gpu/lib/python3.10/site-packages/haiku/_src/initializers.py" source_line=88}
  %add.1665 = u32[100]{0} add(u32[100]{0} %add.1666, u32[100]{0} %xor.212), metadata={op_name="jit(step)/jit(main)/while/body/cond/branch_0_fun/while/body/add" source_file="/home/mathis/venvs/jax_gpu/lib/python3.10/site-packages/haiku/_src/initializers.py" source_line=88}
  %slice.465 = u32[1]{0} slice(u32[4]{0} %param_1.32), slice={[2:3]}, metadata={op_name="jit(step)/jit(main)/while/body/cond/branch_0_fun/while/body/slice[start_indices=(2,) limit_indices=(3,) strides=(1,)]" source_file="/home/mathis/venvs/jax_gpu/lib/python3.10/site-packages/haiku/_src/initializers.py" source_line=88}
  %reshape.4246 = u32[] reshape(u32[1]{0} %slice.465), metadata={op_name="jit(step)/jit(main)/while/body/cond/branch_0_fun/while/body/squeeze[dimensions=(0,)]" source_file="/home/mathis/venvs/jax_gpu/lib/python3.10/site-packages/haiku/_src/initializers.py" source_line=88}
  %broadcast.6665 = u32[100]{0} broadcast(u32[] %reshape.4246), dimensions={}, metadata={op_name="jit(step)/jit(main)/while/body/cond/branch_0_fun/while/body/shift_left" source_file="/home/mathis/venvs/jax_gpu/lib/python3.10/site-packages/haiku/_src/initializers.py" source_line=88}
  %shift-left.173 = u32[100]{0} shift-left(u32[100]{0} %xor.212, u32[100]{0} %broadcast.6665), metadata={op_name="jit(step)/jit(main)/while/body/cond/branch_0_fun/while/body/shift_left" source_file="/home/mathis/venvs/jax_gpu/lib/python3.10/site-packages/haiku/_src/initializers.py" source_line=88}
  %subtract.315 = u32[] subtract(u32[] %constant.5084, u32[] %reshape.4246), metadata={op_name="jit(step)/jit(main)/while/body/cond/branch_0_fun/while/body/sub" source_file="/home/mathis/venvs/jax_gpu/lib/python3.10/site-packages/haiku/_src/initializers.py" source_line=88}
  %broadcast.6664 = u32[100]{0} broadcast(u32[] %subtract.315), dimensions={}, metadata={op_name="jit(step)/jit(main)/while/body/cond/branch_0_fun/while/body/shift_right_logical" source_file="/home/mathis/venvs/jax_gpu/lib/python3.10/site-packages/haiku/_src/initializers.py" source_line=88}
  %shift-right-logical.174 = u32[100]{0} shift-right-logical(u32[100]{0} %xor.212, u32[100]{0} %broadcast.6664), metadata={op_name="jit(step)/jit(main)/while/body/cond/branch_0_fun/while/body/shift_right_logical" source_file="/home/mathis/venvs/jax_gpu/lib/python3.10/site-packages/haiku/_src/initializers.py" source_line=88}
  %or.205 = u32[100]{0} or(u32[100]{0} %shift-left.173, u32[100]{0} %shift-right-logical.174), metadata={op_name="jit(step)/jit(main)/while/body/cond/branch_0_fun/while/body/or" source_file="/home/mathis/venvs/jax_gpu/lib/python3.10/site-packages/haiku/_src/initializers.py" source_line=88}
  %xor.211 = u32[100]{0} xor(u32[100]{0} %add.1665, u32[100]{0} %or.205), metadata={op_name="jit(step)/jit(main)/while/body/cond/branch_0_fun/while/body/xor" source_file="/home/mathis/venvs/jax_gpu/lib/python3.10/site-packages/haiku/_src/initializers.py" source_line=88}
  %add.1664 = u32[100]{0} add(u32[100]{0} %add.1665, u32[100]{0} %xor.211), metadata={op_name="jit(step)/jit(main)/while/body/cond/branch_0_fun/while/body/add" source_file="/home/mathis/venvs/jax_gpu/lib/python3.10/site-packages/haiku/_src/initializers.py" source_line=88}
  %param_0.13 = u32[] parameter(0)
  %broadcast.6663 = u32[100]{0} broadcast(u32[] %param_0.13), dimensions={}, metadata={op_name="jit(step)/jit(main)/while/body/cond/branch_0_fun/while/body/add" source_file="/home/mathis/venvs/jax_gpu/lib/python3.10/site-packages/haiku/_src/initializers.py" source_line=88}
  ROOT %add.1663 = u32[100]{0} add(u32[100]{0} %add.1664, u32[100]{0} %broadcast.6663), metadata={op_name="jit(step)/jit(main)/while/body/cond/branch_0_fun/while/body/add" source_file="/home/mathis/venvs/jax_gpu/lib/python3.10/site-packages/haiku/_src/initializers.py" source_line=88}
}

%region_4.157.clone.clone.clone (arg_tuple.33: (s64[], u32[100], u32[100], u32[], u32[], /*index=5*/u32[], u32[4], u32[4])) -> (s64[], u32[100], u32[100], u32[], u32[], /*index=5*/u32[], u32[4], u32[4]) {
  %arg_tuple.33 = (s64[], u32[100]{0}, u32[100]{0}, u32[], u32[], /*index=5*/u32[], u32[4]{0}, u32[4]{0}) parameter(0)
  %get-tuple-element.2791 = s64[] get-tuple-element((s64[], u32[100]{0}, u32[100]{0}, u32[], u32[], /*index=5*/u32[], u32[4]{0}, u32[4]{0}) %arg_tuple.33), index=0
  %copy.2083 = s64[] copy(s64[] %get-tuple-element.2791)
  %constant.3283 = s64[] constant(1)
  %add.1018 = s64[] add(s64[] %copy.2083, s64[] %constant.3283), metadata={op_name="jit(step)/jit(main)/while/body/cond/branch_0_fun/while/body/add" source_file="/home/mathis/repos/backward_ica/src/online_smoothing.py" source_line=621}
  %get-tuple-element.2794 = u32[] get-tuple-element((s64[], u32[100]{0}, u32[100]{0}, u32[], u32[], /*index=5*/u32[], u32[4]{0}, u32[4]{0}) %arg_tuple.33), index=3
  %copy.2086 = u32[] copy(u32[] %get-tuple-element.2794)
  %get-tuple-element.2797 = u32[4]{0} get-tuple-element((s64[], u32[100]{0}, u32[100]{0}, u32[], u32[], /*index=5*/u32[], u32[4]{0}, u32[4]{0}) %arg_tuple.33), index=6
  %copy.2089 = u32[4]{0} copy(u32[4]{0} %get-tuple-element.2797)
  %get-tuple-element.2793 = u32[100]{0} get-tuple-element((s64[], u32[100]{0}, u32[100]{0}, u32[], u32[], /*index=5*/u32[], u32[4]{0}, u32[4]{0}) %arg_tuple.33), index=2
  %copy.2085 = u32[100]{0} copy(u32[100]{0} %get-tuple-element.2793)
  %get-tuple-element.2792 = u32[100]{0} get-tuple-element((s64[], u32[100]{0}, u32[100]{0}, u32[], u32[], /*index=5*/u32[], u32[4]{0}, u32[4]{0}) %arg_tuple.33), index=1
  %copy.2084 = u32[100]{0} copy(u32[100]{0} %get-tuple-element.2792)
  %fusion.5 = u32[100]{0} fusion(u32[] %copy.2086, u32[4]{0} %copy.2089, u32[100]{0} %copy.2085, u32[100]{0} %copy.2084), kind=kLoop, calls=%fused_computation.5, metadata={op_name="jit(step)/jit(main)/while/body/cond/branch_0_fun/while/body/add" source_file="/home/mathis/venvs/jax_gpu/lib/python3.10/site-packages/haiku/_src/initializers.py" source_line=88}
  %get-tuple-element.2795 = u32[] get-tuple-element((s64[], u32[100]{0}, u32[100]{0}, u32[], u32[], /*index=5*/u32[], u32[4]{0}, u32[4]{0}) %arg_tuple.33), index=4
  %copy.2087 = u32[] copy(u32[] %get-tuple-element.2795)
  %fusion.4 = u32[100]{0} fusion(u32[] %copy.2087, u32[4]{0} %copy.2089, u32[100]{0} %copy.2085, u32[100]{0} %copy.2084, s64[] %copy.2083), kind=kLoop, calls=%fused_computation.4, metadata={op_name="jit(step)/jit(main)/while/body/cond/branch_0_fun/while/body/add" source_file="/home/mathis/venvs/jax_gpu/lib/python3.10/site-packages/haiku/_src/initializers.py" source_line=88}
  %copy.2094 = u32[] copy(u32[] %copy.2087), control-predecessors={%copy.2086}
  %get-tuple-element.2796 = u32[] get-tuple-element((s64[], u32[100]{0}, u32[100]{0}, u32[], u32[], /*index=5*/u32[], u32[4]{0}, u32[4]{0}) %arg_tuple.33), index=5
  %copy.2088 = u32[] copy(u32[] %get-tuple-element.2796)
  %copy.2095 = u32[] copy(u32[] %copy.2088), control-predecessors={%copy.2087}
  %copy.2096 = u32[] copy(u32[] %copy.2086), control-predecessors={%copy.2088}
  %get-tuple-element.2798 = u32[4]{0} get-tuple-element((s64[], u32[100]{0}, u32[100]{0}, u32[], u32[], /*index=5*/u32[], u32[4]{0}, u32[4]{0}) %arg_tuple.33), index=7
  %copy.2090 = u32[4]{0} copy(u32[4]{0} %get-tuple-element.2798)
  %copy.2097 = u32[4]{0} copy(u32[4]{0} %copy.2090), control-predecessors={%copy.2089}
  %copy.2098 = u32[4]{0} copy(u32[4]{0} %copy.2089), control-predecessors={%copy.2090}
  ROOT %tuple.339 = (s64[], u32[100]{0}, u32[100]{0}, u32[], u32[], /*index=5*/u32[], u32[4]{0}, u32[4]{0}) tuple(s64[] %add.1018, u32[100]{0} %fusion.5, u32[100]{0} %fusion.4, u32[] %copy.2094, u32[] %copy.2095, /*index=5*/u32[] %copy.2096, u32[4]{0} %copy.2097, u32[4]{0} %copy.2098)
}

%region_5.221.clone.clone (arg_tuple.34: (s64[], u32[100], u32[100], u32[], u32[], /*index=5*/u32[], u32[4], u32[4])) -> pred[] {
  %arg_tuple.34 = (s64[], u32[100]{0}, u32[100]{0}, u32[], u32[], /*index=5*/u32[], u32[4]{0}, u32[4]{0}) parameter(0)
  %get-tuple-element.1983 = s64[] get-tuple-element((s64[], u32[100]{0}, u32[100]{0}, u32[], u32[], /*index=5*/u32[], u32[4]{0}, u32[4]{0}) %arg_tuple.34), index=0
  %constant.3284 = s64[] constant(5)
  ROOT %compare.626 = pred[] compare(s64[] %get-tuple-element.1983, s64[] %constant.3284), direction=LT, metadata={op_name="jit(step)/jit(main)/while/body/cond/branch_0_fun/while/cond/lt" source_file="/home/mathis/repos/backward_ica/src/online_smoothing.py" source_line=621}
}

%fused_computation.6 (param_0.16: u32[100,1], param_1.38: u32[4], param_2.43: u32[100,5], param_3.50: u32[100,5], param_4.79: s64[]) -> u32[100,5] {
  %param_3.50 = u32[100,5]{1,0} parameter(3)
  %param_2.43 = u32[100,5]{1,0} parameter(2)
  %add.1673 = u32[100,5]{1,0} add(u32[100,5]{1,0} %param_3.50, u32[100,5]{1,0} %param_2.43), metadata={op_name="jit(step)/jit(main)/while/body/cond/branch_0_fun/vmap(jvp(jit(_normal)))/jit(_normal_real)/jit(_uniform)/vmap(while)/body/add" source_file="/home/mathis/repos/backward_ica/src/stats/distributions.py" source_line=207}
  %param_1.38 = u32[4]{0} parameter(1)
  %slice.471 = u32[1]{0} slice(u32[4]{0} %param_1.38), slice={[0:1]}, metadata={op_name="jit(step)/jit(main)/while/body/cond/branch_0_fun/vmap(jvp(jit(_normal)))/jit(_normal_real)/jit(_uniform)/vmap(while)/body/slice[start_indices=(0,) limit_indices=(1,) strides=(1,)]" source_file="/home/mathis/repos/backward_ica/src/stats/distributions.py" source_line=207}
  %reshape.4253 = u32[] reshape(u32[1]{0} %slice.471), metadata={op_name="jit(step)/jit(main)/while/body/cond/branch_0_fun/vmap(jvp(jit(_normal)))/jit(_normal_real)/jit(_uniform)/vmap(while)/body/squeeze[dimensions=(0,)]" source_file="/home/mathis/repos/backward_ica/src/stats/distributions.py" source_line=207}
  %broadcast.6679 = u32[100,5]{1,0} broadcast(u32[] %reshape.4253), dimensions={}, metadata={op_name="jit(step)/jit(main)/while/body/cond/branch_0_fun/vmap(jvp(jit(_normal)))/jit(_normal_real)/jit(_uniform)/vmap(while)/body/shift_left" source_file="/home/mathis/repos/backward_ica/src/stats/distributions.py" source_line=207}
  %shift-left.180 = u32[100,5]{1,0} shift-left(u32[100,5]{1,0} %param_2.43, u32[100,5]{1,0} %broadcast.6679), metadata={op_name="jit(step)/jit(main)/while/body/cond/branch_0_fun/vmap(jvp(jit(_normal)))/jit(_normal_real)/jit(_uniform)/vmap(while)/body/shift_left" source_file="/home/mathis/repos/backward_ica/src/stats/distributions.py" source_line=207}
  %constant.5085 = u32[] constant(32)
  %subtract.321 = u32[] subtract(u32[] %constant.5085, u32[] %reshape.4253), metadata={op_name="jit(step)/jit(main)/while/body/cond/branch_0_fun/vmap(jvp(jit(_normal)))/jit(_normal_real)/jit(_uniform)/vmap(while)/body/sub" source_file="/home/mathis/repos/backward_ica/src/stats/distributions.py" source_line=207}
  %broadcast.6678 = u32[100,5]{1,0} broadcast(u32[] %subtract.321), dimensions={}, metadata={op_name="jit(step)/jit(main)/while/body/cond/branch_0_fun/vmap(jvp(jit(_normal)))/jit(_normal_real)/jit(_uniform)/vmap(while)/body/shift_right_logical" source_file="/home/mathis/repos/backward_ica/src/stats/distributions.py" source_line=207}
  %shift-right-logical.181 = u32[100,5]{1,0} shift-right-logical(u32[100,5]{1,0} %param_2.43, u32[100,5]{1,0} %broadcast.6678), metadata={op_name="jit(step)/jit(main)/while/body/cond/branch_0_fun/vmap(jvp(jit(_normal)))/jit(_normal_real)/jit(_uniform)/vmap(while)/body/shift_right_logical" source_file="/home/mathis/repos/backward_ica/src/stats/distributions.py" source_line=207}
  %or.212 = u32[100,5]{1,0} or(u32[100,5]{1,0} %shift-left.180, u32[100,5]{1,0} %shift-right-logical.181), metadata={op_name="jit(step)/jit(main)/while/body/cond/branch_0_fun/vmap(jvp(jit(_normal)))/jit(_normal_real)/jit(_uniform)/vmap(while)/body/or" source_file="/home/mathis/repos/backward_ica/src/stats/distributions.py" source_line=207}
  %xor.217 = u32[100,5]{1,0} xor(u32[100,5]{1,0} %add.1673, u32[100,5]{1,0} %or.212), metadata={op_name="jit(step)/jit(main)/while/body/cond/branch_0_fun/vmap(jvp(jit(_normal)))/jit(_normal_real)/jit(_uniform)/vmap(while)/body/xor" source_file="/home/mathis/repos/backward_ica/src/stats/distributions.py" source_line=207}
  %add.1672 = u32[100,5]{1,0} add(u32[100,5]{1,0} %add.1673, u32[100,5]{1,0} %xor.217), metadata={op_name="jit(step)/jit(main)/while/body/cond/branch_0_fun/vmap(jvp(jit(_normal)))/jit(_normal_real)/jit(_uniform)/vmap(while)/body/add" source_file="/home/mathis/repos/backward_ica/src/stats/distributions.py" source_line=207}
  %slice.470 = u32[1]{0} slice(u32[4]{0} %param_1.38), slice={[1:2]}, metadata={op_name="jit(step)/jit(main)/while/body/cond/branch_0_fun/vmap(jvp(jit(_normal)))/jit(_normal_real)/jit(_uniform)/vmap(while)/body/slice[start_indices=(1,) limit_indices=(2,) strides=(1,)]" source_file="/home/mathis/repos/backward_ica/src/stats/distributions.py" source_line=207}
  %reshape.4252 = u32[] reshape(u32[1]{0} %slice.470), metadata={op_name="jit(step)/jit(main)/while/body/cond/branch_0_fun/vmap(jvp(jit(_normal)))/jit(_normal_real)/jit(_uniform)/vmap(while)/body/squeeze[dimensions=(0,)]" source_file="/home/mathis/repos/backward_ica/src/stats/distributions.py" source_line=207}
  %broadcast.6677 = u32[100,5]{1,0} broadcast(u32[] %reshape.4252), dimensions={}, metadata={op_name="jit(step)/jit(main)/while/body/cond/branch_0_fun/vmap(jvp(jit(_normal)))/jit(_normal_real)/jit(_uniform)/vmap(while)/body/shift_left" source_file="/home/mathis/repos/backward_ica/src/stats/distributions.py" source_line=207}
  %shift-left.179 = u32[100,5]{1,0} shift-left(u32[100,5]{1,0} %xor.217, u32[100,5]{1,0} %broadcast.6677), metadata={op_name="jit(step)/jit(main)/while/body/cond/branch_0_fun/vmap(jvp(jit(_normal)))/jit(_normal_real)/jit(_uniform)/vmap(while)/body/shift_left" source_file="/home/mathis/repos/backward_ica/src/stats/distributions.py" source_line=207}
  %subtract.320 = u32[] subtract(u32[] %constant.5085, u32[] %reshape.4252), metadata={op_name="jit(step)/jit(main)/while/body/cond/branch_0_fun/vmap(jvp(jit(_normal)))/jit(_normal_real)/jit(_uniform)/vmap(while)/body/sub" source_file="/home/mathis/repos/backward_ica/src/stats/distributions.py" source_line=207}
  %broadcast.6676 = u32[100,5]{1,0} broadcast(u32[] %subtract.320), dimensions={}, metadata={op_name="jit(step)/jit(main)/while/body/cond/branch_0_fun/vmap(jvp(jit(_normal)))/jit(_normal_real)/jit(_uniform)/vmap(while)/body/shift_right_logical" source_file="/home/mathis/repos/backward_ica/src/stats/distributions.py" source_line=207}
  %shift-right-logical.180 = u32[100,5]{1,0} shift-right-logical(u32[100,5]{1,0} %xor.217, u32[100,5]{1,0} %broadcast.6676), metadata={op_name="jit(step)/jit(main)/while/body/cond/branch_0_fun/vmap(jvp(jit(_normal)))/jit(_normal_real)/jit(_uniform)/vmap(while)/body/shift_right_logical" source_file="/home/mathis/repos/backward_ica/src/stats/distributions.py" source_line=207}
  %or.211 = u32[100,5]{1,0} or(u32[100,5]{1,0} %shift-left.179, u32[100,5]{1,0} %shift-right-logical.180), metadata={op_name="jit(step)/jit(main)/while/body/cond/branch_0_fun/vmap(jvp(jit(_normal)))/jit(_normal_real)/jit(_uniform)/vmap(while)/body/or" source_file="/home/mathis/repos/backward_ica/src/stats/distributions.py" source_line=207}
  %xor.216 = u32[100,5]{1,0} xor(u32[100,5]{1,0} %add.1672, u32[100,5]{1,0} %or.211), metadata={op_name="jit(step)/jit(main)/while/body/cond/branch_0_fun/vmap(jvp(jit(_normal)))/jit(_normal_real)/jit(_uniform)/vmap(while)/body/xor" source_file="/home/mathis/repos/backward_ica/src/stats/distributions.py" source_line=207}
  %add.1671 = u32[100,5]{1,0} add(u32[100,5]{1,0} %add.1672, u32[100,5]{1,0} %xor.216), metadata={op_name="jit(step)/jit(main)/while/body/cond/branch_0_fun/vmap(jvp(jit(_normal)))/jit(_normal_real)/jit(_uniform)/vmap(while)/body/add" source_file="/home/mathis/repos/backward_ica/src/stats/distributions.py" source_line=207}
  %slice.469 = u32[1]{0} slice(u32[4]{0} %param_1.38), slice={[2:3]}, metadata={op_name="jit(step)/jit(main)/while/body/cond/branch_0_fun/vmap(jvp(jit(_normal)))/jit(_normal_real)/jit(_uniform)/vmap(while)/body/slice[start_indices=(2,) limit_indices=(3,) strides=(1,)]" source_file="/home/mathis/repos/backward_ica/src/stats/distributions.py" source_line=207}
  %reshape.4251 = u32[] reshape(u32[1]{0} %slice.469), metadata={op_name="jit(step)/jit(main)/while/body/cond/branch_0_fun/vmap(jvp(jit(_normal)))/jit(_normal_real)/jit(_uniform)/vmap(while)/body/squeeze[dimensions=(0,)]" source_file="/home/mathis/repos/backward_ica/src/stats/distributions.py" source_line=207}
  %broadcast.6675 = u32[100,5]{1,0} broadcast(u32[] %reshape.4251), dimensions={}, metadata={op_name="jit(step)/jit(main)/while/body/cond/branch_0_fun/vmap(jvp(jit(_normal)))/jit(_normal_real)/jit(_uniform)/vmap(while)/body/shift_left" source_file="/home/mathis/repos/backward_ica/src/stats/distributions.py" source_line=207}
  %shift-left.178 = u32[100,5]{1,0} shift-left(u32[100,5]{1,0} %xor.216, u32[100,5]{1,0} %broadcast.6675), metadata={op_name="jit(step)/jit(main)/while/body/cond/branch_0_fun/vmap(jvp(jit(_normal)))/jit(_normal_real)/jit(_uniform)/vmap(while)/body/shift_left" source_file="/home/mathis/repos/backward_ica/src/stats/distributions.py" source_line=207}
  %subtract.319 = u32[] subtract(u32[] %constant.5085, u32[] %reshape.4251), metadata={op_name="jit(step)/jit(main)/while/body/cond/branch_0_fun/vmap(jvp(jit(_normal)))/jit(_normal_real)/jit(_uniform)/vmap(while)/body/sub" source_file="/home/mathis/repos/backward_ica/src/stats/distributions.py" source_line=207}
  %broadcast.6674 = u32[100,5]{1,0} broadcast(u32[] %subtract.319), dimensions={}, metadata={op_name="jit(step)/jit(main)/while/body/cond/branch_0_fun/vmap(jvp(jit(_normal)))/jit(_normal_real)/jit(_uniform)/vmap(while)/body/shift_right_logical" source_file="/home/mathis/repos/backward_ica/src/stats/distributions.py" source_line=207}
  %shift-right-logical.179 = u32[100,5]{1,0} shift-right-logical(u32[100,5]{1,0} %xor.216, u32[100,5]{1,0} %broadcast.6674), metadata={op_name="jit(step)/jit(main)/while/body/cond/branch_0_fun/vmap(jvp(jit(_normal)))/jit(_normal_real)/jit(_uniform)/vmap(while)/body/shift_right_logical" source_file="/home/mathis/repos/backward_ica/src/stats/distributions.py" source_line=207}
  %or.210 = u32[100,5]{1,0} or(u32[100,5]{1,0} %shift-left.178, u32[100,5]{1,0} %shift-right-logical.179), metadata={op_name="jit(step)/jit(main)/while/body/cond/branch_0_fun/vmap(jvp(jit(_normal)))/jit(_normal_real)/jit(_uniform)/vmap(while)/body/or" source_file="/home/mathis/repos/backward_ica/src/stats/distributions.py" source_line=207}
  %xor.215 = u32[100,5]{1,0} xor(u32[100,5]{1,0} %add.1671, u32[100,5]{1,0} %or.210), metadata={op_name="jit(step)/jit(main)/while/body/cond/branch_0_fun/vmap(jvp(jit(_normal)))/jit(_normal_real)/jit(_uniform)/vmap(while)/body/xor" source_file="/home/mathis/repos/backward_ica/src/stats/distributions.py" source_line=207}
  %add.1670 = u32[100,5]{1,0} add(u32[100,5]{1,0} %add.1671, u32[100,5]{1,0} %xor.215), metadata={op_name="jit(step)/jit(main)/while/body/cond/branch_0_fun/vmap(jvp(jit(_normal)))/jit(_normal_real)/jit(_uniform)/vmap(while)/body/add" source_file="/home/mathis/repos/backward_ica/src/stats/distributions.py" source_line=207}
  %slice.468 = u32[1]{0} slice(u32[4]{0} %param_1.38), slice={[3:4]}, metadata={op_name="jit(step)/jit(main)/while/body/cond/branch_0_fun/vmap(jvp(jit(_normal)))/jit(_normal_real)/jit(_uniform)/vmap(while)/body/slice[start_indices=(3,) limit_indices=(4,) strides=(1,)]" source_file="/home/mathis/repos/backward_ica/src/stats/distributions.py" source_line=207}
  %reshape.4250 = u32[] reshape(u32[1]{0} %slice.468), metadata={op_name="jit(step)/jit(main)/while/body/cond/branch_0_fun/vmap(jvp(jit(_normal)))/jit(_normal_real)/jit(_uniform)/vmap(while)/body/squeeze[dimensions=(0,)]" source_file="/home/mathis/repos/backward_ica/src/stats/distributions.py" source_line=207}
  %broadcast.6673 = u32[100,5]{1,0} broadcast(u32[] %reshape.4250), dimensions={}, metadata={op_name="jit(step)/jit(main)/while/body/cond/branch_0_fun/vmap(jvp(jit(_normal)))/jit(_normal_real)/jit(_uniform)/vmap(while)/body/shift_left" source_file="/home/mathis/repos/backward_ica/src/stats/distributions.py" source_line=207}
  %shift-left.177 = u32[100,5]{1,0} shift-left(u32[100,5]{1,0} %xor.215, u32[100,5]{1,0} %broadcast.6673), metadata={op_name="jit(step)/jit(main)/while/body/cond/branch_0_fun/vmap(jvp(jit(_normal)))/jit(_normal_real)/jit(_uniform)/vmap(while)/body/shift_left" source_file="/home/mathis/repos/backward_ica/src/stats/distributions.py" source_line=207}
  %subtract.318 = u32[] subtract(u32[] %constant.5085, u32[] %reshape.4250), metadata={op_name="jit(step)/jit(main)/while/body/cond/branch_0_fun/vmap(jvp(jit(_normal)))/jit(_normal_real)/jit(_uniform)/vmap(while)/body/sub" source_file="/home/mathis/repos/backward_ica/src/stats/distributions.py" source_line=207}
  %broadcast.6672 = u32[100,5]{1,0} broadcast(u32[] %subtract.318), dimensions={}, metadata={op_name="jit(step)/jit(main)/while/body/cond/branch_0_fun/vmap(jvp(jit(_normal)))/jit(_normal_real)/jit(_uniform)/vmap(while)/body/shift_right_logical" source_file="/home/mathis/repos/backward_ica/src/stats/distributions.py" source_line=207}
  %shift-right-logical.177 = u32[100,5]{1,0} shift-right-logical(u32[100,5]{1,0} %xor.215, u32[100,5]{1,0} %broadcast.6672), metadata={op_name="jit(step)/jit(main)/while/body/cond/branch_0_fun/vmap(jvp(jit(_normal)))/jit(_normal_real)/jit(_uniform)/vmap(while)/body/shift_right_logical" source_file="/home/mathis/repos/backward_ica/src/stats/distributions.py" source_line=207}
  %or.208 = u32[100,5]{1,0} or(u32[100,5]{1,0} %shift-left.177, u32[100,5]{1,0} %shift-right-logical.177), metadata={op_name="jit(step)/jit(main)/while/body/cond/branch_0_fun/vmap(jvp(jit(_normal)))/jit(_normal_real)/jit(_uniform)/vmap(while)/body/or" source_file="/home/mathis/repos/backward_ica/src/stats/distributions.py" source_line=207}
  %xor.214 = u32[100,5]{1,0} xor(u32[100,5]{1,0} %add.1670, u32[100,5]{1,0} %or.208), metadata={op_name="jit(step)/jit(main)/while/body/cond/branch_0_fun/vmap(jvp(jit(_normal)))/jit(_normal_real)/jit(_uniform)/vmap(while)/body/xor" source_file="/home/mathis/repos/backward_ica/src/stats/distributions.py" source_line=207}
  %param_0.16 = u32[100,1]{1,0} parameter(0)
  %reshape.4249 = u32[100]{0} reshape(u32[100,1]{1,0} %param_0.16), metadata={op_name="jit(step)/jit(main)/while/body/cond/branch_0_fun/vmap(jvp(jit(_normal)))/jit(_normal_real)/jit(_uniform)/vmap(while)/body/add" source_file="/home/mathis/repos/backward_ica/src/stats/distributions.py" source_line=207}
  %broadcast.6671 = u32[100,5]{1,0} broadcast(u32[100]{0} %reshape.4249), dimensions={0}, metadata={op_name="jit(step)/jit(main)/while/body/cond/branch_0_fun/vmap(jvp(jit(_normal)))/jit(_normal_real)/jit(_uniform)/vmap(while)/body/add" source_file="/home/mathis/repos/backward_ica/src/stats/distributions.py" source_line=207}
  %add.1669 = u32[100,5]{1,0} add(u32[100,5]{1,0} %xor.214, u32[100,5]{1,0} %broadcast.6671), metadata={op_name="jit(step)/jit(main)/while/body/cond/branch_0_fun/vmap(jvp(jit(_normal)))/jit(_normal_real)/jit(_uniform)/vmap(while)/body/add" source_file="/home/mathis/repos/backward_ica/src/stats/distributions.py" source_line=207}
  %param_4.79 = s64[] parameter(4)
  %constant.5086 = s64[] constant(1)
  %add.1674 = s64[] add(s64[] %param_4.79, s64[] %constant.5086), metadata={op_name="jit(step)/jit(main)/while/body/cond/branch_0_fun/vmap(jvp(jit(_normal)))/jit(_normal_real)/jit(_uniform)/vmap(while)/body/add" source_file="/home/mathis/repos/backward_ica/src/stats/distributions.py" source_line=207}
  %convert.250 = u32[] convert(s64[] %add.1674), metadata={op_name="jit(step)/jit(main)/while/body/cond/branch_0_fun/vmap(jvp(jit(_normal)))/jit(_normal_real)/jit(_uniform)/vmap(while)/body/convert_element_type[new_dtype=uint32 weak_type=False]" source_file="/home/mathis/repos/backward_ica/src/stats/distributions.py" source_line=207}
  %broadcast.6670 = u32[100,5]{1,0} broadcast(u32[] %convert.250), dimensions={}, metadata={op_name="jit(step)/jit(main)/while/body/cond/branch_0_fun/vmap(jvp(jit(_normal)))/jit(_normal_real)/jit(_uniform)/vmap(while)/body/add" source_file="/home/mathis/repos/backward_ica/src/stats/distributions.py" source_line=207}
  ROOT %add.1668 = u32[100,5]{1,0} add(u32[100,5]{1,0} %add.1669, u32[100,5]{1,0} %broadcast.6670), metadata={op_name="jit(step)/jit(main)/while/body/cond/branch_0_fun/vmap(jvp(jit(_normal)))/jit(_normal_real)/jit(_uniform)/vmap(while)/body/add" source_file="/home/mathis/repos/backward_ica/src/stats/distributions.py" source_line=207}
}

%fused_computation.7 (param_0.18: u32[100,1], param_1.45: u32[4], param_2.51: u32[100,5], param_3.60: u32[100,5]) -> u32[100,5] {
  %param_3.60 = u32[100,5]{1,0} parameter(3)
  %param_2.51 = u32[100,5]{1,0} parameter(2)
  %add.1679 = u32[100,5]{1,0} add(u32[100,5]{1,0} %param_3.60, u32[100,5]{1,0} %param_2.51), metadata={op_name="jit(step)/jit(main)/while/body/cond/branch_0_fun/vmap(jvp(jit(_normal)))/jit(_normal_real)/jit(_uniform)/vmap(while)/body/add" source_file="/home/mathis/repos/backward_ica/src/stats/distributions.py" source_line=207}
  %param_1.45 = u32[4]{0} parameter(1)
  %slice.474 = u32[1]{0} slice(u32[4]{0} %param_1.45), slice={[0:1]}, metadata={op_name="jit(step)/jit(main)/while/body/cond/branch_0_fun/vmap(jvp(jit(_normal)))/jit(_normal_real)/jit(_uniform)/vmap(while)/body/slice[start_indices=(0,) limit_indices=(1,) strides=(1,)]" source_file="/home/mathis/repos/backward_ica/src/stats/distributions.py" source_line=207}
  %reshape.4257 = u32[] reshape(u32[1]{0} %slice.474), metadata={op_name="jit(step)/jit(main)/while/body/cond/branch_0_fun/vmap(jvp(jit(_normal)))/jit(_normal_real)/jit(_uniform)/vmap(while)/body/squeeze[dimensions=(0,)]" source_file="/home/mathis/repos/backward_ica/src/stats/distributions.py" source_line=207}
  %broadcast.6686 = u32[100,5]{1,0} broadcast(u32[] %reshape.4257), dimensions={}, metadata={op_name="jit(step)/jit(main)/while/body/cond/branch_0_fun/vmap(jvp(jit(_normal)))/jit(_normal_real)/jit(_uniform)/vmap(while)/body/shift_left" source_file="/home/mathis/repos/backward_ica/src/stats/distributions.py" source_line=207}
  %shift-left.183 = u32[100,5]{1,0} shift-left(u32[100,5]{1,0} %param_2.51, u32[100,5]{1,0} %broadcast.6686), metadata={op_name="jit(step)/jit(main)/while/body/cond/branch_0_fun/vmap(jvp(jit(_normal)))/jit(_normal_real)/jit(_uniform)/vmap(while)/body/shift_left" source_file="/home/mathis/repos/backward_ica/src/stats/distributions.py" source_line=207}
  %constant.5087 = u32[] constant(32)
  %subtract.324 = u32[] subtract(u32[] %constant.5087, u32[] %reshape.4257), metadata={op_name="jit(step)/jit(main)/while/body/cond/branch_0_fun/vmap(jvp(jit(_normal)))/jit(_normal_real)/jit(_uniform)/vmap(while)/body/sub" source_file="/home/mathis/repos/backward_ica/src/stats/distributions.py" source_line=207}
  %broadcast.6685 = u32[100,5]{1,0} broadcast(u32[] %subtract.324), dimensions={}, metadata={op_name="jit(step)/jit(main)/while/body/cond/branch_0_fun/vmap(jvp(jit(_normal)))/jit(_normal_real)/jit(_uniform)/vmap(while)/body/shift_right_logical" source_file="/home/mathis/repos/backward_ica/src/stats/distributions.py" source_line=207}
  %shift-right-logical.184 = u32[100,5]{1,0} shift-right-logical(u32[100,5]{1,0} %param_2.51, u32[100,5]{1,0} %broadcast.6685), metadata={op_name="jit(step)/jit(main)/while/body/cond/branch_0_fun/vmap(jvp(jit(_normal)))/jit(_normal_real)/jit(_uniform)/vmap(while)/body/shift_right_logical" source_file="/home/mathis/repos/backward_ica/src/stats/distributions.py" source_line=207}
  %or.215 = u32[100,5]{1,0} or(u32[100,5]{1,0} %shift-left.183, u32[100,5]{1,0} %shift-right-logical.184), metadata={op_name="jit(step)/jit(main)/while/body/cond/branch_0_fun/vmap(jvp(jit(_normal)))/jit(_normal_real)/jit(_uniform)/vmap(while)/body/or" source_file="/home/mathis/repos/backward_ica/src/stats/distributions.py" source_line=207}
  %xor.220 = u32[100,5]{1,0} xor(u32[100,5]{1,0} %add.1679, u32[100,5]{1,0} %or.215), metadata={op_name="jit(step)/jit(main)/while/body/cond/branch_0_fun/vmap(jvp(jit(_normal)))/jit(_normal_real)/jit(_uniform)/vmap(while)/body/xor" source_file="/home/mathis/repos/backward_ica/src/stats/distributions.py" source_line=207}
  %add.1678 = u32[100,5]{1,0} add(u32[100,5]{1,0} %add.1679, u32[100,5]{1,0} %xor.220), metadata={op_name="jit(step)/jit(main)/while/body/cond/branch_0_fun/vmap(jvp(jit(_normal)))/jit(_normal_real)/jit(_uniform)/vmap(while)/body/add" source_file="/home/mathis/repos/backward_ica/src/stats/distributions.py" source_line=207}
  %slice.473 = u32[1]{0} slice(u32[4]{0} %param_1.45), slice={[1:2]}, metadata={op_name="jit(step)/jit(main)/while/body/cond/branch_0_fun/vmap(jvp(jit(_normal)))/jit(_normal_real)/jit(_uniform)/vmap(while)/body/slice[start_indices=(1,) limit_indices=(2,) strides=(1,)]" source_file="/home/mathis/repos/backward_ica/src/stats/distributions.py" source_line=207}
  %reshape.4256 = u32[] reshape(u32[1]{0} %slice.473), metadata={op_name="jit(step)/jit(main)/while/body/cond/branch_0_fun/vmap(jvp(jit(_normal)))/jit(_normal_real)/jit(_uniform)/vmap(while)/body/squeeze[dimensions=(0,)]" source_file="/home/mathis/repos/backward_ica/src/stats/distributions.py" source_line=207}
  %broadcast.6684 = u32[100,5]{1,0} broadcast(u32[] %reshape.4256), dimensions={}, metadata={op_name="jit(step)/jit(main)/while/body/cond/branch_0_fun/vmap(jvp(jit(_normal)))/jit(_normal_real)/jit(_uniform)/vmap(while)/body/shift_left" source_file="/home/mathis/repos/backward_ica/src/stats/distributions.py" source_line=207}
  %shift-left.182 = u32[100,5]{1,0} shift-left(u32[100,5]{1,0} %xor.220, u32[100,5]{1,0} %broadcast.6684), metadata={op_name="jit(step)/jit(main)/while/body/cond/branch_0_fun/vmap(jvp(jit(_normal)))/jit(_normal_real)/jit(_uniform)/vmap(while)/body/shift_left" source_file="/home/mathis/repos/backward_ica/src/stats/distributions.py" source_line=207}
  %subtract.323 = u32[] subtract(u32[] %constant.5087, u32[] %reshape.4256), metadata={op_name="jit(step)/jit(main)/while/body/cond/branch_0_fun/vmap(jvp(jit(_normal)))/jit(_normal_real)/jit(_uniform)/vmap(while)/body/sub" source_file="/home/mathis/repos/backward_ica/src/stats/distributions.py" source_line=207}
  %broadcast.6683 = u32[100,5]{1,0} broadcast(u32[] %subtract.323), dimensions={}, metadata={op_name="jit(step)/jit(main)/while/body/cond/branch_0_fun/vmap(jvp(jit(_normal)))/jit(_normal_real)/jit(_uniform)/vmap(while)/body/shift_right_logical" source_file="/home/mathis/repos/backward_ica/src/stats/distributions.py" source_line=207}
  %shift-right-logical.183 = u32[100,5]{1,0} shift-right-logical(u32[100,5]{1,0} %xor.220, u32[100,5]{1,0} %broadcast.6683), metadata={op_name="jit(step)/jit(main)/while/body/cond/branch_0_fun/vmap(jvp(jit(_normal)))/jit(_normal_real)/jit(_uniform)/vmap(while)/body/shift_right_logical" source_file="/home/mathis/repos/backward_ica/src/stats/distributions.py" source_line=207}
  %or.214 = u32[100,5]{1,0} or(u32[100,5]{1,0} %shift-left.182, u32[100,5]{1,0} %shift-right-logical.183), metadata={op_name="jit(step)/jit(main)/while/body/cond/branch_0_fun/vmap(jvp(jit(_normal)))/jit(_normal_real)/jit(_uniform)/vmap(while)/body/or" source_file="/home/mathis/repos/backward_ica/src/stats/distributions.py" source_line=207}
  %xor.219 = u32[100,5]{1,0} xor(u32[100,5]{1,0} %add.1678, u32[100,5]{1,0} %or.214), metadata={op_name="jit(step)/jit(main)/while/body/cond/branch_0_fun/vmap(jvp(jit(_normal)))/jit(_normal_real)/jit(_uniform)/vmap(while)/body/xor" source_file="/home/mathis/repos/backward_ica/src/stats/distributions.py" source_line=207}
  %add.1677 = u32[100,5]{1,0} add(u32[100,5]{1,0} %add.1678, u32[100,5]{1,0} %xor.219), metadata={op_name="jit(step)/jit(main)/while/body/cond/branch_0_fun/vmap(jvp(jit(_normal)))/jit(_normal_real)/jit(_uniform)/vmap(while)/body/add" source_file="/home/mathis/repos/backward_ica/src/stats/distributions.py" source_line=207}
  %slice.472 = u32[1]{0} slice(u32[4]{0} %param_1.45), slice={[2:3]}, metadata={op_name="jit(step)/jit(main)/while/body/cond/branch_0_fun/vmap(jvp(jit(_normal)))/jit(_normal_real)/jit(_uniform)/vmap(while)/body/slice[start_indices=(2,) limit_indices=(3,) strides=(1,)]" source_file="/home/mathis/repos/backward_ica/src/stats/distributions.py" source_line=207}
  %reshape.4255 = u32[] reshape(u32[1]{0} %slice.472), metadata={op_name="jit(step)/jit(main)/while/body/cond/branch_0_fun/vmap(jvp(jit(_normal)))/jit(_normal_real)/jit(_uniform)/vmap(while)/body/squeeze[dimensions=(0,)]" source_file="/home/mathis/repos/backward_ica/src/stats/distributions.py" source_line=207}
  %broadcast.6682 = u32[100,5]{1,0} broadcast(u32[] %reshape.4255), dimensions={}, metadata={op_name="jit(step)/jit(main)/while/body/cond/branch_0_fun/vmap(jvp(jit(_normal)))/jit(_normal_real)/jit(_uniform)/vmap(while)/body/shift_left" source_file="/home/mathis/repos/backward_ica/src/stats/distributions.py" source_line=207}
  %shift-left.181 = u32[100,5]{1,0} shift-left(u32[100,5]{1,0} %xor.219, u32[100,5]{1,0} %broadcast.6682), metadata={op_name="jit(step)/jit(main)/while/body/cond/branch_0_fun/vmap(jvp(jit(_normal)))/jit(_normal_real)/jit(_uniform)/vmap(while)/body/shift_left" source_file="/home/mathis/repos/backward_ica/src/stats/distributions.py" source_line=207}
  %subtract.322 = u32[] subtract(u32[] %constant.5087, u32[] %reshape.4255), metadata={op_name="jit(step)/jit(main)/while/body/cond/branch_0_fun/vmap(jvp(jit(_normal)))/jit(_normal_real)/jit(_uniform)/vmap(while)/body/sub" source_file="/home/mathis/repos/backward_ica/src/stats/distributions.py" source_line=207}
  %broadcast.6681 = u32[100,5]{1,0} broadcast(u32[] %subtract.322), dimensions={}, metadata={op_name="jit(step)/jit(main)/while/body/cond/branch_0_fun/vmap(jvp(jit(_normal)))/jit(_normal_real)/jit(_uniform)/vmap(while)/body/shift_right_logical" source_file="/home/mathis/repos/backward_ica/src/stats/distributions.py" source_line=207}
  %shift-right-logical.182 = u32[100,5]{1,0} shift-right-logical(u32[100,5]{1,0} %xor.219, u32[100,5]{1,0} %broadcast.6681), metadata={op_name="jit(step)/jit(main)/while/body/cond/branch_0_fun/vmap(jvp(jit(_normal)))/jit(_normal_real)/jit(_uniform)/vmap(while)/body/shift_right_logical" source_file="/home/mathis/repos/backward_ica/src/stats/distributions.py" source_line=207}
  %or.213 = u32[100,5]{1,0} or(u32[100,5]{1,0} %shift-left.181, u32[100,5]{1,0} %shift-right-logical.182), metadata={op_name="jit(step)/jit(main)/while/body/cond/branch_0_fun/vmap(jvp(jit(_normal)))/jit(_normal_real)/jit(_uniform)/vmap(while)/body/or" source_file="/home/mathis/repos/backward_ica/src/stats/distributions.py" source_line=207}
  %xor.218 = u32[100,5]{1,0} xor(u32[100,5]{1,0} %add.1677, u32[100,5]{1,0} %or.213), metadata={op_name="jit(step)/jit(main)/while/body/cond/branch_0_fun/vmap(jvp(jit(_normal)))/jit(_normal_real)/jit(_uniform)/vmap(while)/body/xor" source_file="/home/mathis/repos/backward_ica/src/stats/distributions.py" source_line=207}
  %add.1676 = u32[100,5]{1,0} add(u32[100,5]{1,0} %add.1677, u32[100,5]{1,0} %xor.218), metadata={op_name="jit(step)/jit(main)/while/body/cond/branch_0_fun/vmap(jvp(jit(_normal)))/jit(_normal_real)/jit(_uniform)/vmap(while)/body/add" source_file="/home/mathis/repos/backward_ica/src/stats/distributions.py" source_line=207}
  %param_0.18 = u32[100,1]{1,0} parameter(0)
  %reshape.4254 = u32[100]{0} reshape(u32[100,1]{1,0} %param_0.18), metadata={op_name="jit(step)/jit(main)/while/body/cond/branch_0_fun/vmap(jvp(jit(_normal)))/jit(_normal_real)/jit(_uniform)/vmap(while)/body/add" source_file="/home/mathis/repos/backward_ica/src/stats/distributions.py" source_line=207}
  %broadcast.6680 = u32[100,5]{1,0} broadcast(u32[100]{0} %reshape.4254), dimensions={0}, metadata={op_name="jit(step)/jit(main)/while/body/cond/branch_0_fun/vmap(jvp(jit(_normal)))/jit(_normal_real)/jit(_uniform)/vmap(while)/body/add" source_file="/home/mathis/repos/backward_ica/src/stats/distributions.py" source_line=207}
  ROOT %add.1675 = u32[100,5]{1,0} add(u32[100,5]{1,0} %add.1676, u32[100,5]{1,0} %broadcast.6680), metadata={op_name="jit(step)/jit(main)/while/body/cond/branch_0_fun/vmap(jvp(jit(_normal)))/jit(_normal_real)/jit(_uniform)/vmap(while)/body/add" source_file="/home/mathis/repos/backward_ica/src/stats/distributions.py" source_line=207}
}

%region_14.2140.clone.clone.clone (arg_tuple.35: (s64[], u32[100,5], u32[100,5], u32[100,1], u32[100,1], /*index=5*/u32[100,1], u32[4], u32[4])) -> (s64[], u32[100,5], u32[100,5], u32[100,1], u32[100,1], /*index=5*/u32[100,1], u32[4], u32[4]) {
  %arg_tuple.35 = (s64[], u32[100,5]{1,0}, u32[100,5]{1,0}, u32[100,1]{1,0}, u32[100,1]{1,0}, /*index=5*/u32[100,1]{1,0}, u32[4]{0}, u32[4]{0}) parameter(0)
  %get-tuple-element.2815 = s64[] get-tuple-element((s64[], u32[100,5]{1,0}, u32[100,5]{1,0}, u32[100,1]{1,0}, u32[100,1]{1,0}, /*index=5*/u32[100,1]{1,0}, u32[4]{0}, u32[4]{0}) %arg_tuple.35), index=0
  %copy.2107 = s64[] copy(s64[] %get-tuple-element.2815)
  %constant.3286 = s64[] constant(1)
  %add.1029 = s64[] add(s64[] %copy.2107, s64[] %constant.3286), metadata={op_name="jit(step)/jit(main)/while/body/cond/branch_0_fun/vmap(jvp(jit(_normal)))/jit(_normal_real)/jit(_uniform)/vmap(while)/body/add" source_file="/home/mathis/repos/backward_ica/src/stats/distributions.py" source_line=207}
  %get-tuple-element.2818 = u32[100,1]{1,0} get-tuple-element((s64[], u32[100,5]{1,0}, u32[100,5]{1,0}, u32[100,1]{1,0}, u32[100,1]{1,0}, /*index=5*/u32[100,1]{1,0}, u32[4]{0}, u32[4]{0}) %arg_tuple.35), index=3
  %copy.2110 = u32[100,1]{1,0} copy(u32[100,1]{1,0} %get-tuple-element.2818)
  %get-tuple-element.2821 = u32[4]{0} get-tuple-element((s64[], u32[100,5]{1,0}, u32[100,5]{1,0}, u32[100,1]{1,0}, u32[100,1]{1,0}, /*index=5*/u32[100,1]{1,0}, u32[4]{0}, u32[4]{0}) %arg_tuple.35), index=6
  %copy.2113 = u32[4]{0} copy(u32[4]{0} %get-tuple-element.2821)
  %get-tuple-element.2817 = u32[100,5]{1,0} get-tuple-element((s64[], u32[100,5]{1,0}, u32[100,5]{1,0}, u32[100,1]{1,0}, u32[100,1]{1,0}, /*index=5*/u32[100,1]{1,0}, u32[4]{0}, u32[4]{0}) %arg_tuple.35), index=2
  %copy.2109 = u32[100,5]{1,0} copy(u32[100,5]{1,0} %get-tuple-element.2817)
  %get-tuple-element.2816 = u32[100,5]{1,0} get-tuple-element((s64[], u32[100,5]{1,0}, u32[100,5]{1,0}, u32[100,1]{1,0}, u32[100,1]{1,0}, /*index=5*/u32[100,1]{1,0}, u32[4]{0}, u32[4]{0}) %arg_tuple.35), index=1
  %copy.2108 = u32[100,5]{1,0} copy(u32[100,5]{1,0} %get-tuple-element.2816)
  %fusion.7 = u32[100,5]{1,0} fusion(u32[100,1]{1,0} %copy.2110, u32[4]{0} %copy.2113, u32[100,5]{1,0} %copy.2109, u32[100,5]{1,0} %copy.2108), kind=kLoop, calls=%fused_computation.7, metadata={op_name="jit(step)/jit(main)/while/body/cond/branch_0_fun/vmap(jvp(jit(_normal)))/jit(_normal_real)/jit(_uniform)/vmap(while)/body/add" source_file="/home/mathis/repos/backward_ica/src/stats/distributions.py" source_line=207}
  %get-tuple-element.2819 = u32[100,1]{1,0} get-tuple-element((s64[], u32[100,5]{1,0}, u32[100,5]{1,0}, u32[100,1]{1,0}, u32[100,1]{1,0}, /*index=5*/u32[100,1]{1,0}, u32[4]{0}, u32[4]{0}) %arg_tuple.35), index=4
  %copy.2111 = u32[100,1]{1,0} copy(u32[100,1]{1,0} %get-tuple-element.2819)
  %fusion.6 = u32[100,5]{1,0} fusion(u32[100,1]{1,0} %copy.2111, u32[4]{0} %copy.2113, u32[100,5]{1,0} %copy.2109, u32[100,5]{1,0} %copy.2108, s64[] %copy.2107), kind=kLoop, calls=%fused_computation.6, metadata={op_name="jit(step)/jit(main)/while/body/cond/branch_0_fun/vmap(jvp(jit(_normal)))/jit(_normal_real)/jit(_uniform)/vmap(while)/body/add" source_file="/home/mathis/repos/backward_ica/src/stats/distributions.py" source_line=207}
  %copy.2118 = u32[100,1]{1,0} copy(u32[100,1]{1,0} %copy.2111), control-predecessors={%copy.2110}
  %get-tuple-element.2820 = u32[100,1]{1,0} get-tuple-element((s64[], u32[100,5]{1,0}, u32[100,5]{1,0}, u32[100,1]{1,0}, u32[100,1]{1,0}, /*index=5*/u32[100,1]{1,0}, u32[4]{0}, u32[4]{0}) %arg_tuple.35), index=5
  %copy.2112 = u32[100,1]{1,0} copy(u32[100,1]{1,0} %get-tuple-element.2820)
  %copy.2119 = u32[100,1]{1,0} copy(u32[100,1]{1,0} %copy.2112), control-predecessors={%copy.2111}
  %copy.2120 = u32[100,1]{1,0} copy(u32[100,1]{1,0} %copy.2110), control-predecessors={%copy.2112}
  %get-tuple-element.2822 = u32[4]{0} get-tuple-element((s64[], u32[100,5]{1,0}, u32[100,5]{1,0}, u32[100,1]{1,0}, u32[100,1]{1,0}, /*index=5*/u32[100,1]{1,0}, u32[4]{0}, u32[4]{0}) %arg_tuple.35), index=7
  %copy.2114 = u32[4]{0} copy(u32[4]{0} %get-tuple-element.2822)
  %copy.2121 = u32[4]{0} copy(u32[4]{0} %copy.2114), control-predecessors={%copy.2113}
  %copy.2122 = u32[4]{0} copy(u32[4]{0} %copy.2113), control-predecessors={%copy.2114}
  ROOT %tuple.342 = (s64[], u32[100,5]{1,0}, u32[100,5]{1,0}, u32[100,1]{1,0}, u32[100,1]{1,0}, /*index=5*/u32[100,1]{1,0}, u32[4]{0}, u32[4]{0}) tuple(s64[] %add.1029, u32[100,5]{1,0} %fusion.7, u32[100,5]{1,0} %fusion.6, u32[100,1]{1,0} %copy.2118, u32[100,1]{1,0} %copy.2119, /*index=5*/u32[100,1]{1,0} %copy.2120, u32[4]{0} %copy.2121, u32[4]{0} %copy.2122)
}

%region_15.2208.clone.clone (arg_tuple.36: (s64[], u32[100,5], u32[100,5], u32[100,1], u32[100,1], /*index=5*/u32[100,1], u32[4], u32[4])) -> pred[] {
  %arg_tuple.36 = (s64[], u32[100,5]{1,0}, u32[100,5]{1,0}, u32[100,1]{1,0}, u32[100,1]{1,0}, /*index=5*/u32[100,1]{1,0}, u32[4]{0}, u32[4]{0}) parameter(0)
  %get-tuple-element.2010 = s64[] get-tuple-element((s64[], u32[100,5]{1,0}, u32[100,5]{1,0}, u32[100,1]{1,0}, u32[100,1]{1,0}, /*index=5*/u32[100,1]{1,0}, u32[4]{0}, u32[4]{0}) %arg_tuple.36), index=0
  %constant.3287 = s64[] constant(5)
  ROOT %compare.627 = pred[] compare(s64[] %get-tuple-element.2010, s64[] %constant.3287), direction=LT, metadata={op_name="jit(step)/jit(main)/while/body/cond/branch_0_fun/vmap(jvp(jit(_normal)))/jit(_normal_real)/jit(_uniform)/vmap(while)/cond/lt" source_file="/home/mathis/repos/backward_ica/src/stats/distributions.py" source_line=207}
}

%fused_computation.8 (param_0.20: f64[5], param_1.48: f64[5,5]) -> f64[5] {
  %iota.1822 = s32[5,5]{1,0} iota(), iota_dimension=0, metadata={op_name="jit(step)/jit(main)/while/body/cond/branch_0_fun/vmap(jvp(jit(_diag)))/iota[dtype=int32 shape=(5, 5) dimension=0]" source_file="/home/mathis/repos/backward_ica/src/variational/inference_nets.py" source_line=107}
  %iota.1821 = s32[5,5]{1,0} iota(), iota_dimension=1, metadata={op_name="jit(step)/jit(main)/while/body/cond/branch_0_fun/vmap(jvp(jit(_diag)))/iota[dtype=int32 shape=(5, 5) dimension=1]" source_file="/home/mathis/repos/backward_ica/src/variational/inference_nets.py" source_line=107}
  %compare.1027 = pred[5,5]{1,0} compare(s32[5,5]{1,0} %iota.1822, s32[5,5]{1,0} %iota.1821), direction=EQ, metadata={op_name="jit(step)/jit(main)/while/body/cond/branch_0_fun/vmap(jvp(jit(_diag)))/eq" source_file="/home/mathis/repos/backward_ica/src/variational/inference_nets.py" source_line=107}
  %convert.251 = f64[5,5]{1,0} convert(pred[5,5]{1,0} %compare.1027), metadata={op_name="jit(step)/jit(main)/while/body/cond/branch_0_fun/convert_element_type[new_dtype=float64 weak_type=False]" source_file="/home/mathis/repos/backward_ica/src/utils/misc.py" source_line=571}
  %param_1.48 = f64[5,5]{1,0} parameter(1)
  %subtract.325 = f64[5,5]{1,0} subtract(f64[5,5]{1,0} %convert.251, f64[5,5]{1,0} %param_1.48), metadata={op_name="jit(step)/jit(main)/while/body/cond/branch_0_fun/sub" source_file="/home/mathis/repos/backward_ica/src/stats/__init__.py" source_line=229}
  %param_0.20 = f64[5]{0} parameter(0)
  ROOT %dot.611 = f64[5]{0} dot(f64[5,5]{1,0} %subtract.325, f64[5]{0} %param_0.20), lhs_contracting_dims={1}, rhs_contracting_dims={0}, metadata={op_name="jit(step)/jit(main)/while/body/cond/branch_0_fun/dot_general[dimension_numbers=(((1,), (0,)), ((), ())) precision=None preferred_element_type=None]" source_file="/home/mathis/repos/backward_ica/src/stats/__init__.py" source_line=232}
}

%fused_computation.9 (param_0.22: f64[5], param_1.50: f64[5,5]) -> f64[5] {
  %param_1.50 = f64[5,5]{0,1} parameter(1)
  %copy.1046 = f64[5,5]{1,0} copy(f64[5,5]{0,1} %param_1.50), metadata={op_name="jit(step)/jit(main)/while/body/cond/branch_0_fun/jit(_cho_solve)/triangular_solve[left_side=True lower=True transpose_a=True conjugate_a=False unit_diagonal=False]" source_file="/home/mathis/repos/backward_ica/src/utils/misc.py" source_line=573}
  %param_0.22 = f64[5]{0} parameter(0)
  ROOT %dot.612 = f64[5]{0} dot(f64[5,5]{1,0} %copy.1046, f64[5]{0} %param_0.22), lhs_contracting_dims={1}, rhs_contracting_dims={0}, metadata={op_name="jit(step)/jit(main)/while/body/cond/branch_0_fun/dot_general[dimension_numbers=(((1,), (0,)), ((), ())) precision=None preferred_element_type=None]" source_file="/home/mathis/repos/backward_ica/src/stats/distributions.py" source_line=142}
}

%fused_computation.10 (param_0.24: f64[5,5]) -> f64[5,5] {
  %param_0.24 = f64[5,5]{0,1} parameter(0)
  %copy.1048 = f64[5,5]{1,0} copy(f64[5,5]{0,1} %param_0.24), metadata={op_name="jit(step)/jit(main)/while/body/cond/branch_0_fun/jit(_cho_solve)/triangular_solve[left_side=True lower=True transpose_a=False conjugate_a=False unit_diagonal=False]" source_file="/home/mathis/repos/backward_ica/src/utils/misc.py" source_line=573}
  ROOT %copy.1047 = f64[5,5]{0,1} copy(f64[5,5]{1,0} %copy.1048), metadata={op_name="jit(step)/jit(main)/while/body/cond/branch_0_fun/jit(_cho_solve)/triangular_solve[left_side=True lower=True transpose_a=False conjugate_a=False unit_diagonal=False]" source_file="/home/mathis/repos/backward_ica/src/utils/misc.py" source_line=573}
}

%fused_computation.11 () -> f64[5,5] {
  %iota.1824 = s32[5,5]{1,0} iota(), iota_dimension=0, metadata={op_name="jit(step)/jit(main)/while/body/cond/branch_0_fun/vmap(jvp(jit(_diag)))/iota[dtype=int32 shape=(5, 5) dimension=0]" source_file="/home/mathis/repos/backward_ica/src/variational/inference_nets.py" source_line=107}
  %iota.1823 = s32[5,5]{1,0} iota(), iota_dimension=1, metadata={op_name="jit(step)/jit(main)/while/body/cond/branch_0_fun/vmap(jvp(jit(_diag)))/iota[dtype=int32 shape=(5, 5) dimension=1]" source_file="/home/mathis/repos/backward_ica/src/variational/inference_nets.py" source_line=107}
  %compare.1028 = pred[5,5]{1,0} compare(s32[5,5]{1,0} %iota.1824, s32[5,5]{1,0} %iota.1823), direction=EQ, metadata={op_name="jit(step)/jit(main)/while/body/cond/branch_0_fun/vmap(jvp(jit(_diag)))/eq" source_file="/home/mathis/repos/backward_ica/src/variational/inference_nets.py" source_line=107}
  %convert.252 = f64[5,5]{1,0} convert(pred[5,5]{1,0} %compare.1028), metadata={op_name="jit(step)/jit(main)/while/body/cond/branch_0_fun/convert_element_type[new_dtype=float64 weak_type=False]" source_file="/home/mathis/repos/backward_ica/src/utils/misc.py" source_line=571}
  ROOT %copy.1049 = f64[5,5]{0,1} copy(f64[5,5]{1,0} %convert.252), metadata={op_name="jit(step)/jit(main)/while/body/cond/branch_0_fun/convert_element_type[new_dtype=float64 weak_type=False]" source_file="/home/mathis/repos/backward_ica/src/utils/misc.py" source_line=571}
}

%fused_computation.13 (param_0.35: f64[5,5], param_1.59: s32[]) -> f64[5,5] {
  %iota.1828 = s32[5,5]{1,0} iota(), iota_dimension=0, metadata={op_name="jit(step)/jit(main)/while/body/cond/branch_0_fun/vmap(jvp(jit(cholesky)))/jit(tril)/iota[dtype=int32 shape=(5, 5) dimension=0]" source_file="/home/mathis/repos/backward_ica/src/utils/misc.py" source_line=566}
  %iota.1827 = s32[5,5]{1,0} iota(), iota_dimension=1, metadata={op_name="jit(step)/jit(main)/while/body/cond/branch_0_fun/vmap(jvp(jit(cholesky)))/jit(tril)/iota[dtype=int32 shape=(5, 5) dimension=1]" source_file="/home/mathis/repos/backward_ica/src/utils/misc.py" source_line=566}
  %compare.1032 = pred[5,5]{1,0} compare(s32[5,5]{1,0} %iota.1828, s32[5,5]{1,0} %iota.1827), direction=GE, metadata={op_name="jit(step)/jit(main)/while/body/cond/branch_0_fun/vmap(jvp(jit(cholesky)))/jit(tril)/ge" source_file="/home/mathis/repos/backward_ica/src/utils/misc.py" source_line=566}
  %param_1.59 = s32[] parameter(1)
  %constant.5093 = s32[] constant(0)
  %compare.1031 = pred[] compare(s32[] %param_1.59, s32[] %constant.5093), direction=EQ, metadata={op_name="jit(step)/jit(main)/while/body/cond/branch_0_fun/jit(cholesky)/cholesky" source_file="/home/mathis/repos/backward_ica/src/utils/misc.py" source_line=566}
  %broadcast.6690 = pred[5,5]{1,0} broadcast(pred[] %compare.1031), dimensions={}, metadata={op_name="jit(step)/jit(main)/while/body/cond/branch_0_fun/jit(cholesky)/cholesky" source_file="/home/mathis/repos/backward_ica/src/utils/misc.py" source_line=566}
  %param_0.35 = f64[5,5]{0,1} parameter(0)
  %copy.1053 = f64[5,5]{1,0} copy(f64[5,5]{0,1} %param_0.35), metadata={op_name="jit(step)/jit(main)/while/body/cond/branch_0_fun/jit(cholesky)/cholesky" source_file="/home/mathis/repos/backward_ica/src/utils/misc.py" source_line=566}
  %constant.5091 = f64[] constant(nan)
  %broadcast.6691 = f64[5,5]{1,0} broadcast(f64[] %constant.5091), dimensions={}
  %select.1864 = f64[5,5]{1,0} select(pred[5,5]{1,0} %broadcast.6690, f64[5,5]{1,0} %copy.1053, f64[5,5]{1,0} %broadcast.6691), metadata={op_name="jit(step)/jit(main)/while/body/cond/branch_0_fun/jit(cholesky)/cholesky" source_file="/home/mathis/repos/backward_ica/src/utils/misc.py" source_line=566}
  %constant.5092 = f64[] constant(0)
  %broadcast.6692 = f64[5,5]{1,0} broadcast(f64[] %constant.5092), dimensions={}, metadata={op_name="jit(step)/jit(main)/while/body/cond/branch_0_fun/vmap(jvp(jit(_diag)))/jit(_where)/broadcast_in_dim[shape=(5, 5) broadcast_dimensions=(1,)]" source_file="/home/mathis/repos/backward_ica/src/variational/inference_nets.py" source_line=107}
  %select.1863 = f64[5,5]{1,0} select(pred[5,5]{1,0} %compare.1032, f64[5,5]{1,0} %select.1864, f64[5,5]{1,0} %broadcast.6692), metadata={op_name="jit(step)/jit(main)/while/body/cond/branch_0_fun/jit(cholesky)/jit(tril)/select_n" source_file="/home/mathis/repos/backward_ica/src/utils/misc.py" source_line=566}
  ROOT %copy.1052 = f64[5,5]{0,1} copy(f64[5,5]{1,0} %select.1863), metadata={op_name="jit(step)/jit(main)/while/body/cond/branch_0_fun/jit(cholesky)/jit(tril)/select_n" source_file="/home/mathis/repos/backward_ica/src/utils/misc.py" source_line=566}
}

%fused_computation.14 (param_0.39: f64[5,5], param_1.63: f64[5,5]) -> f64[5,5] {
  %param_0.39 = f64[5,5]{1,0} parameter(0)
  %param_1.63 = f64[5,5]{1,0} parameter(1)
  %add.1681 = f64[5,5]{1,0} add(f64[5,5]{1,0} %param_0.39, f64[5,5]{1,0} %param_1.63), metadata={op_name="jit(step)/jit(main)/while/body/cond/branch_0_fun/add" source_file="/home/mathis/repos/backward_ica/src/stats/__init__.py" source_line=228}
  %transpose.1787 = f64[5,5]{0,1} transpose(f64[5,5]{1,0} %add.1681), dimensions={1,0}, metadata={op_name="jit(step)/jit(main)/while/body/cond/branch_0_fun/jit(cholesky)/transpose[permutation=(1, 0)]" source_file="/home/mathis/repos/backward_ica/src/utils/misc.py" source_line=566}
  %copy.1055 = f64[5,5]{1,0} copy(f64[5,5]{0,1} %transpose.1787), metadata={op_name="jit(step)/jit(main)/while/body/cond/branch_0_fun/jit(cholesky)/transpose[permutation=(1, 0)]" source_file="/home/mathis/repos/backward_ica/src/utils/misc.py" source_line=566}
  %add.1680 = f64[5,5]{1,0} add(f64[5,5]{1,0} %add.1681, f64[5,5]{1,0} %copy.1055), metadata={op_name="jit(step)/jit(main)/while/body/cond/branch_0_fun/jit(cholesky)/add" source_file="/home/mathis/repos/backward_ica/src/utils/misc.py" source_line=566}
  %constant.5094 = f64[] constant(0.5)
  %broadcast.6693 = f64[5,5]{1,0} broadcast(f64[] %constant.5094), dimensions={}
  %multiply.1068 = f64[5,5]{1,0} multiply(f64[5,5]{1,0} %add.1680, f64[5,5]{1,0} %broadcast.6693), metadata={op_name="jit(step)/jit(main)/while/body/cond/branch_0_fun/jit(cholesky)/div" source_file="/home/mathis/repos/backward_ica/src/utils/misc.py" source_line=566}
  ROOT %copy.1054 = f64[5,5]{0,1} copy(f64[5,5]{1,0} %multiply.1068), metadata={op_name="jit(step)/jit(main)/while/body/cond/branch_0_fun/jit(cholesky)/div" source_file="/home/mathis/repos/backward_ica/src/utils/misc.py" source_line=566}
}

%fused_computation.15 (param_0.41: f64[5]) -> f64[5,5] {
  %iota.1830 = s32[5,5]{1,0} iota(), iota_dimension=0, metadata={op_name="jit(step)/jit(main)/while/body/cond/branch_0_fun/vmap(jvp(jit(_diag)))/iota[dtype=int32 shape=(5, 5) dimension=0]" source_file="/home/mathis/repos/backward_ica/src/variational/inference_nets.py" source_line=107}
  %iota.1829 = s32[5,5]{1,0} iota(), iota_dimension=1, metadata={op_name="jit(step)/jit(main)/while/body/cond/branch_0_fun/vmap(jvp(jit(_diag)))/iota[dtype=int32 shape=(5, 5) dimension=1]" source_file="/home/mathis/repos/backward_ica/src/variational/inference_nets.py" source_line=107}
  %compare.1033 = pred[5,5]{1,0} compare(s32[5,5]{1,0} %iota.1830, s32[5,5]{1,0} %iota.1829), direction=EQ, metadata={op_name="jit(step)/jit(main)/while/body/cond/branch_0_fun/vmap(jvp(jit(_diag)))/eq" source_file="/home/mathis/repos/backward_ica/src/variational/inference_nets.py" source_line=107}
  %param_0.41 = f64[5]{0} parameter(0)
  %broadcast.6694 = f64[5,5]{1,0} broadcast(f64[5]{0} %param_0.41), dimensions={1}, metadata={op_name="jit(step)/jit(main)/while/body/cond/branch_0_fun/jit(_diag)/jit(_where)/broadcast_in_dim[shape=(5, 5) broadcast_dimensions=(1,)]" source_file="/home/mathis/repos/backward_ica/src/variational/inference_nets.py" source_line=107}
  %constant.5095 = f64[] constant(0)
  %broadcast.6695 = f64[5,5]{1,0} broadcast(f64[] %constant.5095), dimensions={}, metadata={op_name="jit(step)/jit(main)/while/body/cond/branch_0_fun/vmap(jvp(jit(_diag)))/jit(_where)/broadcast_in_dim[shape=(5, 5) broadcast_dimensions=(1,)]" source_file="/home/mathis/repos/backward_ica/src/variational/inference_nets.py" source_line=107}
  ROOT %select.1865 = f64[5,5]{1,0} select(pred[5,5]{1,0} %compare.1033, f64[5,5]{1,0} %broadcast.6694, f64[5,5]{1,0} %broadcast.6695), metadata={op_name="jit(step)/jit(main)/while/body/cond/branch_0_fun/jit(_diag)/jit(_where)/select_n" source_file="/home/mathis/repos/backward_ica/src/variational/inference_nets.py" source_line=107}
}

%fused_computation.16 (param_0.43: f64[5]) -> f64[5,5] {
  %iota.1832 = s32[5,5]{1,0} iota(), iota_dimension=0, metadata={op_name="jit(step)/jit(main)/while/body/cond/branch_0_fun/vmap(jvp(jit(_diag)))/iota[dtype=int32 shape=(5, 5) dimension=0]" source_file="/home/mathis/repos/backward_ica/src/variational/inference_nets.py" source_line=107}
  %iota.1831 = s32[5,5]{1,0} iota(), iota_dimension=1, metadata={op_name="jit(step)/jit(main)/while/body/cond/branch_0_fun/vmap(jvp(jit(_diag)))/iota[dtype=int32 shape=(5, 5) dimension=1]" source_file="/home/mathis/repos/backward_ica/src/variational/inference_nets.py" source_line=107}
  %compare.1034 = pred[5,5]{1,0} compare(s32[5,5]{1,0} %iota.1832, s32[5,5]{1,0} %iota.1831), direction=EQ, metadata={op_name="jit(step)/jit(main)/while/body/cond/branch_0_fun/vmap(jvp(jit(_diag)))/eq" source_file="/home/mathis/repos/backward_ica/src/variational/inference_nets.py" source_line=107}
  %param_0.43 = f64[5]{0} parameter(0)
  %broadcast.6696 = f64[5,5]{1,0} broadcast(f64[5]{0} %param_0.43), dimensions={1}, metadata={op_name="jit(step)/jit(main)/while/body/cond/branch_0_fun/jit(_diag)/jit(_where)/broadcast_in_dim[shape=(5, 5) broadcast_dimensions=(1,)]" source_file="/home/mathis/repos/backward_ica/src/variational/inference_nets.py" source_line=107}
  %constant.5096 = f64[] constant(0)
  %broadcast.6697 = f64[5,5]{1,0} broadcast(f64[] %constant.5096), dimensions={}, metadata={op_name="jit(step)/jit(main)/while/body/cond/branch_0_fun/vmap(jvp(jit(_diag)))/jit(_where)/broadcast_in_dim[shape=(5, 5) broadcast_dimensions=(1,)]" source_file="/home/mathis/repos/backward_ica/src/variational/inference_nets.py" source_line=107}
  ROOT %select.1866 = f64[5,5]{1,0} select(pred[5,5]{1,0} %compare.1034, f64[5,5]{1,0} %broadcast.6696, f64[5,5]{1,0} %broadcast.6697), metadata={op_name="jit(step)/jit(main)/while/body/cond/branch_0_fun/jit(_diag)/jit(_where)/select_n" source_file="/home/mathis/repos/backward_ica/src/variational/inference_nets.py" source_line=107}
}

%fused_computation.17 (param_0.45: f64[5,5]) -> f64[5,5] {
  %param_0.45 = f64[5,5]{0,1} parameter(0)
  %copy.1057 = f64[5,5]{1,0} copy(f64[5,5]{0,1} %param_0.45), metadata={op_name="jit(step)/jit(main)/while/body/cond/branch_0_fun/jit(_cho_solve)/triangular_solve[left_side=True lower=True transpose_a=False conjugate_a=False unit_diagonal=False]" source_file="/home/mathis/repos/backward_ica/src/utils/misc.py" source_line=573}
  ROOT %copy.1056 = f64[5,5]{0,1} copy(f64[5,5]{1,0} %copy.1057), metadata={op_name="jit(step)/jit(main)/while/body/cond/branch_0_fun/jit(_cho_solve)/triangular_solve[left_side=True lower=True transpose_a=False conjugate_a=False unit_diagonal=False]" source_file="/home/mathis/repos/backward_ica/src/utils/misc.py" source_line=573}
}

%fused_computation.18 () -> f64[5,5] {
  %iota.1834 = s32[5,5]{1,0} iota(), iota_dimension=0, metadata={op_name="jit(step)/jit(main)/while/body/cond/branch_0_fun/vmap(jvp(jit(_diag)))/iota[dtype=int32 shape=(5, 5) dimension=0]" source_file="/home/mathis/repos/backward_ica/src/variational/inference_nets.py" source_line=107}
  %iota.1833 = s32[5,5]{1,0} iota(), iota_dimension=1, metadata={op_name="jit(step)/jit(main)/while/body/cond/branch_0_fun/vmap(jvp(jit(_diag)))/iota[dtype=int32 shape=(5, 5) dimension=1]" source_file="/home/mathis/repos/backward_ica/src/variational/inference_nets.py" source_line=107}
  %compare.1035 = pred[5,5]{1,0} compare(s32[5,5]{1,0} %iota.1834, s32[5,5]{1,0} %iota.1833), direction=EQ, metadata={op_name="jit(step)/jit(main)/while/body/cond/branch_0_fun/vmap(jvp(jit(_diag)))/eq" source_file="/home/mathis/repos/backward_ica/src/variational/inference_nets.py" source_line=107}
  %convert.253 = f64[5,5]{1,0} convert(pred[5,5]{1,0} %compare.1035), metadata={op_name="jit(step)/jit(main)/while/body/cond/branch_0_fun/convert_element_type[new_dtype=float64 weak_type=False]" source_file="/home/mathis/repos/backward_ica/src/utils/misc.py" source_line=571}
  ROOT %copy.1058 = f64[5,5]{0,1} copy(f64[5,5]{1,0} %convert.253), metadata={op_name="jit(step)/jit(main)/while/body/cond/branch_0_fun/convert_element_type[new_dtype=float64 weak_type=False]" source_file="/home/mathis/repos/backward_ica/src/utils/misc.py" source_line=571}
}

%fused_computation.19 (param_0.51: f64[], param_1.78: f64[], param_2.86: f64[100], param_3.84: f64[100]) -> f64[100] {
  %param_2.86 = f64[100]{0} parameter(2)
  %constant.5101 = f64[] constant(-0.5)
  %broadcast.6701 = f64[100]{0} broadcast(f64[] %constant.5101), dimensions={}, metadata={op_name="jit(step)/jit(main)/while/body/cond/branch_0_fun/mul" source_file="/home/mathis/repos/backward_ica/src/stats/distributions.py" source_line=211}
  %multiply.1071 = f64[100]{0} multiply(f64[100]{0} %param_2.86, f64[100]{0} %broadcast.6701), metadata={op_name="jit(step)/jit(main)/while/body/cond/branch_0_fun/mul" source_file="/home/mathis/repos/backward_ica/src/stats/distributions.py" source_line=211}
  %constant.5098 = f64[] constant(-4.5946926660233629)
  %broadcast.6700 = f64[100]{0} broadcast(f64[] %constant.5098), dimensions={}
  %add.1684 = f64[100]{0} add(f64[100]{0} %multiply.1071, f64[100]{0} %broadcast.6700), metadata={op_name="jit(step)/jit(main)/while/body/cond/branch_0_fun/sub" source_file="/home/mathis/repos/backward_ica/src/stats/distributions.py" source_line=211}
  %param_1.78 = f64[] parameter(1)
  %broadcast.6699 = f64[100]{0} broadcast(f64[] %param_1.78), dimensions={}, metadata={op_name="jit(step)/jit(main)/while/body/cond/branch_0_fun/sub" source_file="/home/mathis/repos/backward_ica/src/stats/distributions.py" source_line=211}
  %subtract.327 = f64[100]{0} subtract(f64[100]{0} %add.1684, f64[100]{0} %broadcast.6699), metadata={op_name="jit(step)/jit(main)/while/body/cond/branch_0_fun/sub" source_file="/home/mathis/repos/backward_ica/src/stats/distributions.py" source_line=211}
  %constant.5097 = f64[] constant(-3.3937190636762868)
  %param_0.51 = f64[] parameter(0)
  %constant.5099 = f64[] constant(0.5)
  %multiply.1070 = f64[] multiply(f64[] %param_0.51, f64[] %constant.5099), metadata={op_name="jit(step)/jit(main)/while/body/cond/branch_0_fun/mul" source_file="/home/mathis/repos/backward_ica/src/stats/distributions.py" source_line=307}
  %subtract.326 = f64[] subtract(f64[] %constant.5097, f64[] %multiply.1070), metadata={op_name="jit(step)/jit(main)/while/body/cond/branch_0_fun/sub" source_file="/home/mathis/repos/backward_ica/src/stats/distributions.py" source_line=310}
  %broadcast.6698 = f64[100]{0} broadcast(f64[] %subtract.326), dimensions={}, metadata={op_name="jit(step)/jit(main)/while/body/cond/branch_0_fun/add" source_file="/home/mathis/repos/backward_ica/src/stats/distributions.py" source_line=310}
  %param_3.84 = f64[100]{0} parameter(3)
  %broadcast.6703 = f64[100]{0} broadcast(f64[] %constant.5099), dimensions={}, metadata={op_name="jit(step)/jit(main)/while/body/cond/branch_0_fun/mul" source_file="/home/mathis/repos/backward_ica/src/stats/distributions.py" source_line=308}
  %multiply.1072 = f64[100]{0} multiply(f64[100]{0} %param_3.84, f64[100]{0} %broadcast.6703), metadata={op_name="jit(step)/jit(main)/while/body/cond/branch_0_fun/mul" source_file="/home/mathis/repos/backward_ica/src/stats/distributions.py" source_line=308}
  %constant.5102 = f64[] constant(1)
  %broadcast.6702 = f64[100]{0} broadcast(f64[] %constant.5102), dimensions={}, metadata={op_name="jit(step)/jit(main)/while/body/cond/branch_0_fun/vmap(jvp(mlp))/sub" source_file="/home/mathis/venvs/jax_gpu/lib/python3.10/site-packages/haiku/_src/nets/mlp.py" source_line=118}
  %add.1685 = f64[100]{0} add(f64[100]{0} %multiply.1072, f64[100]{0} %broadcast.6702), metadata={op_name="jit(step)/jit(main)/while/body/cond/branch_0_fun/add" source_file="/home/mathis/repos/backward_ica/src/stats/distributions.py" source_line=308}
  %log.9 = f64[100]{0} log(f64[100]{0} %add.1685), metadata={op_name="jit(step)/jit(main)/while/body/cond/branch_0_fun/log" source_file="/home/mathis/repos/backward_ica/src/stats/distributions.py" source_line=308}
  %constant.5100 = f64[] constant(-3.5)
  %broadcast.6704 = f64[100]{0} broadcast(f64[] %constant.5100), dimensions={}, metadata={op_name="jit(step)/jit(main)/while/body/cond/branch_0_fun/mul" source_file="/home/mathis/repos/backward_ica/src/stats/distributions.py" source_line=308}
  %multiply.1069 = f64[100]{0} multiply(f64[100]{0} %log.9, f64[100]{0} %broadcast.6704), metadata={op_name="jit(step)/jit(main)/while/body/cond/branch_0_fun/mul" source_file="/home/mathis/repos/backward_ica/src/stats/distributions.py" source_line=308}
  %add.1683 = f64[100]{0} add(f64[100]{0} %broadcast.6698, f64[100]{0} %multiply.1069), metadata={op_name="jit(step)/jit(main)/while/body/cond/branch_0_fun/add" source_file="/home/mathis/repos/backward_ica/src/stats/distributions.py" source_line=310}
  ROOT %add.1682 = f64[100]{0} add(f64[100]{0} %subtract.327, f64[100]{0} %add.1683), metadata={op_name="jit(step)/jit(main)/while/body/cond/branch_0_fun/add" source_file="/home/mathis/repos/backward_ica/src/online_smoothing.py" source_line=647}
}

%region_17.2607 (Arg_0.2608: f64[], Arg_1.2609: f64[]) -> f64[] {
  %Arg_0.2608 = f64[] parameter(0)
  %Arg_1.2609 = f64[] parameter(1)
  ROOT %add.2610 = f64[] add(f64[] %Arg_0.2608, f64[] %Arg_1.2609), metadata={op_name="jit(step)/jit(main)/while/body/cond/branch_0_fun/reduce_sum[axes=(0,)]" source_file="/home/mathis/repos/backward_ica/src/utils/misc.py" source_line=579}
}

%fused_computation.20 (param_0.54: s32[5,2]) -> f64[] {
  %constant.5103 = f64[5,5]{1,0} constant({...})
  %param_0.54 = s32[5,2]{1,0} parameter(0)
  %gather.22 = f64[5]{0} gather(f64[5,5]{1,0} %constant.5103, s32[5,2]{1,0} %param_0.54), offset_dims={}, collapsed_slice_dims={0,1}, start_index_map={0,1}, index_vector_dim=1, slice_sizes={1,1}, metadata={op_name="jit(step)/jit(main)/while/body/cond/branch_0_fun/vmap(jvp(jit(diagonal)))/gather[dimension_numbers=GatherDimensionNumbers(offset_dims=(), collapsed_slice_dims=(0, 1), start_index_map=(0, 1)) slice_sizes=(1, 1) unique_indices=False indices_are_sorted=False mode=GatherScatterMode.PROMISE_IN_BOUNDS fill_value=None]" source_file="/home/mathis/repos/backward_ica/src/utils/misc.py" source_line=579}
  %multiply.1073 = f64[5]{0} multiply(f64[5]{0} %gather.22, f64[5]{0} %gather.22), metadata={op_name="jit(step)/jit(main)/while/body/cond/branch_0_fun/mul" source_file="/home/mathis/repos/backward_ica/src/utils/misc.py" source_line=579}
  %log.10 = f64[5]{0} log(f64[5]{0} %multiply.1073), metadata={op_name="jit(step)/jit(main)/while/body/cond/branch_0_fun/log" source_file="/home/mathis/repos/backward_ica/src/utils/misc.py" source_line=579}
  %constant.5104 = f64[] constant(0)
  ROOT %reduce.146 = f64[] reduce(f64[5]{0} %log.10, f64[] %constant.5104), dimensions={0}, to_apply=%region_17.2607, metadata={op_name="jit(step)/jit(main)/while/body/cond/branch_0_fun/reduce_sum[axes=(0,)]" source_file="/home/mathis/repos/backward_ica/src/utils/misc.py" source_line=579}
}

%region_16.2574 (Arg_0.2575: f64[], Arg_1.2576: f64[]) -> f64[] {
  %Arg_0.2575 = f64[] parameter(0)
  %Arg_1.2576 = f64[] parameter(1)
  ROOT %add.2577 = f64[] add(f64[] %Arg_0.2575, f64[] %Arg_1.2576), metadata={op_name="jit(step)/jit(main)/while/body/cond/branch_0_fun/reduce_sum[axes=(0,)]" source_file="/home/mathis/repos/backward_ica/src/stats/distributions.py" source_line=211}
}

%fused_computation.21 (param_0.57: s32[5,2], param_1.88: f64[5,5], param_2.94: s32[]) -> f64[] {
  %iota.1836 = s32[5,5]{1,0} iota(), iota_dimension=0, metadata={op_name="jit(step)/jit(main)/while/body/cond/branch_0_fun/vmap(jvp(jit(cholesky)))/jit(tril)/iota[dtype=int32 shape=(5, 5) dimension=0]" source_file="/home/mathis/repos/backward_ica/src/utils/misc.py" source_line=566}
  %iota.1835 = s32[5,5]{1,0} iota(), iota_dimension=1, metadata={op_name="jit(step)/jit(main)/while/body/cond/branch_0_fun/vmap(jvp(jit(cholesky)))/jit(tril)/iota[dtype=int32 shape=(5, 5) dimension=1]" source_file="/home/mathis/repos/backward_ica/src/utils/misc.py" source_line=566}
  %compare.1038 = pred[5,5]{1,0} compare(s32[5,5]{1,0} %iota.1836, s32[5,5]{1,0} %iota.1835), direction=GE, metadata={op_name="jit(step)/jit(main)/while/body/cond/branch_0_fun/vmap(jvp(jit(cholesky)))/jit(tril)/ge" source_file="/home/mathis/repos/backward_ica/src/utils/misc.py" source_line=566}
  %param_2.94 = s32[] parameter(2)
  %constant.5107 = s32[] constant(0)
  %compare.1036 = pred[] compare(s32[] %param_2.94, s32[] %constant.5107), direction=EQ, metadata={op_name="jit(step)/jit(main)/while/body/cond/branch_0_fun/cholesky" source_file="/home/mathis/repos/backward_ica/src/stats/distributions.py" source_line=211}
  %broadcast.6705 = pred[5,5]{1,0} broadcast(pred[] %compare.1036), dimensions={}, metadata={op_name="jit(step)/jit(main)/while/body/cond/branch_0_fun/cholesky" source_file="/home/mathis/repos/backward_ica/src/stats/distributions.py" source_line=211}
  %param_1.88 = f64[5,5]{0,1} parameter(1)
  %copy.1060 = f64[5,5]{1,0} copy(f64[5,5]{0,1} %param_1.88), metadata={op_name="jit(step)/jit(main)/while/body/cond/branch_0_fun/cholesky" source_file="/home/mathis/repos/backward_ica/src/stats/distributions.py" source_line=211}
  %constant.5105 = f64[] constant(nan)
  %broadcast.6706 = f64[5,5]{1,0} broadcast(f64[] %constant.5105), dimensions={}
  %select.1868 = f64[5,5]{1,0} select(pred[5,5]{1,0} %broadcast.6705, f64[5,5]{1,0} %copy.1060, f64[5,5]{1,0} %broadcast.6706), metadata={op_name="jit(step)/jit(main)/while/body/cond/branch_0_fun/cholesky" source_file="/home/mathis/repos/backward_ica/src/stats/distributions.py" source_line=211}
  %constant.5106 = f64[] constant(0)
  %broadcast.6707 = f64[5,5]{1,0} broadcast(f64[] %constant.5106), dimensions={}, metadata={op_name="jit(step)/jit(main)/while/body/cond/branch_0_fun/vmap(jvp(jit(_diag)))/jit(_where)/broadcast_in_dim[shape=(5, 5) broadcast_dimensions=(1,)]" source_file="/home/mathis/repos/backward_ica/src/variational/inference_nets.py" source_line=107}
  %select.1867 = f64[5,5]{1,0} select(pred[5,5]{1,0} %compare.1038, f64[5,5]{1,0} %select.1868, f64[5,5]{1,0} %broadcast.6707), metadata={op_name="jit(step)/jit(main)/while/body/cond/branch_0_fun/vmap(jvp(jit(tril)))/select_n" source_file="/home/mathis/repos/backward_ica/src/utils/misc.py" source_line=566}
  %transpose.1788 = f64[5,5]{0,1} transpose(f64[5,5]{1,0} %select.1867), dimensions={1,0}, metadata={op_name="jit(step)/jit(main)/while/body/cond/branch_0_fun/vmap(jvp(jit(diagonal)))/transpose[permutation=(1, 0)]" source_file="/home/mathis/repos/backward_ica/src/stats/distributions.py" source_line=211}
  %copy.1059 = f64[5,5]{1,0} copy(f64[5,5]{0,1} %transpose.1788), metadata={op_name="jit(step)/jit(main)/while/body/cond/branch_0_fun/vmap(jvp(jit(diagonal)))/transpose[permutation=(1, 0)]" source_file="/home/mathis/repos/backward_ica/src/stats/distributions.py" source_line=211}
  %param_0.57 = s32[5,2]{1,0} parameter(0)
  %gather.23 = f64[5]{0} gather(f64[5,5]{1,0} %copy.1059, s32[5,2]{1,0} %param_0.57), offset_dims={}, collapsed_slice_dims={0,1}, start_index_map={0,1}, index_vector_dim=1, slice_sizes={1,1}, metadata={op_name="jit(step)/jit(main)/while/body/cond/branch_0_fun/vmap(jvp(jit(diagonal)))/gather[dimension_numbers=GatherDimensionNumbers(offset_dims=(), collapsed_slice_dims=(0, 1), start_index_map=(0, 1)) slice_sizes=(1, 1) unique_indices=False indices_are_sorted=False mode=GatherScatterMode.PROMISE_IN_BOUNDS fill_value=None]" source_file="/home/mathis/repos/backward_ica/src/stats/distributions.py" source_line=211}
  %log.11 = f64[5]{0} log(f64[5]{0} %gather.23), metadata={op_name="jit(step)/jit(main)/while/body/cond/branch_0_fun/log" source_file="/home/mathis/repos/backward_ica/src/stats/distributions.py" source_line=211}
  ROOT %reduce.147 = f64[] reduce(f64[5]{0} %log.11, f64[] %constant.5106), dimensions={0}, to_apply=%region_16.2574, metadata={op_name="jit(step)/jit(main)/while/body/cond/branch_0_fun/reduce_sum[axes=(0,)]" source_file="/home/mathis/repos/backward_ica/src/stats/distributions.py" source_line=211}
}

%fused_computation.22 (param_0.59: f64[], param_1.92: f64[100]) -> f64[100] {
  %param_1.92 = f64[100]{0} parameter(1)
  %constant.5109 = f64[] constant(-0.5)
  %broadcast.6710 = f64[100]{0} broadcast(f64[] %constant.5109), dimensions={}, metadata={op_name="jit(step)/jit(main)/while/body/cond/branch_0_fun/mul" source_file="/home/mathis/repos/backward_ica/src/stats/distributions.py" source_line=211}
  %multiply.1074 = f64[100]{0} multiply(f64[100]{0} %param_1.92, f64[100]{0} %broadcast.6710), metadata={op_name="jit(step)/jit(main)/while/body/cond/branch_0_fun/mul" source_file="/home/mathis/repos/backward_ica/src/stats/distributions.py" source_line=211}
  %constant.5108 = f64[] constant(-4.5946926660233629)
  %broadcast.6709 = f64[100]{0} broadcast(f64[] %constant.5108), dimensions={}
  %add.1686 = f64[100]{0} add(f64[100]{0} %multiply.1074, f64[100]{0} %broadcast.6709), metadata={op_name="jit(step)/jit(main)/while/body/cond/branch_0_fun/sub" source_file="/home/mathis/repos/backward_ica/src/stats/distributions.py" source_line=211}
  %param_0.59 = f64[] parameter(0)
  %broadcast.6708 = f64[100]{0} broadcast(f64[] %param_0.59), dimensions={}, metadata={op_name="jit(step)/jit(main)/while/body/cond/branch_0_fun/sub" source_file="/home/mathis/repos/backward_ica/src/stats/distributions.py" source_line=211}
  ROOT %subtract.328 = f64[100]{0} subtract(f64[100]{0} %add.1686, f64[100]{0} %broadcast.6708), metadata={op_name="jit(step)/jit(main)/while/body/cond/branch_0_fun/sub" source_file="/home/mathis/repos/backward_ica/src/stats/distributions.py" source_line=211}
}

%region_8.1210 (Arg_0.1211: f64[], Arg_1.1212: f64[]) -> f64[] {
  %Arg_0.1211 = f64[] parameter(0)
  %Arg_1.1212 = f64[] parameter(1)
  ROOT %add.1213 = f64[] add(f64[] %Arg_0.1211, f64[] %Arg_1.1212), metadata={op_name="jit(step)/jit(main)/while/body/cond/branch_0_fun/reduce_sum[axes=(0,)]" source_file="/home/mathis/repos/backward_ica/src/stats/distributions.py" source_line=211}
}

%fused_computation.23 (param_0.62: f64[5]) -> f64[] {
  %param_0.62 = f64[5]{0} parameter(0)
  %log.12 = f64[5]{0} log(f64[5]{0} %param_0.62), metadata={op_name="jit(step)/jit(main)/while/body/cond/branch_0_fun/log" source_file="/home/mathis/repos/backward_ica/src/stats/distributions.py" source_line=211}
  %constant.5110 = f64[] constant(0)
  ROOT %reduce.148 = f64[] reduce(f64[5]{0} %log.12, f64[] %constant.5110), dimensions={0}, to_apply=%region_8.1210, metadata={op_name="jit(step)/jit(main)/while/body/cond/branch_0_fun/reduce_sum[axes=(0,)]" source_file="/home/mathis/repos/backward_ica/src/stats/distributions.py" source_line=211}
}

%fused_computation.24 (param_0.67: f64[100,10], param_1.98: f64[100]) -> f64[100,100,10] {
  %param_0.67 = f64[100,10]{1,0} parameter(0)
  %reshape.4259 = f64[1000]{0} reshape(f64[100,10]{1,0} %param_0.67)
  %broadcast.6711 = f64[1000,100]{1,0} broadcast(f64[1000]{0} %reshape.4259), dimensions={0}, metadata={op_name="jit(step)/jit(main)/while/body/cond/branch_0_fun/vmap(transpose(vmap(jvp(mlp))))/linear_1/dot_general[dimension_numbers=(((), ()), ((), ())) precision=None preferred_element_type=None]" source_file="/home/mathis/venvs/jax_gpu/lib/python3.10/site-packages/haiku/_src/basic.py" source_line=178}
  %param_1.98 = f64[100]{0} parameter(1)
  %broadcast.6712 = f64[1000,100]{1,0} broadcast(f64[100]{0} %param_1.98), dimensions={1}, metadata={op_name="jit(step)/jit(main)/while/body/cond/branch_0_fun/vmap(transpose(vmap(jvp(mlp))))/linear_1/dot_general[dimension_numbers=(((), ()), ((), ())) precision=None preferred_element_type=None]" source_file="/home/mathis/venvs/jax_gpu/lib/python3.10/site-packages/haiku/_src/basic.py" source_line=178}
  %multiply.1075 = f64[1000,100]{1,0} multiply(f64[1000,100]{1,0} %broadcast.6711, f64[1000,100]{1,0} %broadcast.6712), metadata={op_name="jit(step)/jit(main)/while/body/cond/branch_0_fun/vmap(transpose(vmap(jvp(mlp))))/linear_1/dot_general[dimension_numbers=(((), ()), ((), ())) precision=None preferred_element_type=None]" source_file="/home/mathis/venvs/jax_gpu/lib/python3.10/site-packages/haiku/_src/basic.py" source_line=178}
  %reshape.4258 = f64[100,10,100]{2,1,0} reshape(f64[1000,100]{1,0} %multiply.1075), metadata={op_name="jit(step)/jit(main)/while/body/cond/branch_0_fun/vmap(transpose(vmap(jvp(mlp))))/linear_1/dot_general[dimension_numbers=(((), ()), ((), ())) precision=None preferred_element_type=None]" source_file="/home/mathis/venvs/jax_gpu/lib/python3.10/site-packages/haiku/_src/basic.py" source_line=178}
  ROOT %transpose.1789 = f64[100,100,10]{1,2,0} transpose(f64[100,10,100]{2,1,0} %reshape.4258), dimensions={0,2,1}, metadata={op_name="jit(step)/jit(main)/while/body/cond/branch_0_fun/vmap(transpose(vmap(jvp(mlp))))/linear_1/transpose[permutation=(0, 2, 1)]" source_file="/home/mathis/venvs/jax_gpu/lib/python3.10/site-packages/haiku/_src/basic.py" source_line=178}
}

%fused_computation.25 (param_0.72: f64[100,100], param_1.103: f64[1,1,5]) -> f64[100,5,100] {
  %param_0.72 = f64[100,100]{1,0} parameter(0)
  %reshape.4261 = f64[10000]{0} reshape(f64[100,100]{1,0} %param_0.72)
  %broadcast.6713 = f64[10000,5]{1,0} broadcast(f64[10000]{0} %reshape.4261), dimensions={0}, metadata={op_name="jit(step)/jit(main)/while/body/cond/branch_0_fun/vmap(transpose(vmap(jvp(mlp))))/linear_0/dot_general[dimension_numbers=(((), ()), ((), ())) precision=None preferred_element_type=None]" source_file="/home/mathis/venvs/jax_gpu/lib/python3.10/site-packages/haiku/_src/basic.py" source_line=178}
  %param_1.103 = f64[1,1,5]{2,1,0} parameter(1)
  %reshape.4262 = f64[5]{0} reshape(f64[1,1,5]{2,1,0} %param_1.103), metadata={op_name="jit(step)/jit(main)/while/body/cond/branch_0_fun/squeeze[dimensions=(0,)]" source_file="/home/mathis/repos/backward_ica/src/online_smoothing.py" source_line=614}
  %broadcast.6714 = f64[10000,5]{1,0} broadcast(f64[5]{0} %reshape.4262), dimensions={1}, metadata={op_name="jit(step)/jit(main)/while/body/cond/branch_0_fun/vmap(transpose(vmap(jvp(mlp))))/linear_0/dot_general[dimension_numbers=(((), ()), ((), ())) precision=None preferred_element_type=None]" source_file="/home/mathis/venvs/jax_gpu/lib/python3.10/site-packages/haiku/_src/basic.py" source_line=178}
  %multiply.1076 = f64[10000,5]{1,0} multiply(f64[10000,5]{1,0} %broadcast.6713, f64[10000,5]{1,0} %broadcast.6714), metadata={op_name="jit(step)/jit(main)/while/body/cond/branch_0_fun/vmap(transpose(vmap(jvp(mlp))))/linear_0/dot_general[dimension_numbers=(((), ()), ((), ())) precision=None preferred_element_type=None]" source_file="/home/mathis/venvs/jax_gpu/lib/python3.10/site-packages/haiku/_src/basic.py" source_line=178}
  %reshape.4260 = f64[100,100,5]{2,1,0} reshape(f64[10000,5]{1,0} %multiply.1076), metadata={op_name="jit(step)/jit(main)/while/body/cond/branch_0_fun/vmap(transpose(vmap(jvp(mlp))))/linear_0/dot_general[dimension_numbers=(((), ()), ((), ())) precision=None preferred_element_type=None]" source_file="/home/mathis/venvs/jax_gpu/lib/python3.10/site-packages/haiku/_src/basic.py" source_line=178}
  ROOT %transpose.1790 = f64[100,5,100]{1,2,0} transpose(f64[100,100,5]{2,1,0} %reshape.4260), dimensions={0,2,1}, metadata={op_name="jit(step)/jit(main)/while/body/cond/branch_0_fun/vmap(transpose(vmap(jvp(mlp))))/linear_0/transpose[permutation=(0, 2, 1)]" source_file="/home/mathis/venvs/jax_gpu/lib/python3.10/site-packages/haiku/_src/basic.py" source_line=178}
}

%fused_computation.26 (param_0.75: f64[100,100], param_1.108: f64[100]) -> f64[100,100] {
  %param_0.75 = f64[100,100]{1,0} parameter(0)
  %constant.5112 = f64[] constant(1)
  %broadcast.6717 = f64[100]{0} broadcast(f64[] %constant.5112), dimensions={}, metadata={op_name="jit(step)/jit(main)/while/body/cond/branch_0_fun/vmap(jvp(mlp))/sub" source_file="/home/mathis/venvs/jax_gpu/lib/python3.10/site-packages/haiku/_src/nets/mlp.py" source_line=118}
  %param_1.108 = f64[100]{0} parameter(1)
  %subtract.329 = f64[100]{0} subtract(f64[100]{0} %broadcast.6717, f64[100]{0} %param_1.108), metadata={op_name="jit(step)/jit(main)/while/body/cond/branch_0_fun/vmap(jvp(mlp))/sub" source_file="/home/mathis/venvs/jax_gpu/lib/python3.10/site-packages/haiku/_src/nets/mlp.py" source_line=118}
  %broadcast.6716 = f64[100,100]{1,0} broadcast(f64[100]{0} %subtract.329), dimensions={1}, metadata={op_name="jit(step)/jit(main)/while/body/cond/branch_0_fun/vmap(transpose(vmap(jvp(mlp))))/mul" source_file="/home/mathis/venvs/jax_gpu/lib/python3.10/site-packages/haiku/_src/nets/mlp.py" source_line=118}
  %multiply.1078 = f64[100,100]{1,0} multiply(f64[100,100]{1,0} %param_0.75, f64[100,100]{1,0} %broadcast.6716), metadata={op_name="jit(step)/jit(main)/while/body/cond/branch_0_fun/vmap(transpose(vmap(jvp(mlp))))/mul" source_file="/home/mathis/venvs/jax_gpu/lib/python3.10/site-packages/haiku/_src/nets/mlp.py" source_line=118}
  %broadcast.6715 = f64[100,100]{1,0} broadcast(f64[100]{0} %param_1.108), dimensions={1}, metadata={op_name="jit(step)/jit(main)/while/body/cond/branch_0_fun/vmap(transpose(vmap(jvp(mlp))))/mul" source_file="/home/mathis/venvs/jax_gpu/lib/python3.10/site-packages/haiku/_src/nets/mlp.py" source_line=118}
  %multiply.1077 = f64[100,100]{1,0} multiply(f64[100,100]{1,0} %multiply.1078, f64[100,100]{1,0} %broadcast.6715), metadata={op_name="jit(step)/jit(main)/while/body/cond/branch_0_fun/vmap(transpose(vmap(jvp(mlp))))/mul" source_file="/home/mathis/venvs/jax_gpu/lib/python3.10/site-packages/haiku/_src/nets/mlp.py" source_line=118}
  ROOT %add.1687 = f64[100,100]{1,0} add(f64[100,100]{1,0} %multiply.1078, f64[100,100]{1,0} %multiply.1077), metadata={op_name="jit(step)/jit(main)/while/body/cond/branch_0_fun/vmap(transpose(vmap(jvp(mlp))))/add_any" source_file="/home/mathis/venvs/jax_gpu/lib/python3.10/site-packages/haiku/_src/nets/mlp.py" source_line=118}
}

%fused_computation.27 (param_0.78: f64[100,5], param_1.113: f64[100,5], param_2.108: f64[5]) -> f64[100,10] {
  %param_1.113 = f64[100,5]{1,0} parameter(1)
  %constant.5113 = f64[] constant(0)
  %pad.59 = f64[100,10]{1,0} pad(f64[100,5]{1,0} %param_1.113, f64[] %constant.5113), padding=0_0x0_5, metadata={op_name="jit(step)/jit(main)/while/body/cond/branch_0_fun/pad[padding_config=((0, 0, 0), (0, 5, 0))]" source_file="/home/mathis/repos/backward_ica/src/variational/inference_nets.py" source_line=106}
  %param_0.78 = f64[100,5]{1,0} parameter(0)
  %param_2.108 = f64[5]{0} parameter(2)
  %broadcast.6718 = f64[100,5]{1,0} broadcast(f64[5]{0} %param_2.108), dimensions={1}, metadata={op_name="jit(step)/jit(main)/while/body/cond/branch_0_fun/vmap(transpose(vmap(jvp(jit(softplus)))))/mul" source_file="/home/mathis/repos/backward_ica/src/variational/inference_nets.py" source_line=107}
  %multiply.1079 = f64[100,5]{1,0} multiply(f64[100,5]{1,0} %param_0.78, f64[100,5]{1,0} %broadcast.6718), metadata={op_name="jit(step)/jit(main)/while/body/cond/branch_0_fun/vmap(transpose(vmap(jvp(jit(softplus)))))/mul" source_file="/home/mathis/repos/backward_ica/src/variational/inference_nets.py" source_line=107}
  %pad.58 = f64[100,10]{1,0} pad(f64[100,5]{1,0} %multiply.1079, f64[] %constant.5113), padding=0_0x5_0, metadata={op_name="jit(step)/jit(main)/while/body/cond/branch_0_fun/pad[padding_config=((0, 0, 0), (5, 0, 0))]" source_file="/home/mathis/repos/backward_ica/src/variational/inference_nets.py" source_line=106}
  ROOT %add.1688 = f64[100,10]{1,0} add(f64[100,10]{1,0} %pad.59, f64[100,10]{1,0} %pad.58), metadata={op_name="jit(step)/jit(main)/while/body/cond/branch_0_fun/add_any" source_file="/home/mathis/repos/backward_ica/src/variational/inference_nets.py" source_line=106}
}

%fused_computation.28 (param_0.80: f64[500,5], param_1.117: f64[500,5], param_2.116: f64[500,5], param_3.99: f64[500,5]) -> f64[100,5,5] {
  %iota.1838 = s32[5,5]{1,0} iota(), iota_dimension=0, metadata={op_name="jit(step)/jit(main)/while/body/cond/branch_0_fun/vmap(jvp(jit(_diag)))/iota[dtype=int32 shape=(5, 5) dimension=0]" source_file="/home/mathis/repos/backward_ica/src/variational/inference_nets.py" source_line=107}
  %iota.1837 = s32[5,5]{1,0} iota(), iota_dimension=1, metadata={op_name="jit(step)/jit(main)/while/body/cond/branch_0_fun/vmap(jvp(jit(_diag)))/iota[dtype=int32 shape=(5, 5) dimension=1]" source_file="/home/mathis/repos/backward_ica/src/variational/inference_nets.py" source_line=107}
  %compare.1039 = pred[5,5]{1,0} compare(s32[5,5]{1,0} %iota.1838, s32[5,5]{1,0} %iota.1837), direction=EQ, metadata={op_name="jit(step)/jit(main)/while/body/cond/branch_0_fun/vmap(jvp(jit(_diag)))/eq" source_file="/home/mathis/repos/backward_ica/src/variational/inference_nets.py" source_line=107}
  %broadcast.6722 = pred[100,5,5]{2,1,0} broadcast(pred[5,5]{1,0} %compare.1039), dimensions={1,2}, metadata={op_name="jit(step)/jit(main)/while/body/cond/branch_0_fun/vmap(transpose(vmap(jvp(jit(_diag)))))/jit(_where)/broadcast_in_dim[shape=(100, 5, 5) broadcast_dimensions=(1, 2)]" source_file="/home/mathis/repos/backward_ica/src/variational/inference_nets.py" source_line=107}
  %param_3.99 = f64[500,5]{0,1} parameter(3)
  %copy.1072 = f64[500,5]{1,0} copy(f64[500,5]{0,1} %param_3.99), metadata={op_name="jit(step)/jit(main)/while/body/cond/branch_0_fun/vmap(transpose(vmap(jvp(jit(cholesky)))))/triangular_solve[left_side=False lower=True transpose_a=False conjugate_a=False unit_diagonal=False]" source_file="/home/mathis/repos/backward_ica/src/utils/misc.py" source_line=566}
  %constant.5114 = f64[] constant(0.5)
  %broadcast.6720 = f64[500,5]{1,0} broadcast(f64[] %constant.5114), dimensions={}, metadata={op_name="jit(step)/jit(main)/while/body/cond/branch_0_fun/vmap(transpose(vmap(jvp(jit(cholesky)))))/div" source_file="/home/mathis/repos/backward_ica/src/utils/misc.py" source_line=566}
  %multiply.1084 = f64[500,5]{1,0} multiply(f64[500,5]{1,0} %copy.1072, f64[500,5]{1,0} %broadcast.6720), metadata={op_name="jit(step)/jit(main)/while/body/cond/branch_0_fun/vmap(transpose(vmap(jvp(jit(cholesky)))))/div" source_file="/home/mathis/repos/backward_ica/src/utils/misc.py" source_line=566}
  %reshape.4266 = f64[5,100,5]{2,1,0} reshape(f64[500,5]{1,0} %multiply.1084), metadata={op_name="jit(step)/jit(main)/while/body/cond/branch_0_fun/vmap(transpose(vmap(jvp(jit(cholesky)))))/div" source_file="/home/mathis/repos/backward_ica/src/utils/misc.py" source_line=566}
  %transpose.1798 = f64[100,5,5]{2,0,1} transpose(f64[5,100,5]{2,1,0} %reshape.4266), dimensions={1,0,2}, metadata={op_name="jit(step)/jit(main)/while/body/cond/branch_0_fun/vmap(transpose(vmap(jvp(jit(cholesky)))))/transpose[permutation=(1, 0, 2)]" source_file="/home/mathis/repos/backward_ica/src/utils/misc.py" source_line=566}
  %copy.1071 = f64[100,5,5]{2,1,0} copy(f64[100,5,5]{2,0,1} %transpose.1798), metadata={op_name="jit(step)/jit(main)/while/body/cond/branch_0_fun/vmap(transpose(vmap(jvp(jit(cholesky)))))/transpose[permutation=(1, 0, 2)]" source_file="/home/mathis/repos/backward_ica/src/utils/misc.py" source_line=566}
  %transpose.1797 = f64[100,5,5]{1,0,2} transpose(f64[5,100,5]{2,1,0} %reshape.4266), dimensions={1,2,0}, metadata={op_name="jit(step)/jit(main)/while/body/cond/branch_0_fun/vmap(transpose(vmap(jvp(jit(cholesky)))))/transpose[permutation=(1, 2, 0)]" source_file="/home/mathis/repos/backward_ica/src/utils/misc.py" source_line=566}
  %copy.1070 = f64[100,5,5]{2,1,0} copy(f64[100,5,5]{1,0,2} %transpose.1797), metadata={op_name="jit(step)/jit(main)/while/body/cond/branch_0_fun/vmap(transpose(vmap(jvp(jit(cholesky)))))/transpose[permutation=(1, 2, 0)]" source_file="/home/mathis/repos/backward_ica/src/utils/misc.py" source_line=566}
  %add.1695 = f64[100,5,5]{2,1,0} add(f64[100,5,5]{2,1,0} %copy.1071, f64[100,5,5]{2,1,0} %copy.1070), metadata={op_name="jit(step)/jit(main)/while/body/cond/branch_0_fun/vmap(transpose(vmap(jvp(jit(cholesky)))))/add_any" source_file="/home/mathis/repos/backward_ica/src/utils/misc.py" source_line=566}
  %param_2.116 = f64[500,5]{0,1} parameter(2)
  %copy.1069 = f64[500,5]{1,0} copy(f64[500,5]{0,1} %param_2.116), metadata={op_name="jit(step)/jit(main)/while/body/cond/branch_0_fun/vmap(transpose(vmap(jvp(jit(cholesky)))))/triangular_solve[left_side=False lower=True transpose_a=False conjugate_a=False unit_diagonal=False]" source_file="/home/mathis/repos/backward_ica/src/utils/misc.py" source_line=566}
  %multiply.1083 = f64[500,5]{1,0} multiply(f64[500,5]{1,0} %copy.1069, f64[500,5]{1,0} %broadcast.6720), metadata={op_name="jit(step)/jit(main)/while/body/cond/branch_0_fun/vmap(transpose(vmap(jvp(jit(cholesky)))))/div" source_file="/home/mathis/repos/backward_ica/src/utils/misc.py" source_line=566}
  %reshape.4265 = f64[5,100,5]{2,1,0} reshape(f64[500,5]{1,0} %multiply.1083), metadata={op_name="jit(step)/jit(main)/while/body/cond/branch_0_fun/vmap(transpose(vmap(jvp(jit(cholesky)))))/div" source_file="/home/mathis/repos/backward_ica/src/utils/misc.py" source_line=566}
  %transpose.1796 = f64[100,5,5]{2,0,1} transpose(f64[5,100,5]{2,1,0} %reshape.4265), dimensions={1,0,2}, metadata={op_name="jit(step)/jit(main)/while/body/cond/branch_0_fun/vmap(transpose(vmap(jvp(jit(cholesky)))))/transpose[permutation=(1, 0, 2)]" source_file="/home/mathis/repos/backward_ica/src/utils/misc.py" source_line=566}
  %copy.1068 = f64[100,5,5]{2,1,0} copy(f64[100,5,5]{2,0,1} %transpose.1796), metadata={op_name="jit(step)/jit(main)/while/body/cond/branch_0_fun/vmap(transpose(vmap(jvp(jit(cholesky)))))/transpose[permutation=(1, 0, 2)]" source_file="/home/mathis/repos/backward_ica/src/utils/misc.py" source_line=566}
  %transpose.1795 = f64[100,5,5]{1,0,2} transpose(f64[5,100,5]{2,1,0} %reshape.4265), dimensions={1,2,0}, metadata={op_name="jit(step)/jit(main)/while/body/cond/branch_0_fun/vmap(transpose(vmap(jvp(jit(cholesky)))))/transpose[permutation=(1, 2, 0)]" source_file="/home/mathis/repos/backward_ica/src/utils/misc.py" source_line=566}
  %copy.1067 = f64[100,5,5]{2,1,0} copy(f64[100,5,5]{1,0,2} %transpose.1795), metadata={op_name="jit(step)/jit(main)/while/body/cond/branch_0_fun/vmap(transpose(vmap(jvp(jit(cholesky)))))/transpose[permutation=(1, 2, 0)]" source_file="/home/mathis/repos/backward_ica/src/utils/misc.py" source_line=566}
  %add.1694 = f64[100,5,5]{2,1,0} add(f64[100,5,5]{2,1,0} %copy.1068, f64[100,5,5]{2,1,0} %copy.1067), metadata={op_name="jit(step)/jit(main)/while/body/cond/branch_0_fun/vmap(transpose(vmap(jvp(jit(cholesky)))))/add_any" source_file="/home/mathis/repos/backward_ica/src/utils/misc.py" source_line=566}
  %add.1693 = f64[100,5,5]{2,1,0} add(f64[100,5,5]{2,1,0} %add.1695, f64[100,5,5]{2,1,0} %add.1694), metadata={op_name="jit(step)/jit(main)/while/body/cond/branch_0_fun/mul" source_file="/home/mathis/repos/backward_ica/src/stats/distributions.py" source_line=149}
  %param_1.117 = f64[500,5]{0,1} parameter(1)
  %copy.1066 = f64[500,5]{1,0} copy(f64[500,5]{0,1} %param_1.117), metadata={op_name="jit(step)/jit(main)/while/body/cond/branch_0_fun/vmap(transpose(vmap(jvp(jit(cholesky)))))/triangular_solve[left_side=False lower=True transpose_a=False conjugate_a=False unit_diagonal=False]" source_file="/home/mathis/repos/backward_ica/src/utils/misc.py" source_line=566}
  %multiply.1082 = f64[500,5]{1,0} multiply(f64[500,5]{1,0} %copy.1066, f64[500,5]{1,0} %broadcast.6720), metadata={op_name="jit(step)/jit(main)/while/body/cond/branch_0_fun/vmap(transpose(vmap(jvp(jit(cholesky)))))/div" source_file="/home/mathis/repos/backward_ica/src/utils/misc.py" source_line=566}
  %reshape.4264 = f64[5,100,5]{2,1,0} reshape(f64[500,5]{1,0} %multiply.1082), metadata={op_name="jit(step)/jit(main)/while/body/cond/branch_0_fun/vmap(transpose(vmap(jvp(jit(cholesky)))))/div" source_file="/home/mathis/repos/backward_ica/src/utils/misc.py" source_line=566}
  %transpose.1794 = f64[100,5,5]{2,0,1} transpose(f64[5,100,5]{2,1,0} %reshape.4264), dimensions={1,0,2}, metadata={op_name="jit(step)/jit(main)/while/body/cond/branch_0_fun/vmap(transpose(vmap(jvp(jit(cholesky)))))/transpose[permutation=(1, 0, 2)]" source_file="/home/mathis/repos/backward_ica/src/utils/misc.py" source_line=566}
  %copy.1065 = f64[100,5,5]{2,1,0} copy(f64[100,5,5]{2,0,1} %transpose.1794), metadata={op_name="jit(step)/jit(main)/while/body/cond/branch_0_fun/vmap(transpose(vmap(jvp(jit(cholesky)))))/transpose[permutation=(1, 0, 2)]" source_file="/home/mathis/repos/backward_ica/src/utils/misc.py" source_line=566}
  %transpose.1793 = f64[100,5,5]{1,0,2} transpose(f64[5,100,5]{2,1,0} %reshape.4264), dimensions={1,2,0}, metadata={op_name="jit(step)/jit(main)/while/body/cond/branch_0_fun/vmap(transpose(vmap(jvp(jit(cholesky)))))/transpose[permutation=(1, 2, 0)]" source_file="/home/mathis/repos/backward_ica/src/utils/misc.py" source_line=566}
  %copy.1064 = f64[100,5,5]{2,1,0} copy(f64[100,5,5]{1,0,2} %transpose.1793), metadata={op_name="jit(step)/jit(main)/while/body/cond/branch_0_fun/vmap(transpose(vmap(jvp(jit(cholesky)))))/transpose[permutation=(1, 2, 0)]" source_file="/home/mathis/repos/backward_ica/src/utils/misc.py" source_line=566}
  %add.1692 = f64[100,5,5]{2,1,0} add(f64[100,5,5]{2,1,0} %copy.1065, f64[100,5,5]{2,1,0} %copy.1064), metadata={op_name="jit(step)/jit(main)/while/body/cond/branch_0_fun/vmap(transpose(vmap(jvp(jit(cholesky)))))/add_any" source_file="/home/mathis/repos/backward_ica/src/utils/misc.py" source_line=566}
  %add.1691 = f64[100,5,5]{2,1,0} add(f64[100,5,5]{2,1,0} %add.1693, f64[100,5,5]{2,1,0} %add.1692), metadata={op_name="jit(step)/jit(main)/while/body/cond/branch_0_fun/add_any" source_file="/home/mathis/repos/backward_ica/src/stats/distributions.py" source_line=149}
  %param_0.80 = f64[500,5]{0,1} parameter(0)
  %copy.1063 = f64[500,5]{1,0} copy(f64[500,5]{0,1} %param_0.80), metadata={op_name="jit(step)/jit(main)/while/body/cond/branch_0_fun/vmap(transpose(vmap(jvp(jit(cholesky)))))/triangular_solve[left_side=False lower=True transpose_a=False conjugate_a=False unit_diagonal=False]" source_file="/home/mathis/repos/backward_ica/src/utils/misc.py" source_line=566}
  %multiply.1081 = f64[500,5]{1,0} multiply(f64[500,5]{1,0} %copy.1063, f64[500,5]{1,0} %broadcast.6720), metadata={op_name="jit(step)/jit(main)/while/body/cond/branch_0_fun/vmap(transpose(vmap(jvp(jit(cholesky)))))/div" source_file="/home/mathis/repos/backward_ica/src/utils/misc.py" source_line=566}
  %reshape.4263 = f64[5,100,5]{2,1,0} reshape(f64[500,5]{1,0} %multiply.1081), metadata={op_name="jit(step)/jit(main)/while/body/cond/branch_0_fun/vmap(transpose(vmap(jvp(jit(cholesky)))))/div" source_file="/home/mathis/repos/backward_ica/src/utils/misc.py" source_line=566}
  %transpose.1792 = f64[100,5,5]{2,0,1} transpose(f64[5,100,5]{2,1,0} %reshape.4263), dimensions={1,0,2}, metadata={op_name="jit(step)/jit(main)/while/body/cond/branch_0_fun/vmap(transpose(vmap(jvp(jit(cholesky)))))/transpose[permutation=(1, 0, 2)]" source_file="/home/mathis/repos/backward_ica/src/utils/misc.py" source_line=566}
  %copy.1062 = f64[100,5,5]{2,1,0} copy(f64[100,5,5]{2,0,1} %transpose.1792), metadata={op_name="jit(step)/jit(main)/while/body/cond/branch_0_fun/vmap(transpose(vmap(jvp(jit(cholesky)))))/transpose[permutation=(1, 0, 2)]" source_file="/home/mathis/repos/backward_ica/src/utils/misc.py" source_line=566}
  %transpose.1791 = f64[100,5,5]{1,0,2} transpose(f64[5,100,5]{2,1,0} %reshape.4263), dimensions={1,2,0}, metadata={op_name="jit(step)/jit(main)/while/body/cond/branch_0_fun/vmap(transpose(vmap(jvp(jit(cholesky)))))/transpose[permutation=(1, 2, 0)]" source_file="/home/mathis/repos/backward_ica/src/utils/misc.py" source_line=566}
  %copy.1061 = f64[100,5,5]{2,1,0} copy(f64[100,5,5]{1,0,2} %transpose.1791), metadata={op_name="jit(step)/jit(main)/while/body/cond/branch_0_fun/vmap(transpose(vmap(jvp(jit(cholesky)))))/transpose[permutation=(1, 2, 0)]" source_file="/home/mathis/repos/backward_ica/src/utils/misc.py" source_line=566}
  %add.1690 = f64[100,5,5]{2,1,0} add(f64[100,5,5]{2,1,0} %copy.1062, f64[100,5,5]{2,1,0} %copy.1061), metadata={op_name="jit(step)/jit(main)/while/body/cond/branch_0_fun/vmap(transpose(vmap(jvp(jit(cholesky)))))/add_any" source_file="/home/mathis/repos/backward_ica/src/utils/misc.py" source_line=566}
  %add.1689 = f64[100,5,5]{2,1,0} add(f64[100,5,5]{2,1,0} %add.1691, f64[100,5,5]{2,1,0} %add.1690), metadata={op_name="jit(step)/jit(main)/while/body/cond/branch_0_fun/add_any" source_file="/home/mathis/repos/backward_ica/src/stats/distributions.py" source_line=149}
  %constant.5115 = f64[] constant(-2)
  %broadcast.6719 = f64[100,5,5]{2,1,0} broadcast(f64[] %constant.5115), dimensions={}, metadata={op_name="jit(step)/jit(main)/while/body/cond/branch_0_fun/mul" source_file="/home/mathis/repos/backward_ica/src/stats/distributions.py" source_line=149}
  %multiply.1080 = f64[100,5,5]{2,1,0} multiply(f64[100,5,5]{2,1,0} %add.1689, f64[100,5,5]{2,1,0} %broadcast.6719), metadata={op_name="jit(step)/jit(main)/while/body/cond/branch_0_fun/add_any" source_file="/home/mathis/repos/backward_ica/src/stats/distributions.py" source_line=149}
  %negate.319 = f64[100,5,5]{2,1,0} negate(f64[100,5,5]{2,1,0} %multiply.1080), metadata={op_name="jit(step)/jit(main)/while/body/cond/branch_0_fun/neg" source_file="/home/mathis/repos/backward_ica/src/variational/inference_nets.py" source_line=107}
  %constant.5116 = f64[] constant(0)
  %broadcast.6721 = f64[100,5,5]{2,1,0} broadcast(f64[] %constant.5116), dimensions={}, metadata={op_name="jit(step)/jit(main)/while/body/cond/branch_0_fun/vmap(transpose(vmap(jvp(jit(_cho_solve)))))/jit(tril)/broadcast_in_dim[shape=(100, 5, 5) broadcast_dimensions=(1, 2)]" source_file="/home/mathis/repos/backward_ica/src/utils/misc.py" source_line=573}
  ROOT %select.1869 = f64[100,5,5]{2,1,0} select(pred[100,5,5]{2,1,0} %broadcast.6722, f64[100,5,5]{2,1,0} %negate.319, f64[100,5,5]{2,1,0} %broadcast.6721), metadata={op_name="jit(step)/jit(main)/while/body/cond/branch_0_fun/vmap(transpose(vmap(jvp(jit(_diag)))))/jit(_where)/select_n" source_file="/home/mathis/repos/backward_ica/src/variational/inference_nets.py" source_line=107}
}

%fused_computation.29 (param_0.82: f64[5,500], param_1.122: f64[5,500], param_2.123: f64[5,500], param_3.108: f64[5,500]) -> f64[100,5,5] {
  %iota.1842 = s32[5,5]{1,0} iota(), iota_dimension=0, metadata={op_name="jit(step)/jit(main)/while/body/cond/branch_0_fun/vmap(jvp(jit(_diag)))/iota[dtype=int32 shape=(5, 5) dimension=0]" source_file="/home/mathis/repos/backward_ica/src/variational/inference_nets.py" source_line=107}
  %iota.1841 = s32[5,5]{1,0} iota(), iota_dimension=1, metadata={op_name="jit(step)/jit(main)/while/body/cond/branch_0_fun/vmap(jvp(jit(_diag)))/iota[dtype=int32 shape=(5, 5) dimension=1]" source_file="/home/mathis/repos/backward_ica/src/variational/inference_nets.py" source_line=107}
  %compare.1041 = pred[5,5]{1,0} compare(s32[5,5]{1,0} %iota.1842, s32[5,5]{1,0} %iota.1841), direction=EQ, metadata={op_name="jit(step)/jit(main)/while/body/cond/branch_0_fun/vmap(jvp(jit(_diag)))/eq" source_file="/home/mathis/repos/backward_ica/src/variational/inference_nets.py" source_line=107}
  %broadcast.6727 = pred[100,5,5]{2,1,0} broadcast(pred[5,5]{1,0} %compare.1041), dimensions={1,2}, metadata={op_name="jit(step)/jit(main)/while/body/cond/branch_0_fun/vmap(transpose(vmap(jvp(jit(_diag)))))/jit(_where)/broadcast_in_dim[shape=(100, 5, 5) broadcast_dimensions=(1, 2)]" source_file="/home/mathis/repos/backward_ica/src/variational/inference_nets.py" source_line=107}
  %iota.1840 = s32[5,5]{1,0} iota(), iota_dimension=0, metadata={op_name="jit(step)/jit(main)/while/body/cond/branch_0_fun/vmap(jvp(jit(cholesky)))/jit(tril)/iota[dtype=int32 shape=(5, 5) dimension=0]" source_file="/home/mathis/repos/backward_ica/src/utils/misc.py" source_line=566}
  %iota.1839 = s32[5,5]{1,0} iota(), iota_dimension=1, metadata={op_name="jit(step)/jit(main)/while/body/cond/branch_0_fun/vmap(jvp(jit(cholesky)))/jit(tril)/iota[dtype=int32 shape=(5, 5) dimension=1]" source_file="/home/mathis/repos/backward_ica/src/utils/misc.py" source_line=566}
  %compare.1040 = pred[5,5]{1,0} compare(s32[5,5]{1,0} %iota.1840, s32[5,5]{1,0} %iota.1839), direction=GE, metadata={op_name="jit(step)/jit(main)/while/body/cond/branch_0_fun/vmap(jvp(jit(cholesky)))/jit(tril)/ge" source_file="/home/mathis/repos/backward_ica/src/utils/misc.py" source_line=566}
  %broadcast.6726 = pred[5,5,100]{2,1,0} broadcast(pred[5,5]{1,0} %compare.1040), dimensions={0,1}, metadata={op_name="jit(step)/jit(main)/while/body/cond/branch_0_fun/vmap(transpose(vmap(jvp(jit(_cho_solve)))))/jit(tril)/broadcast_in_dim[shape=(100, 5, 5) broadcast_dimensions=(1, 2)]" source_file="/home/mathis/repos/backward_ica/src/utils/misc.py" source_line=573}
  %param_3.108 = f64[5,500]{0,1} parameter(3)
  %copy.1080 = f64[5,500]{1,0} copy(f64[5,500]{0,1} %param_3.108), metadata={op_name="jit(step)/jit(main)/while/body/cond/branch_0_fun/vmap(transpose(vmap(jvp(jit(_cho_solve)))))/triangular_solve[left_side=True lower=True transpose_a=True conjugate_a=False unit_diagonal=False]" source_file="/home/mathis/repos/backward_ica/src/utils/misc.py" source_line=573}
…
f64[5]{0}, f64[5]{0}, f64[5]{0}, f64[5]{0}, /*index=30*/f64[100]{0}, f64[5,100]{1,0}, f64[10]{0}, f64[100,10]{1,0}, f64[50]{0}, /*index=35*/f64[50,5]{1,0}, f64[50,5,5]{2,1,0}, f64[50,5,5]{2,1,0}, f64[50,5]{1,0}, f64[50,5]{1,0}, /*index=40*/f64[50,5,5]{2,1,0}, f64[50,100,5]{2,1,0}, f64[50,100,5]{2,1,0}, f64[50,100,5]{2,1,0}, f64[50,100,5]{2,1,0}, /*index=45*/f64[50,100,100]{2,1,0}, f64[50,100,5,100]{3,2,1,0}, f64[50,100,10]{2,1,0}, f64[50,100,100,10]{3,2,1,0}, f64[50,100,5]{2,1,0}, /*index=50*/f64[50,100,5]{2,1,0}, f64[50,100,5]{2,1,0}, f64[50,100,5]{2,1,0}, f64[50,100,100]{2,1,0}, f64[50,100,5,100]{3,2,1,0}, /*index=55*/f64[50,100,10]{2,1,0}, f64[50,100,100,10]{3,2,1,0}, f64[50,100]{1,0}, f64[50,100]{1,0}, f64[50,100,5]{2,1,0}, /*index=60*/u32[50,2]{1,0}, f64[1,1,5]{2,1,0}, f64[5]{0}, f64[5,5]{1,0}, f64[100]{0}, /*index=65*/f64[100]{0}, f64[100,5]{1,0}, s32[], s32[], f64[]) %while.55), index=40, metadata={op_name="jit(step)/jit(main)/while[cond_nconsts=0 body_nconsts=15]" source_file="/home/mathis/repos/backward_ica/src/training.py" source_line=413}
  %fusion.629 = f64[5,5]{1,0} fusion(f64[50,5,5]{2,1,0} %get-tuple-element.12897), kind=kLoop, calls=%fused_computation.629, metadata={op_name="jit(step)/jit(main)/squeeze[dimensions=(0,)]" source_file="/home/mathis/repos/backward_ica/src/utils/misc.py" source_line=421}
  %get-tuple-element.12898 = f64[50,100,5]{2,1,0} get-tuple-element((s64[], f64[5]{0}, f64[5,5]{1,0}, f64[100]{0}, f64[100]{0}, /*index=5*/f64[100,5]{1,0}, f64[5]{0}, f64[5]{0}, f64[5]{0}, f64[5]{0}, /*index=10*/f64[100]{0}, f64[5,100]{1,0}, f64[10]{0}, f64[100,10]{1,0}, s32[], /*index=15*/pred[], s32[], s32[], f64[5]{0}, f64[5]{0}, /*index=20*/f64[5]{0}, f64[5]{0}, f64[100]{0}, f64[5,100]{1,0}, f64[10]{0}, /*index=25*/f64[100,10]{1,0}, f64[5]{0}, f64[5]{0}, f64[5]{0}, f64[5]{0}, /*index=30*/f64[100]{0}, f64[5,100]{1,0}, f64[10]{0}, f64[100,10]{1,0}, f64[50]{0}, /*index=35*/f64[50,5]{1,0}, f64[50,5,5]{2,1,0}, f64[50,5,5]{2,1,0}, f64[50,5]{1,0}, f64[50,5]{1,0}, /*index=40*/f64[50,5,5]{2,1,0}, f64[50,100,5]{2,1,0}, f64[50,100,5]{2,1,0}, f64[50,100,5]{2,1,0}, f64[50,100,5]{2,1,0}, /*index=45*/f64[50,100,100]{2,1,0}, f64[50,100,5,100]{3,2,1,0}, f64[50,100,10]{2,1,0}, f64[50,100,100,10]{3,2,1,0}, f64[50,100,5]{2,1,0}, /*index=50*/f64[50,100,5]{2,1,0}, f64[50,100,5]{2,1,0}, f64[50,100,5]{2,1,0}, f64[50,100,100]{2,1,0}, f64[50,100,5,100]{3,2,1,0}, /*index=55*/f64[50,100,10]{2,1,0}, f64[50,100,100,10]{3,2,1,0}, f64[50,100]{1,0}, f64[50,100]{1,0}, f64[50,100,5]{2,1,0}, /*index=60*/u32[50,2]{1,0}, f64[1,1,5]{2,1,0}, f64[5]{0}, f64[5,5]{1,0}, f64[100]{0}, /*index=65*/f64[100]{0}, f64[100,5]{1,0}, s32[], s32[], f64[]) %while.55), index=41, metadata={op_name="jit(step)/jit(main)/while[cond_nconsts=0 body_nconsts=15]" source_file="/home/mathis/repos/backward_ica/src/training.py" source_line=413}
  %fusion.628 = f64[100,5]{1,0} fusion(f64[50,100,5]{2,1,0} %get-tuple-element.12898), kind=kLoop, calls=%fused_computation.628, metadata={op_name="jit(step)/jit(main)/squeeze[dimensions=(0,)]" source_file="/home/mathis/repos/backward_ica/src/utils/misc.py" source_line=421}
  %get-tuple-element.12899 = f64[50,100,5]{2,1,0} get-tuple-element((s64[], f64[5]{0}, f64[5,5]{1,0}, f64[100]{0}, f64[100]{0}, /*index=5*/f64[100,5]{1,0}, f64[5]{0}, f64[5]{0}, f64[5]{0}, f64[5]{0}, /*index=10*/f64[100]{0}, f64[5,100]{1,0}, f64[10]{0}, f64[100,10]{1,0}, s32[], /*index=15*/pred[], s32[], s32[], f64[5]{0}, f64[5]{0}, /*index=20*/f64[5]{0}, f64[5]{0}, f64[100]{0}, f64[5,100]{1,0}, f64[10]{0}, /*index=25*/f64[100,10]{1,0}, f64[5]{0}, f64[5]{0}, f64[5]{0}, f64[5]{0}, /*index=30*/f64[100]{0}, f64[5,100]{1,0}, f64[10]{0}, f64[100,10]{1,0}, f64[50]{0}, /*index=35*/f64[50,5]{1,0}, f64[50,5,5]{2,1,0}, f64[50,5,5]{2,1,0}, f64[50,5]{1,0}, f64[50,5]{1,0}, /*index=40*/f64[50,5,5]{2,1,0}, f64[50,100,5]{2,1,0}, f64[50,100,5]{2,1,0}, f64[50,100,5]{2,1,0}, f64[50,100,5]{2,1,0}, /*index=45*/f64[50,100,100]{2,1,0}, f64[50,100,5,100]{3,2,1,0}, f64[50,100,10]{2,1,0}, f64[50,100,100,10]{3,2,1,0}, f64[50,100,5]{2,1,0}, /*index=50*/f64[50,100,5]{2,1,0}, f64[50,100,5]{2,1,0}, f64[50,100,5]{2,1,0}, f64[50,100,100]{2,1,0}, f64[50,100,5,100]{3,2,1,0}, /*index=55*/f64[50,100,10]{2,1,0}, f64[50,100,100,10]{3,2,1,0}, f64[50,100]{1,0}, f64[50,100]{1,0}, f64[50,100,5]{2,1,0}, /*index=60*/u32[50,2]{1,0}, f64[1,1,5]{2,1,0}, f64[5]{0}, f64[5,5]{1,0}, f64[100]{0}, /*index=65*/f64[100]{0}, f64[100,5]{1,0}, s32[], s32[], f64[]) %while.55), index=42, metadata={op_name="jit(step)/jit(main)/while[cond_nconsts=0 body_nconsts=15]" source_file="/home/mathis/repos/backward_ica/src/training.py" source_line=413}
  %fusion.627 = f64[100,5]{1,0} fusion(f64[50,100,5]{2,1,0} %get-tuple-element.12899), kind=kLoop, calls=%fused_computation.627, metadata={op_name="jit(step)/jit(main)/squeeze[dimensions=(0,)]" source_file="/home/mathis/repos/backward_ica/src/utils/misc.py" source_line=421}
  %get-tuple-element.12900 = f64[50,100,5]{2,1,0} get-tuple-element((s64[], f64[5]{0}, f64[5,5]{1,0}, f64[100]{0}, f64[100]{0}, /*index=5*/f64[100,5]{1,0}, f64[5]{0}, f64[5]{0}, f64[5]{0}, f64[5]{0}, /*index=10*/f64[100]{0}, f64[5,100]{1,0}, f64[10]{0}, f64[100,10]{1,0}, s32[], /*index=15*/pred[], s32[], s32[], f64[5]{0}, f64[5]{0}, /*index=20*/f64[5]{0}, f64[5]{0}, f64[100]{0}, f64[5,100]{1,0}, f64[10]{0}, /*index=25*/f64[100,10]{1,0}, f64[5]{0}, f64[5]{0}, f64[5]{0}, f64[5]{0}, /*index=30*/f64[100]{0}, f64[5,100]{1,0}, f64[10]{0}, f64[100,10]{1,0}, f64[50]{0}, /*index=35*/f64[50,5]{1,0}, f64[50,5,5]{2,1,0}, f64[50,5,5]{2,1,0}, f64[50,5]{1,0}, f64[50,5]{1,0}, /*index=40*/f64[50,5,5]{2,1,0}, f64[50,100,5]{2,1,0}, f64[50,100,5]{2,1,0}, f64[50,100,5]{2,1,0}, f64[50,100,5]{2,1,0}, /*index=45*/f64[50,100,100]{2,1,0}, f64[50,100,5,100]{3,2,1,0}, f64[50,100,10]{2,1,0}, f64[50,100,100,10]{3,2,1,0}, f64[50,100,5]{2,1,0}, /*index=50*/f64[50,100,5]{2,1,0}, f64[50,100,5]{2,1,0}, f64[50,100,5]{2,1,0}, f64[50,100,100]{2,1,0}, f64[50,100,5,100]{3,2,1,0}, /*index=55*/f64[50,100,10]{2,1,0}, f64[50,100,100,10]{3,2,1,0}, f64[50,100]{1,0}, f64[50,100]{1,0}, f64[50,100,5]{2,1,0}, /*index=60*/u32[50,2]{1,0}, f64[1,1,5]{2,1,0}, f64[5]{0}, f64[5,5]{1,0}, f64[100]{0}, /*index=65*/f64[100]{0}, f64[100,5]{1,0}, s32[], s32[], f64[]) %while.55), index=43, metadata={op_name="jit(step)/jit(main)/while[cond_nconsts=0 body_nconsts=15]" source_file="/home/mathis/repos/backward_ica/src/training.py" source_line=413}
  %fusion.626 = f64[100,5]{1,0} fusion(f64[50,100,5]{2,1,0} %get-tuple-element.12900), kind=kLoop, calls=%fused_computation.626, metadata={op_name="jit(step)/jit(main)/squeeze[dimensions=(0,)]" source_file="/home/mathis/repos/backward_ica/src/utils/misc.py" source_line=421}
  %get-tuple-element.12901 = f64[50,100,5]{2,1,0} get-tuple-element((s64[], f64[5]{0}, f64[5,5]{1,0}, f64[100]{0}, f64[100]{0}, /*index=5*/f64[100,5]{1,0}, f64[5]{0}, f64[5]{0}, f64[5]{0}, f64[5]{0}, /*index=10*/f64[100]{0}, f64[5,100]{1,0}, f64[10]{0}, f64[100,10]{1,0}, s32[], /*index=15*/pred[], s32[], s32[], f64[5]{0}, f64[5]{0}, /*index=20*/f64[5]{0}, f64[5]{0}, f64[100]{0}, f64[5,100]{1,0}, f64[10]{0}, /*index=25*/f64[100,10]{1,0}, f64[5]{0}, f64[5]{0}, f64[5]{0}, f64[5]{0}, /*index=30*/f64[100]{0}, f64[5,100]{1,0}, f64[10]{0}, f64[100,10]{1,0}, f64[50]{0}, /*index=35*/f64[50,5]{1,0}, f64[50,5,5]{2,1,0}, f64[50,5,5]{2,1,0}, f64[50,5]{1,0}, f64[50,5]{1,0}, /*index=40*/f64[50,5,5]{2,1,0}, f64[50,100,5]{2,1,0}, f64[50,100,5]{2,1,0}, f64[50,100,5]{2,1,0}, f64[50,100,5]{2,1,0}, /*index=45*/f64[50,100,100]{2,1,0}, f64[50,100,5,100]{3,2,1,0}, f64[50,100,10]{2,1,0}, f64[50,100,100,10]{3,2,1,0}, f64[50,100,5]{2,1,0}, /*index=50*/f64[50,100,5]{2,1,0}, f64[50,100,5]{2,1,0}, f64[50,100,5]{2,1,0}, f64[50,100,100]{2,1,0}, f64[50,100,5,100]{3,2,1,0}, /*index=55*/f64[50,100,10]{2,1,0}, f64[50,100,100,10]{3,2,1,0}, f64[50,100]{1,0}, f64[50,100]{1,0}, f64[50,100,5]{2,1,0}, /*index=60*/u32[50,2]{1,0}, f64[1,1,5]{2,1,0}, f64[5]{0}, f64[5,5]{1,0}, f64[100]{0}, /*index=65*/f64[100]{0}, f64[100,5]{1,0}, s32[], s32[], f64[]) %while.55), index=44, metadata={op_name="jit(step)/jit(main)/while[cond_nconsts=0 body_nconsts=15]" source_file="/home/mathis/repos/backward_ica/src/training.py" source_line=413}
  %fusion.625 = f64[100,5]{1,0} fusion(f64[50,100,5]{2,1,0} %get-tuple-element.12901), kind=kLoop, calls=%fused_computation.625, metadata={op_name="jit(step)/jit(main)/squeeze[dimensions=(0,)]" source_file="/home/mathis/repos/backward_ica/src/utils/misc.py" source_line=421}
  %get-tuple-element.12902 = f64[50,100,100]{2,1,0} get-tuple-element((s64[], f64[5]{0}, f64[5,5]{1,0}, f64[100]{0}, f64[100]{0}, /*index=5*/f64[100,5]{1,0}, f64[5]{0}, f64[5]{0}, f64[5]{0}, f64[5]{0}, /*index=10*/f64[100]{0}, f64[5,100]{1,0}, f64[10]{0}, f64[100,10]{1,0}, s32[], /*index=15*/pred[], s32[], s32[], f64[5]{0}, f64[5]{0}, /*index=20*/f64[5]{0}, f64[5]{0}, f64[100]{0}, f64[5,100]{1,0}, f64[10]{0}, /*index=25*/f64[100,10]{1,0}, f64[5]{0}, f64[5]{0}, f64[5]{0}, f64[5]{0}, /*index=30*/f64[100]{0}, f64[5,100]{1,0}, f64[10]{0}, f64[100,10]{1,0}, f64[50]{0}, /*index=35*/f64[50,5]{1,0}, f64[50,5,5]{2,1,0}, f64[50,5,5]{2,1,0}, f64[50,5]{1,0}, f64[50,5]{1,0}, /*index=40*/f64[50,5,5]{2,1,0}, f64[50,100,5]{2,1,0}, f64[50,100,5]{2,1,0}, f64[50,100,5]{2,1,0}, f64[50,100,5]{2,1,0}, /*index=45*/f64[50,100,100]{2,1,0}, f64[50,100,5,100]{3,2,1,0}, f64[50,100,10]{2,1,0}, f64[50,100,100,10]{3,2,1,0}, f64[50,100,5]{2,1,0}, /*index=50*/f64[50,100,5]{2,1,0}, f64[50,100,5]{2,1,0}, f64[50,100,5]{2,1,0}, f64[50,100,100]{2,1,0}, f64[50,100,5,100]{3,2,1,0}, /*index=55*/f64[50,100,10]{2,1,0}, f64[50,100,100,10]{3,2,1,0}, f64[50,100]{1,0}, f64[50,100]{1,0}, f64[50,100,5]{2,1,0}, /*index=60*/u32[50,2]{1,0}, f64[1,1,5]{2,1,0}, f64[5]{0}, f64[5,5]{1,0}, f64[100]{0}, /*index=65*/f64[100]{0}, f64[100,5]{1,0}, s32[], s32[], f64[]) %while.55), index=45, metadata={op_name="jit(step)/jit(main)/while[cond_nconsts=0 body_nconsts=15]" source_file="/home/mathis/repos/backward_ica/src/training.py" source_line=413}
  %fusion.624 = f64[100,100]{1,0} fusion(f64[50,100,100]{2,1,0} %get-tuple-element.12902), kind=kLoop, calls=%fused_computation.624, metadata={op_name="jit(step)/jit(main)/squeeze[dimensions=(0,)]" source_file="/home/mathis/repos/backward_ica/src/utils/misc.py" source_line=421}
  %get-tuple-element.12903 = f64[50,100,5,100]{3,2,1,0} get-tuple-element((s64[], f64[5]{0}, f64[5,5]{1,0}, f64[100]{0}, f64[100]{0}, /*index=5*/f64[100,5]{1,0}, f64[5]{0}, f64[5]{0}, f64[5]{0}, f64[5]{0}, /*index=10*/f64[100]{0}, f64[5,100]{1,0}, f64[10]{0}, f64[100,10]{1,0}, s32[], /*index=15*/pred[], s32[], s32[], f64[5]{0}, f64[5]{0}, /*index=20*/f64[5]{0}, f64[5]{0}, f64[100]{0}, f64[5,100]{1,0}, f64[10]{0}, /*index=25*/f64[100,10]{1,0}, f64[5]{0}, f64[5]{0}, f64[5]{0}, f64[5]{0}, /*index=30*/f64[100]{0}, f64[5,100]{1,0}, f64[10]{0}, f64[100,10]{1,0}, f64[50]{0}, /*index=35*/f64[50,5]{1,0}, f64[50,5,5]{2,1,0}, f64[50,5,5]{2,1,0}, f64[50,5]{1,0}, f64[50,5]{1,0}, /*index=40*/f64[50,5,5]{2,1,0}, f64[50,100,5]{2,1,0}, f64[50,100,5]{2,1,0}, f64[50,100,5]{2,1,0}, f64[50,100,5]{2,1,0}, /*index=45*/f64[50,100,100]{2,1,0}, f64[50,100,5,100]{3,2,1,0}, f64[50,100,10]{2,1,0}, f64[50,100,100,10]{3,2,1,0}, f64[50,100,5]{2,1,0}, /*index=50*/f64[50,100,5]{2,1,0}, f64[50,100,5]{2,1,0}, f64[50,100,5]{2,1,0}, f64[50,100,100]{2,1,0}, f64[50,100,5,100]{3,2,1,0}, /*index=55*/f64[50,100,10]{2,1,0}, f64[50,100,100,10]{3,2,1,0}, f64[50,100]{1,0}, f64[50,100]{1,0}, f64[50,100,5]{2,1,0}, /*index=60*/u32[50,2]{1,0}, f64[1,1,5]{2,1,0}, f64[5]{0}, f64[5,5]{1,0}, f64[100]{0}, /*index=65*/f64[100]{0}, f64[100,5]{1,0}, s32[], s32[], f64[]) %while.55), index=46, metadata={op_name="jit(step)/jit(main)/while[cond_nconsts=0 body_nconsts=15]" source_file="/home/mathis/repos/backward_ica/src/training.py" source_line=413}
  %fusion.623 = f64[100,5,100]{2,1,0} fusion(f64[50,100,5,100]{3,2,1,0} %get-tuple-element.12903), kind=kLoop, calls=%fused_computation.623, metadata={op_name="jit(step)/jit(main)/squeeze[dimensions=(0,)]" source_file="/home/mathis/repos/backward_ica/src/utils/misc.py" source_line=421}
  %get-tuple-element.12904 = f64[50,100,10]{2,1,0} get-tuple-element((s64[], f64[5]{0}, f64[5,5]{1,0}, f64[100]{0}, f64[100]{0}, /*index=5*/f64[100,5]{1,0}, f64[5]{0}, f64[5]{0}, f64[5]{0}, f64[5]{0}, /*index=10*/f64[100]{0}, f64[5,100]{1,0}, f64[10]{0}, f64[100,10]{1,0}, s32[], /*index=15*/pred[], s32[], s32[], f64[5]{0}, f64[5]{0}, /*index=20*/f64[5]{0}, f64[5]{0}, f64[100]{0}, f64[5,100]{1,0}, f64[10]{0}, /*index=25*/f64[100,10]{1,0}, f64[5]{0}, f64[5]{0}, f64[5]{0}, f64[5]{0}, /*index=30*/f64[100]{0}, f64[5,100]{1,0}, f64[10]{0}, f64[100,10]{1,0}, f64[50]{0}, /*index=35*/f64[50,5]{1,0}, f64[50,5,5]{2,1,0}, f64[50,5,5]{2,1,0}, f64[50,5]{1,0}, f64[50,5]{1,0}, /*index=40*/f64[50,5,5]{2,1,0}, f64[50,100,5]{2,1,0}, f64[50,100,5]{2,1,0}, f64[50,100,5]{2,1,0}, f64[50,100,5]{2,1,0}, /*index=45*/f64[50,100,100]{2,1,0}, f64[50,100,5,100]{3,2,1,0}, f64[50,100,10]{2,1,0}, f64[50,100,100,10]{3,2,1,0}, f64[50,100,5]{2,1,0}, /*index=50*/f64[50,100,5]{2,1,0}, f64[50,100,5]{2,1,0}, f64[50,100,5]{2,1,0}, f64[50,100,100]{2,1,0}, f64[50,100,5,100]{3,2,1,0}, /*index=55*/f64[50,100,10]{2,1,0}, f64[50,100,100,10]{3,2,1,0}, f64[50,100]{1,0}, f64[50,100]{1,0}, f64[50,100,5]{2,1,0}, /*index=60*/u32[50,2]{1,0}, f64[1,1,5]{2,1,0}, f64[5]{0}, f64[5,5]{1,0}, f64[100]{0}, /*index=65*/f64[100]{0}, f64[100,5]{1,0}, s32[], s32[], f64[]) %while.55), index=47, metadata={op_name="jit(step)/jit(main)/while[cond_nconsts=0 body_nconsts=15]" source_file="/home/mathis/repos/backward_ica/src/training.py" source_line=413}
  %fusion.622 = f64[100,10]{1,0} fusion(f64[50,100,10]{2,1,0} %get-tuple-element.12904), kind=kLoop, calls=%fused_computation.622, metadata={op_name="jit(step)/jit(main)/squeeze[dimensions=(0,)]" source_file="/home/mathis/repos/backward_ica/src/utils/misc.py" source_line=421}
  %get-tuple-element.12905 = f64[50,100,100,10]{3,2,1,0} get-tuple-element((s64[], f64[5]{0}, f64[5,5]{1,0}, f64[100]{0}, f64[100]{0}, /*index=5*/f64[100,5]{1,0}, f64[5]{0}, f64[5]{0}, f64[5]{0}, f64[5]{0}, /*index=10*/f64[100]{0}, f64[5,100]{1,0}, f64[10]{0}, f64[100,10]{1,0}, s32[], /*index=15*/pred[], s32[], s32[], f64[5]{0}, f64[5]{0}, /*index=20*/f64[5]{0}, f64[5]{0}, f64[100]{0}, f64[5,100]{1,0}, f64[10]{0}, /*index=25*/f64[100,10]{1,0}, f64[5]{0}, f64[5]{0}, f64[5]{0}, f64[5]{0}, /*index=30*/f64[100]{0}, f64[5,100]{1,0}, f64[10]{0}, f64[100,10]{1,0}, f64[50]{0}, /*index=35*/f64[50,5]{1,0}, f64[50,5,5]{2,1,0}, f64[50,5,5]{2,1,0}, f64[50,5]{1,0}, f64[50,5]{1,0}, /*index=40*/f64[50,5,5]{2,1,0}, f64[50,100,5]{2,1,0}, f64[50,100,5]{2,1,0}, f64[50,100,5]{2,1,0}, f64[50,100,5]{2,1,0}, /*index=45*/f64[50,100,100]{2,1,0}, f64[50,100,5,100]{3,2,1,0}, f64[50,100,10]{2,1,0}, f64[50,100,100,10]{3,2,1,0}, f64[50,100,5]{2,1,0}, /*index=50*/f64[50,100,5]{2,1,0}, f64[50,100,5]{2,1,0}, f64[50,100,5]{2,1,0}, f64[50,100,100]{2,1,0}, f64[50,100,5,100]{3,2,1,0}, /*index=55*/f64[50,100,10]{2,1,0}, f64[50,100,100,10]{3,2,1,0}, f64[50,100]{1,0}, f64[50,100]{1,0}, f64[50,100,5]{2,1,0}, /*index=60*/u32[50,2]{1,0}, f64[1,1,5]{2,1,0}, f64[5]{0}, f64[5,5]{1,0}, f64[100]{0}, /*index=65*/f64[100]{0}, f64[100,5]{1,0}, s32[], s32[], f64[]) %while.55), index=48, metadata={op_name="jit(step)/jit(main)/while[cond_nconsts=0 body_nconsts=15]" source_file="/home/mathis/repos/backward_ica/src/training.py" source_line=413}
  %call.14 = f64[100,100,10]{2,1,0} call(f64[50,100,100,10]{3,2,1,0} %get-tuple-element.12905), to_apply=%parallel_fusion.621
  %get-tuple-element.12906 = f64[50,100,5]{2,1,0} get-tuple-element((s64[], f64[5]{0}, f64[5,5]{1,0}, f64[100]{0}, f64[100]{0}, /*index=5*/f64[100,5]{1,0}, f64[5]{0}, f64[5]{0}, f64[5]{0}, f64[5]{0}, /*index=10*/f64[100]{0}, f64[5,100]{1,0}, f64[10]{0}, f64[100,10]{1,0}, s32[], /*index=15*/pred[], s32[], s32[], f64[5]{0}, f64[5]{0}, /*index=20*/f64[5]{0}, f64[5]{0}, f64[100]{0}, f64[5,100]{1,0}, f64[10]{0}, /*index=25*/f64[100,10]{1,0}, f64[5]{0}, f64[5]{0}, f64[5]{0}, f64[5]{0}, /*index=30*/f64[100]{0}, f64[5,100]{1,0}, f64[10]{0}, f64[100,10]{1,0}, f64[50]{0}, /*index=35*/f64[50,5]{1,0}, f64[50,5,5]{2,1,0}, f64[50,5,5]{2,1,0}, f64[50,5]{1,0}, f64[50,5]{1,0}, /*index=40*/f64[50,5,5]{2,1,0}, f64[50,100,5]{2,1,0}, f64[50,100,5]{2,1,0}, f64[50,100,5]{2,1,0}, f64[50,100,5]{2,1,0}, /*index=45*/f64[50,100,100]{2,1,0}, f64[50,100,5,100]{3,2,1,0}, f64[50,100,10]{2,1,0}, f64[50,100,100,10]{3,2,1,0}, f64[50,100,5]{2,1,0}, /*index=50*/f64[50,100,5]{2,1,0}, f64[50,100,5]{2,1,0}, f64[50,100,5]{2,1,0}, f64[50,100,100]{2,1,0}, f64[50,100,5,100]{3,2,1,0}, /*index=55*/f64[50,100,10]{2,1,0}, f64[50,100,100,10]{3,2,1,0}, f64[50,100]{1,0}, f64[50,100]{1,0}, f64[50,100,5]{2,1,0}, /*index=60*/u32[50,2]{1,0}, f64[1,1,5]{2,1,0}, f64[5]{0}, f64[5,5]{1,0}, f64[100]{0}, /*index=65*/f64[100]{0}, f64[100,5]{1,0}, s32[], s32[], f64[]) %while.55), index=49, metadata={op_name="jit(step)/jit(main)/while[cond_nconsts=0 body_nconsts=15]" source_file="/home/mathis/repos/backward_ica/src/training.py" source_line=413}
  %fusion.620 = f64[100,5]{1,0} fusion(f64[50,100,5]{2,1,0} %get-tuple-element.12906), kind=kLoop, calls=%fused_computation.620, metadata={op_name="jit(step)/jit(main)/squeeze[dimensions=(0,)]" source_file="/home/mathis/repos/backward_ica/src/utils/misc.py" source_line=421}
  %get-tuple-element.12907 = f64[50,100,5]{2,1,0} get-tuple-element((s64[], f64[5]{0}, f64[5,5]{1,0}, f64[100]{0}, f64[100]{0}, /*index=5*/f64[100,5]{1,0}, f64[5]{0}, f64[5]{0}, f64[5]{0}, f64[5]{0}, /*index=10*/f64[100]{0}, f64[5,100]{1,0}, f64[10]{0}, f64[100,10]{1,0}, s32[], /*index=15*/pred[], s32[], s32[], f64[5]{0}, f64[5]{0}, /*index=20*/f64[5]{0}, f64[5]{0}, f64[100]{0}, f64[5,100]{1,0}, f64[10]{0}, /*index=25*/f64[100,10]{1,0}, f64[5]{0}, f64[5]{0}, f64[5]{0}, f64[5]{0}, /*index=30*/f64[100]{0}, f64[5,100]{1,0}, f64[10]{0}, f64[100,10]{1,0}, f64[50]{0}, /*index=35*/f64[50,5]{1,0}, f64[50,5,5]{2,1,0}, f64[50,5,5]{2,1,0}, f64[50,5]{1,0}, f64[50,5]{1,0}, /*index=40*/f64[50,5,5]{2,1,0}, f64[50,100,5]{2,1,0}, f64[50,100,5]{2,1,0}, f64[50,100,5]{2,1,0}, f64[50,100,5]{2,1,0}, /*index=45*/f64[50,100,100]{2,1,0}, f64[50,100,5,100]{3,2,1,0}, f64[50,100,10]{2,1,0}, f64[50,100,100,10]{3,2,1,0}, f64[50,100,5]{2,1,0}, /*index=50*/f64[50,100,5]{2,1,0}, f64[50,100,5]{2,1,0}, f64[50,100,5]{2,1,0}, f64[50,100,100]{2,1,0}, f64[50,100,5,100]{3,2,1,0}, /*index=55*/f64[50,100,10]{2,1,0}, f64[50,100,100,10]{3,2,1,0}, f64[50,100]{1,0}, f64[50,100]{1,0}, f64[50,100,5]{2,1,0}, /*index=60*/u32[50,2]{1,0}, f64[1,1,5]{2,1,0}, f64[5]{0}, f64[5,5]{1,0}, f64[100]{0}, /*index=65*/f64[100]{0}, f64[100,5]{1,0}, s32[], s32[], f64[]) %while.55), index=50, metadata={op_name="jit(step)/jit(main)/while[cond_nconsts=0 body_nconsts=15]" source_file="/home/mathis/repos/backward_ica/src/training.py" source_line=413}
  %fusion.619 = f64[100,5]{1,0} fusion(f64[50,100,5]{2,1,0} %get-tuple-element.12907), kind=kLoop, calls=%fused_computation.619, metadata={op_name="jit(step)/jit(main)/squeeze[dimensions=(0,)]" source_file="/home/mathis/repos/backward_ica/src/utils/misc.py" source_line=421}
  %get-tuple-element.12908 = f64[50,100,5]{2,1,0} get-tuple-element((s64[], f64[5]{0}, f64[5,5]{1,0}, f64[100]{0}, f64[100]{0}, /*index=5*/f64[100,5]{1,0}, f64[5]{0}, f64[5]{0}, f64[5]{0}, f64[5]{0}, /*index=10*/f64[100]{0}, f64[5,100]{1,0}, f64[10]{0}, f64[100,10]{1,0}, s32[], /*index=15*/pred[], s32[], s32[], f64[5]{0}, f64[5]{0}, /*index=20*/f64[5]{0}, f64[5]{0}, f64[100]{0}, f64[5,100]{1,0}, f64[10]{0}, /*index=25*/f64[100,10]{1,0}, f64[5]{0}, f64[5]{0}, f64[5]{0}, f64[5]{0}, /*index=30*/f64[100]{0}, f64[5,100]{1,0}, f64[10]{0}, f64[100,10]{1,0}, f64[50]{0}, /*index=35*/f64[50,5]{1,0}, f64[50,5,5]{2,1,0}, f64[50,5,5]{2,1,0}, f64[50,5]{1,0}, f64[50,5]{1,0}, /*index=40*/f64[50,5,5]{2,1,0}, f64[50,100,5]{2,1,0}, f64[50,100,5]{2,1,0}, f64[50,100,5]{2,1,0}, f64[50,100,5]{2,1,0}, /*index=45*/f64[50,100,100]{2,1,0}, f64[50,100,5,100]{3,2,1,0}, f64[50,100,10]{2,1,0}, f64[50,100,100,10]{3,2,1,0}, f64[50,100,5]{2,1,0}, /*index=50*/f64[50,100,5]{2,1,0}, f64[50,100,5]{2,1,0}, f64[50,100,5]{2,1,0}, f64[50,100,100]{2,1,0}, f64[50,100,5,100]{3,2,1,0}, /*index=55*/f64[50,100,10]{2,1,0}, f64[50,100,100,10]{3,2,1,0}, f64[50,100]{1,0}, f64[50,100]{1,0}, f64[50,100,5]{2,1,0}, /*index=60*/u32[50,2]{1,0}, f64[1,1,5]{2,1,0}, f64[5]{0}, f64[5,5]{1,0}, f64[100]{0}, /*index=65*/f64[100]{0}, f64[100,5]{1,0}, s32[], s32[], f64[]) %while.55), index=51, metadata={op_name="jit(step)/jit(main)/while[cond_nconsts=0 body_nconsts=15]" source_file="/home/mathis/repos/backward_ica/src/training.py" source_line=413}
  %fusion.618 = f64[100,5]{1,0} fusion(f64[50,100,5]{2,1,0} %get-tuple-element.12908), kind=kLoop, calls=%fused_computation.618, metadata={op_name="jit(step)/jit(main)/squeeze[dimensions=(0,)]" source_file="/home/mathis/repos/backward_ica/src/utils/misc.py" source_line=421}
  %get-tuple-element.12909 = f64[50,100,5]{2,1,0} get-tuple-element((s64[], f64[5]{0}, f64[5,5]{1,0}, f64[100]{0}, f64[100]{0}, /*index=5*/f64[100,5]{1,0}, f64[5]{0}, f64[5]{0}, f64[5]{0}, f64[5]{0}, /*index=10*/f64[100]{0}, f64[5,100]{1,0}, f64[10]{0}, f64[100,10]{1,0}, s32[], /*index=15*/pred[], s32[], s32[], f64[5]{0}, f64[5]{0}, /*index=20*/f64[5]{0}, f64[5]{0}, f64[100]{0}, f64[5,100]{1,0}, f64[10]{0}, /*index=25*/f64[100,10]{1,0}, f64[5]{0}, f64[5]{0}, f64[5]{0}, f64[5]{0}, /*index=30*/f64[100]{0}, f64[5,100]{1,0}, f64[10]{0}, f64[100,10]{1,0}, f64[50]{0}, /*index=35*/f64[50,5]{1,0}, f64[50,5,5]{2,1,0}, f64[50,5,5]{2,1,0}, f64[50,5]{1,0}, f64[50,5]{1,0}, /*index=40*/f64[50,5,5]{2,1,0}, f64[50,100,5]{2,1,0}, f64[50,100,5]{2,1,0}, f64[50,100,5]{2,1,0}, f64[50,100,5]{2,1,0}, /*index=45*/f64[50,100,100]{2,1,0}, f64[50,100,5,100]{3,2,1,0}, f64[50,100,10]{2,1,0}, f64[50,100,100,10]{3,2,1,0}, f64[50,100,5]{2,1,0}, /*index=50*/f64[50,100,5]{2,1,0}, f64[50,100,5]{2,1,0}, f64[50,100,5]{2,1,0}, f64[50,100,100]{2,1,0}, f64[50,100,5,100]{3,2,1,0}, /*index=55*/f64[50,100,10]{2,1,0}, f64[50,100,100,10]{3,2,1,0}, f64[50,100]{1,0}, f64[50,100]{1,0}, f64[50,100,5]{2,1,0}, /*index=60*/u32[50,2]{1,0}, f64[1,1,5]{2,1,0}, f64[5]{0}, f64[5,5]{1,0}, f64[100]{0}, /*index=65*/f64[100]{0}, f64[100,5]{1,0}, s32[], s32[], f64[]) %while.55), index=52, metadata={op_name="jit(step)/jit(main)/while[cond_nconsts=0 body_nconsts=15]" source_file="/home/mathis/repos/backward_ica/src/training.py" source_line=413}
  %fusion.617 = f64[100,5]{1,0} fusion(f64[50,100,5]{2,1,0} %get-tuple-element.12909), kind=kLoop, calls=%fused_computation.617, metadata={op_name="jit(step)/jit(main)/squeeze[dimensions=(0,)]" source_file="/home/mathis/repos/backward_ica/src/utils/misc.py" source_line=421}
  %get-tuple-element.12910 = f64[50,100,100]{2,1,0} get-tuple-element((s64[], f64[5]{0}, f64[5,5]{1,0}, f64[100]{0}, f64[100]{0}, /*index=5*/f64[100,5]{1,0}, f64[5]{0}, f64[5]{0}, f64[5]{0}, f64[5]{0}, /*index=10*/f64[100]{0}, f64[5,100]{1,0}, f64[10]{0}, f64[100,10]{1,0}, s32[], /*index=15*/pred[], s32[], s32[], f64[5]{0}, f64[5]{0}, /*index=20*/f64[5]{0}, f64[5]{0}, f64[100]{0}, f64[5,100]{1,0}, f64[10]{0}, /*index=25*/f64[100,10]{1,0}, f64[5]{0}, f64[5]{0}, f64[5]{0}, f64[5]{0}, /*index=30*/f64[100]{0}, f64[5,100]{1,0}, f64[10]{0}, f64[100,10]{1,0}, f64[50]{0}, /*index=35*/f64[50,5]{1,0}, f64[50,5,5]{2,1,0}, f64[50,5,5]{2,1,0}, f64[50,5]{1,0}, f64[50,5]{1,0}, /*index=40*/f64[50,5,5]{2,1,0}, f64[50,100,5]{2,1,0}, f64[50,100,5]{2,1,0}, f64[50,100,5]{2,1,0}, f64[50,100,5]{2,1,0}, /*index=45*/f64[50,100,100]{2,1,0}, f64[50,100,5,100]{3,2,1,0}, f64[50,100,10]{2,1,0}, f64[50,100,100,10]{3,2,1,0}, f64[50,100,5]{2,1,0}, /*index=50*/f64[50,100,5]{2,1,0}, f64[50,100,5]{2,1,0}, f64[50,100,5]{2,1,0}, f64[50,100,100]{2,1,0}, f64[50,100,5,100]{3,2,1,0}, /*index=55*/f64[50,100,10]{2,1,0}, f64[50,100,100,10]{3,2,1,0}, f64[50,100]{1,0}, f64[50,100]{1,0}, f64[50,100,5]{2,1,0}, /*index=60*/u32[50,2]{1,0}, f64[1,1,5]{2,1,0}, f64[5]{0}, f64[5,5]{1,0}, f64[100]{0}, /*index=65*/f64[100]{0}, f64[100,5]{1,0}, s32[], s32[], f64[]) %while.55), index=53, metadata={op_name="jit(step)/jit(main)/while[cond_nconsts=0 body_nconsts=15]" source_file="/home/mathis/repos/backward_ica/src/training.py" source_line=413}
  %fusion.616 = f64[100,100]{1,0} fusion(f64[50,100,100]{2,1,0} %get-tuple-element.12910), kind=kLoop, calls=%fused_computation.616, metadata={op_name="jit(step)/jit(main)/squeeze[dimensions=(0,)]" source_file="/home/mathis/repos/backward_ica/src/utils/misc.py" source_line=421}
  %get-tuple-element.12911 = f64[50,100,5,100]{3,2,1,0} get-tuple-element((s64[], f64[5]{0}, f64[5,5]{1,0}, f64[100]{0}, f64[100]{0}, /*index=5*/f64[100,5]{1,0}, f64[5]{0}, f64[5]{0}, f64[5]{0}, f64[5]{0}, /*index=10*/f64[100]{0}, f64[5,100]{1,0}, f64[10]{0}, f64[100,10]{1,0}, s32[], /*index=15*/pred[], s32[], s32[], f64[5]{0}, f64[5]{0}, /*index=20*/f64[5]{0}, f64[5]{0}, f64[100]{0}, f64[5,100]{1,0}, f64[10]{0}, /*index=25*/f64[100,10]{1,0}, f64[5]{0}, f64[5]{0}, f64[5]{0}, f64[5]{0}, /*index=30*/f64[100]{0}, f64[5,100]{1,0}, f64[10]{0}, f64[100,10]{1,0}, f64[50]{0}, /*index=35*/f64[50,5]{1,0}, f64[50,5,5]{2,1,0}, f64[50,5,5]{2,1,0}, f64[50,5]{1,0}, f64[50,5]{1,0}, /*index=40*/f64[50,5,5]{2,1,0}, f64[50,100,5]{2,1,0}, f64[50,100,5]{2,1,0}, f64[50,100,5]{2,1,0}, f64[50,100,5]{2,1,0}, /*index=45*/f64[50,100,100]{2,1,0}, f64[50,100,5,100]{3,2,1,0}, f64[50,100,10]{2,1,0}, f64[50,100,100,10]{3,2,1,0}, f64[50,100,5]{2,1,0}, /*index=50*/f64[50,100,5]{2,1,0}, f64[50,100,5]{2,1,0}, f64[50,100,5]{2,1,0}, f64[50,100,100]{2,1,0}, f64[50,100,5,100]{3,2,1,0}, /*index=55*/f64[50,100,10]{2,1,0}, f64[50,100,100,10]{3,2,1,0}, f64[50,100]{1,0}, f64[50,100]{1,0}, f64[50,100,5]{2,1,0}, /*index=60*/u32[50,2]{1,0}, f64[1,1,5]{2,1,0}, f64[5]{0}, f64[5,5]{1,0}, f64[100]{0}, /*index=65*/f64[100]{0}, f64[100,5]{1,0}, s32[], s32[], f64[]) %while.55), index=54, metadata={op_name="jit(step)/jit(main)/while[cond_nconsts=0 body_nconsts=15]" source_file="/home/mathis/repos/backward_ica/src/training.py" source_line=413}
  %fusion.615 = f64[100,5,100]{2,1,0} fusion(f64[50,100,5,100]{3,2,1,0} %get-tuple-element.12911), kind=kLoop, calls=%fused_computation.615, metadata={op_name="jit(step)/jit(main)/squeeze[dimensions=(0,)]" source_file="/home/mathis/repos/backward_ica/src/utils/misc.py" source_line=421}
  %get-tuple-element.12912 = f64[50,100,10]{2,1,0} get-tuple-element((s64[], f64[5]{0}, f64[5,5]{1,0}, f64[100]{0}, f64[100]{0}, /*index=5*/f64[100,5]{1,0}, f64[5]{0}, f64[5]{0}, f64[5]{0}, f64[5]{0}, /*index=10*/f64[100]{0}, f64[5,100]{1,0}, f64[10]{0}, f64[100,10]{1,0}, s32[], /*index=15*/pred[], s32[], s32[], f64[5]{0}, f64[5]{0}, /*index=20*/f64[5]{0}, f64[5]{0}, f64[100]{0}, f64[5,100]{1,0}, f64[10]{0}, /*index=25*/f64[100,10]{1,0}, f64[5]{0}, f64[5]{0}, f64[5]{0}, f64[5]{0}, /*index=30*/f64[100]{0}, f64[5,100]{1,0}, f64[10]{0}, f64[100,10]{1,0}, f64[50]{0}, /*index=35*/f64[50,5]{1,0}, f64[50,5,5]{2,1,0}, f64[50,5,5]{2,1,0}, f64[50,5]{1,0}, f64[50,5]{1,0}, /*index=40*/f64[50,5,5]{2,1,0}, f64[50,100,5]{2,1,0}, f64[50,100,5]{2,1,0}, f64[50,100,5]{2,1,0}, f64[50,100,5]{2,1,0}, /*index=45*/f64[50,100,100]{2,1,0}, f64[50,100,5,100]{3,2,1,0}, f64[50,100,10]{2,1,0}, f64[50,100,100,10]{3,2,1,0}, f64[50,100,5]{2,1,0}, /*index=50*/f64[50,100,5]{2,1,0}, f64[50,100,5]{2,1,0}, f64[50,100,5]{2,1,0}, f64[50,100,100]{2,1,0}, f64[50,100,5,100]{3,2,1,0}, /*index=55*/f64[50,100,10]{2,1,0}, f64[50,100,100,10]{3,2,1,0}, f64[50,100]{1,0}, f64[50,100]{1,0}, f64[50,100,5]{2,1,0}, /*index=60*/u32[50,2]{1,0}, f64[1,1,5]{2,1,0}, f64[5]{0}, f64[5,5]{1,0}, f64[100]{0}, /*index=65*/f64[100]{0}, f64[100,5]{1,0}, s32[], s32[], f64[]) %while.55), index=55, metadata={op_name="jit(step)/jit(main)/while[cond_nconsts=0 body_nconsts=15]" source_file="/home/mathis/repos/backward_ica/src/training.py" source_line=413}
  %fusion.614 = f64[100,10]{1,0} fusion(f64[50,100,10]{2,1,0} %get-tuple-element.12912), kind=kLoop, calls=%fused_computation.614, metadata={op_name="jit(step)/jit(main)/squeeze[dimensions=(0,)]" source_file="/home/mathis/repos/backward_ica/src/utils/misc.py" source_line=421}
  %get-tuple-element.12913 = f64[50,100,100,10]{3,2,1,0} get-tuple-element((s64[], f64[5]{0}, f64[5,5]{1,0}, f64[100]{0}, f64[100]{0}, /*index=5*/f64[100,5]{1,0}, f64[5]{0}, f64[5]{0}, f64[5]{0}, f64[5]{0}, /*index=10*/f64[100]{0}, f64[5,100]{1,0}, f64[10]{0}, f64[100,10]{1,0}, s32[], /*index=15*/pred[], s32[], s32[], f64[5]{0}, f64[5]{0}, /*index=20*/f64[5]{0}, f64[5]{0}, f64[100]{0}, f64[5,100]{1,0}, f64[10]{0}, /*index=25*/f64[100,10]{1,0}, f64[5]{0}, f64[5]{0}, f64[5]{0}, f64[5]{0}, /*index=30*/f64[100]{0}, f64[5,100]{1,0}, f64[10]{0}, f64[100,10]{1,0}, f64[50]{0}, /*index=35*/f64[50,5]{1,0}, f64[50,5,5]{2,1,0}, f64[50,5,5]{2,1,0}, f64[50,5]{1,0}, f64[50,5]{1,0}, /*index=40*/f64[50,5,5]{2,1,0}, f64[50,100,5]{2,1,0}, f64[50,100,5]{2,1,0}, f64[50,100,5]{2,1,0}, f64[50,100,5]{2,1,0}, /*index=45*/f64[50,100,100]{2,1,0}, f64[50,100,5,100]{3,2,1,0}, f64[50,100,10]{2,1,0}, f64[50,100,100,10]{3,2,1,0}, f64[50,100,5]{2,1,0}, /*index=50*/f64[50,100,5]{2,1,0}, f64[50,100,5]{2,1,0}, f64[50,100,5]{2,1,0}, f64[50,100,100]{2,1,0}, f64[50,100,5,100]{3,2,1,0}, /*index=55*/f64[50,100,10]{2,1,0}, f64[50,100,100,10]{3,2,1,0}, f64[50,100]{1,0}, f64[50,100]{1,0}, f64[50,100,5]{2,1,0}, /*index=60*/u32[50,2]{1,0}, f64[1,1,5]{2,1,0}, f64[5]{0}, f64[5,5]{1,0}, f64[100]{0}, /*index=65*/f64[100]{0}, f64[100,5]{1,0}, s32[], s32[], f64[]) %while.55), index=56, metadata={op_name="jit(step)/jit(main)/while[cond_nconsts=0 body_nconsts=15]" source_file="/home/mathis/repos/backward_ica/src/training.py" source_line=413}
  %call.13 = f64[100,100,10]{2,1,0} call(f64[50,100,100,10]{3,2,1,0} %get-tuple-element.12913), to_apply=%parallel_fusion.613
  %get-tuple-element.12914 = f64[50,100]{1,0} get-tuple-element((s64[], f64[5]{0}, f64[5,5]{1,0}, f64[100]{0}, f64[100]{0}, /*index=5*/f64[100,5]{1,0}, f64[5]{0}, f64[5]{0}, f64[5]{0}, f64[5]{0}, /*index=10*/f64[100]{0}, f64[5,100]{1,0}, f64[10]{0}, f64[100,10]{1,0}, s32[], /*index=15*/pred[], s32[], s32[], f64[5]{0}, f64[5]{0}, /*index=20*/f64[5]{0}, f64[5]{0}, f64[100]{0}, f64[5,100]{1,0}, f64[10]{0}, /*index=25*/f64[100,10]{1,0}, f64[5]{0}, f64[5]{0}, f64[5]{0}, f64[5]{0}, /*index=30*/f64[100]{0}, f64[5,100]{1,0}, f64[10]{0}, f64[100,10]{1,0}, f64[50]{0}, /*index=35*/f64[50,5]{1,0}, f64[50,5,5]{2,1,0}, f64[50,5,5]{2,1,0}, f64[50,5]{1,0}, f64[50,5]{1,0}, /*index=40*/f64[50,5,5]{2,1,0}, f64[50,100,5]{2,1,0}, f64[50,100,5]{2,1,0}, f64[50,100,5]{2,1,0}, f64[50,100,5]{2,1,0}, /*index=45*/f64[50,100,100]{2,1,0}, f64[50,100,5,100]{3,2,1,0}, f64[50,100,10]{2,1,0}, f64[50,100,100,10]{3,2,1,0}, f64[50,100,5]{2,1,0}, /*index=50*/f64[50,100,5]{2,1,0}, f64[50,100,5]{2,1,0}, f64[50,100,5]{2,1,0}, f64[50,100,100]{2,1,0}, f64[50,100,5,100]{3,2,1,0}, /*index=55*/f64[50,100,10]{2,1,0}, f64[50,100,100,10]{3,2,1,0}, f64[50,100]{1,0}, f64[50,100]{1,0}, f64[50,100,5]{2,1,0}, /*index=60*/u32[50,2]{1,0}, f64[1,1,5]{2,1,0}, f64[5]{0}, f64[5,5]{1,0}, f64[100]{0}, /*index=65*/f64[100]{0}, f64[100,5]{1,0}, s32[], s32[], f64[]) %while.55), index=57, metadata={op_name="jit(step)/jit(main)/while[cond_nconsts=0 body_nconsts=15]" source_file="/home/mathis/repos/backward_ica/src/training.py" source_line=413}
  %fusion.612 = f64[100]{0} fusion(f64[50,100]{1,0} %get-tuple-element.12914), kind=kLoop, calls=%fused_computation.612, metadata={op_name="jit(step)/jit(main)/squeeze[dimensions=(0,)]" source_file="/home/mathis/repos/backward_ica/src/utils/misc.py" source_line=421}
  %get-tuple-element.12915 = f64[50,100]{1,0} get-tuple-element((s64[], f64[5]{0}, f64[5,5]{1,0}, f64[100]{0}, f64[100]{0}, /*index=5*/f64[100,5]{1,0}, f64[5]{0}, f64[5]{0}, f64[5]{0}, f64[5]{0}, /*index=10*/f64[100]{0}, f64[5,100]{1,0}, f64[10]{0}, f64[100,10]{1,0}, s32[], /*index=15*/pred[], s32[], s32[], f64[5]{0}, f64[5]{0}, /*index=20*/f64[5]{0}, f64[5]{0}, f64[100]{0}, f64[5,100]{1,0}, f64[10]{0}, /*index=25*/f64[100,10]{1,0}, f64[5]{0}, f64[5]{0}, f64[5]{0}, f64[5]{0}, /*index=30*/f64[100]{0}, f64[5,100]{1,0}, f64[10]{0}, f64[100,10]{1,0}, f64[50]{0}, /*index=35*/f64[50,5]{1,0}, f64[50,5,5]{2,1,0}, f64[50,5,5]{2,1,0}, f64[50,5]{1,0}, f64[50,5]{1,0}, /*index=40*/f64[50,5,5]{2,1,0}, f64[50,100,5]{2,1,0}, f64[50,100,5]{2,1,0}, f64[50,100,5]{2,1,0}, f64[50,100,5]{2,1,0}, /*index=45*/f64[50,100,100]{2,1,0}, f64[50,100,5,100]{3,2,1,0}, f64[50,100,10]{2,1,0}, f64[50,100,100,10]{3,2,1,0}, f64[50,100,5]{2,1,0}, /*index=50*/f64[50,100,5]{2,1,0}, f64[50,100,5]{2,1,0}, f64[50,100,5]{2,1,0}, f64[50,100,100]{2,1,0}, f64[50,100,5,100]{3,2,1,0}, /*index=55*/f64[50,100,10]{2,1,0}, f64[50,100,100,10]{3,2,1,0}, f64[50,100]{1,0}, f64[50,100]{1,0}, f64[50,100,5]{2,1,0}, /*index=60*/u32[50,2]{1,0}, f64[1,1,5]{2,1,0}, f64[5]{0}, f64[5,5]{1,0}, f64[100]{0}, /*index=65*/f64[100]{0}, f64[100,5]{1,0}, s32[], s32[], f64[]) %while.55), index=58, metadata={op_name="jit(step)/jit(main)/while[cond_nconsts=0 body_nconsts=15]" source_file="/home/mathis/repos/backward_ica/src/training.py" source_line=413}
  %fusion.611 = f64[100]{0} fusion(f64[50,100]{1,0} %get-tuple-element.12915), kind=kLoop, calls=%fused_computation.611, metadata={op_name="jit(step)/jit(main)/squeeze[dimensions=(0,)]" source_file="/home/mathis/repos/backward_ica/src/utils/misc.py" source_line=421}
  %get-tuple-element.12916 = f64[50,100,5]{2,1,0} get-tuple-element((s64[], f64[5]{0}, f64[5,5]{1,0}, f64[100]{0}, f64[100]{0}, /*index=5*/f64[100,5]{1,0}, f64[5]{0}, f64[5]{0}, f64[5]{0}, f64[5]{0}, /*index=10*/f64[100]{0}, f64[5,100]{1,0}, f64[10]{0}, f64[100,10]{1,0}, s32[], /*index=15*/pred[], s32[], s32[], f64[5]{0}, f64[5]{0}, /*index=20*/f64[5]{0}, f64[5]{0}, f64[100]{0}, f64[5,100]{1,0}, f64[10]{0}, /*index=25*/f64[100,10]{1,0}, f64[5]{0}, f64[5]{0}, f64[5]{0}, f64[5]{0}, /*index=30*/f64[100]{0}, f64[5,100]{1,0}, f64[10]{0}, f64[100,10]{1,0}, f64[50]{0}, /*index=35*/f64[50,5]{1,0}, f64[50,5,5]{2,1,0}, f64[50,5,5]{2,1,0}, f64[50,5]{1,0}, f64[50,5]{1,0}, /*index=40*/f64[50,5,5]{2,1,0}, f64[50,100,5]{2,1,0}, f64[50,100,5]{2,1,0}, f64[50,100,5]{2,1,0}, f64[50,100,5]{2,1,0}, /*index=45*/f64[50,100,100]{2,1,0}, f64[50,100,5,100]{3,2,1,0}, f64[50,100,10]{2,1,0}, f64[50,100,100,10]{3,2,1,0}, f64[50,100,5]{2,1,0}, /*index=50*/f64[50,100,5]{2,1,0}, f64[50,100,5]{2,1,0}, f64[50,100,5]{2,1,0}, f64[50,100,100]{2,1,0}, f64[50,100,5,100]{3,2,1,0}, /*index=55*/f64[50,100,10]{2,1,0}, f64[50,100,100,10]{3,2,1,0}, f64[50,100]{1,0}, f64[50,100]{1,0}, f64[50,100,5]{2,1,0}, /*index=60*/u32[50,2]{1,0}, f64[1,1,5]{2,1,0}, f64[5]{0}, f64[5,5]{1,0}, f64[100]{0}, /*index=65*/f64[100]{0}, f64[100,5]{1,0}, s32[], s32[], f64[]) %while.55), index=59, metadata={op_name="jit(step)/jit(main)/while[cond_nconsts=0 body_nconsts=15]" source_file="/home/mathis/repos/backward_ica/src/training.py" source_line=413}
  %fusion.610 = f64[100,5]{1,0} fusion(f64[50,100,5]{2,1,0} %get-tuple-element.12916), kind=kLoop, calls=%fused_computation.610, metadata={op_name="jit(step)/jit(main)/squeeze[dimensions=(0,)]" source_file="/home/mathis/repos/backward_ica/src/utils/misc.py" source_line=421}
  %get-tuple-element.12891 = f64[50]{0} get-tuple-element((s64[], f64[5]{0}, f64[5,5]{1,0}, f64[100]{0}, f64[100]{0}, /*index=5*/f64[100,5]{1,0}, f64[5]{0}, f64[5]{0}, f64[5]{0}, f64[5]{0}, /*index=10*/f64[100]{0}, f64[5,100]{1,0}, f64[10]{0}, f64[100,10]{1,0}, s32[], /*index=15*/pred[], s32[], s32[], f64[5]{0}, f64[5]{0}, /*index=20*/f64[5]{0}, f64[5]{0}, f64[100]{0}, f64[5,100]{1,0}, f64[10]{0}, /*index=25*/f64[100,10]{1,0}, f64[5]{0}, f64[5]{0}, f64[5]{0}, f64[5]{0}, /*index=30*/f64[100]{0}, f64[5,100]{1,0}, f64[10]{0}, f64[100,10]{1,0}, f64[50]{0}, /*index=35*/f64[50,5]{1,0}, f64[50,5,5]{2,1,0}, f64[50,5,5]{2,1,0}, f64[50,5]{1,0}, f64[50,5]{1,0}, /*index=40*/f64[50,5,5]{2,1,0}, f64[50,100,5]{2,1,0}, f64[50,100,5]{2,1,0}, f64[50,100,5]{2,1,0}, f64[50,100,5]{2,1,0}, /*index=45*/f64[50,100,100]{2,1,0}, f64[50,100,5,100]{3,2,1,0}, f64[50,100,10]{2,1,0}, f64[50,100,100,10]{3,2,1,0}, f64[50,100,5]{2,1,0}, /*index=50*/f64[50,100,5]{2,1,0}, f64[50,100,5]{2,1,0}, f64[50,100,5]{2,1,0}, f64[50,100,100]{2,1,0}, f64[50,100,5,100]{3,2,1,0}, /*index=55*/f64[50,100,10]{2,1,0}, f64[50,100,100,10]{3,2,1,0}, f64[50,100]{1,0}, f64[50,100]{1,0}, f64[50,100,5]{2,1,0}, /*index=60*/u32[50,2]{1,0}, f64[1,1,5]{2,1,0}, f64[5]{0}, f64[5,5]{1,0}, f64[100]{0}, /*index=65*/f64[100]{0}, f64[100,5]{1,0}, s32[], s32[], f64[]) %while.55), index=34, metadata={op_name="jit(step)/jit(main)/while[cond_nconsts=0 body_nconsts=15]" source_file="/home/mathis/repos/backward_ica/src/training.py" source_line=413}
  %constant.2536 = s32[] constant(1)
  %constant.2537 = s32[] constant(5)
  %constant.2546 = f64[] constant(1)
  %get-tuple-element.12893 = f64[50,5,5]{2,1,0} get-tuple-element((s64[], f64[5]{0}, f64[5,5]{1,0}, f64[100]{0}, f64[100]{0}, /*index=5*/f64[100,5]{1,0}, f64[5]{0}, f64[5]{0}, f64[5]{0}, f64[5]{0}, /*index=10*/f64[100]{0}, f64[5,100]{1,0}, f64[10]{0}, f64[100,10]{1,0}, s32[], /*index=15*/pred[], s32[], s32[], f64[5]{0}, f64[5]{0}, /*index=20*/f64[5]{0}, f64[5]{0}, f64[100]{0}, f64[5,100]{1,0}, f64[10]{0}, /*index=25*/f64[100,10]{1,0}, f64[5]{0}, f64[5]{0}, f64[5]{0}, f64[5]{0}, /*index=30*/f64[100]{0}, f64[5,100]{1,0}, f64[10]{0}, f64[100,10]{1,0}, f64[50]{0}, /*index=35*/f64[50,5]{1,0}, f64[50,5,5]{2,1,0}, f64[50,5,5]{2,1,0}, f64[50,5]{1,0}, f64[50,5]{1,0}, /*index=40*/f64[50,5,5]{2,1,0}, f64[50,100,5]{2,1,0}, f64[50,100,5]{2,1,0}, f64[50,100,5]{2,1,0}, f64[50,100,5]{2,1,0}, /*index=45*/f64[50,100,100]{2,1,0}, f64[50,100,5,100]{3,2,1,0}, f64[50,100,10]{2,1,0}, f64[50,100,100,10]{3,2,1,0}, f64[50,100,5]{2,1,0}, /*index=50*/f64[50,100,5]{2,1,0}, f64[50,100,5]{2,1,0}, f64[50,100,5]{2,1,0}, f64[50,100,100]{2,1,0}, f64[50,100,5,100]{3,2,1,0}, /*index=55*/f64[50,100,10]{2,1,0}, f64[50,100,100,10]{3,2,1,0}, f64[50,100]{1,0}, f64[50,100]{1,0}, f64[50,100,5]{2,1,0}, /*index=60*/u32[50,2]{1,0}, f64[1,1,5]{2,1,0}, f64[5]{0}, f64[5,5]{1,0}, f64[100]{0}, /*index=65*/f64[100]{0}, f64[100,5]{1,0}, s32[], s32[], f64[]) %while.55), index=36, metadata={op_name="jit(step)/jit(main)/while[cond_nconsts=0 body_nconsts=15]" source_file="/home/mathis/repos/backward_ica/src/training.py" source_line=413}
  %fusion.609 = f64[5,5]{0,1} fusion(f64[50,5,5]{2,1,0} %get-tuple-element.12893), kind=kLoop, calls=%fused_computation.609, metadata={op_name="jit(step)/jit(main)/jit(cholesky)/div" source_file="/home/mathis/repos/backward_ica/src/utils/misc.py" source_line=566}
  %custom-call.246 = (f64[5,5]{0,1}, s32[]) custom-call(s32[] %constant.2536, s32[] %constant.2536, s32[] %constant.2537, f64[5,5]{0,1} %fusion.609), custom_call_target="lapack_dpotrf", operand_layout_constraints={s32[], s32[], s32[], f64[5,5]{0,1}}, output_to_operand_aliasing={{0}: (3, {})}, api_version=API_VERSION_STATUS_RETURNING, metadata={op_name="jit(step)/jit(main)/jit(cholesky)/cholesky" source_file="/home/mathis/repos/backward_ica/src/utils/misc.py" source_line=566}
  %get-tuple-element.214 = f64[5,5]{0,1} get-tuple-element((f64[5,5]{0,1}, s32[]) %custom-call.246), index=0, metadata={op_name="jit(step)/jit(main)/jit(cholesky)/cholesky" source_file="/home/mathis/repos/backward_ica/src/utils/misc.py" source_line=566}
  %get-tuple-element.213 = s32[] get-tuple-element((f64[5,5]{0,1}, s32[]) %custom-call.246), index=1, metadata={op_name="jit(step)/jit(main)/jit(cholesky)/cholesky" source_file="/home/mathis/repos/backward_ica/src/utils/misc.py" source_line=566}
  %fusion.608 = f64[5,5]{0,1} fusion(f64[5,5]{0,1} %get-tuple-element.214, s32[] %get-tuple-element.213), kind=kLoop, calls=%fused_computation.608, metadata={op_name="jit(step)/jit(main)/jit(cholesky)/jit(tril)/select_n" source_file="/home/mathis/repos/backward_ica/src/utils/misc.py" source_line=566}
  %fusion.606 = f64[5,5]{0,1} fusion(), kind=kLoop, calls=%fused_computation.606, metadata={op_name="jit(step)/jit(main)/convert_element_type[new_dtype=float64 weak_type=False]" source_file="/home/mathis/repos/backward_ica/src/utils/misc.py" source_line=571}
  %custom-call.247 = f64[5,5]{0,1} custom-call(s32[] %constant.2536, s32[] %constant.2536, s32[] %constant.48, s32[] %constant.48, s32[] %constant.2537, /*index=5*/s32[] %constant.2537, s32[] %constant.2536, f64[] %constant.2546, f64[5,5]{0,1} %fusion.608, f64[5,5]{0,1} %fusion.606), custom_call_target="blas_dtrsm", operand_layout_constraints={s32[], s32[], s32[], s32[], s32[], s32[], s32[], f64[], f64[5,5]{0,1}, f64[5,5]{0,1}}, output_to_operand_aliasing={{}: (9, {})}, api_version=API_VERSION_STATUS_RETURNING, metadata={op_name="jit(step)/jit(main)/jit(_cho_solve)/triangular_solve[left_side=True lower=True transpose_a=False conjugate_a=False unit_diagonal=False]" source_file="/home/mathis/repos/backward_ica/src/utils/misc.py" source_line=573}
  %fusion.605 = f64[5,5]{0,1} fusion(f64[5,5]{0,1} %custom-call.247), kind=kLoop, calls=%fused_computation.605, metadata={op_name="jit(step)/jit(main)/jit(_cho_solve)/triangular_solve[left_side=True lower=True transpose_a=False conjugate_a=False unit_diagonal=False]" source_file="/home/mathis/repos/backward_ica/src/utils/misc.py" source_line=573}
  %custom-call.248 = f64[5,5]{0,1} custom-call(s32[] %constant.2536, s32[] %constant.2536, s32[] %constant.2536, s32[] %constant.48, s32[] %constant.2537, /*index=5*/s32[] %constant.2537, s32[] %constant.2536, f64[] %constant.2546, f64[5,5]{0,1} %fusion.608, f64[5,5]{0,1} %fusion.605), custom_call_target="blas_dtrsm", operand_layout_constraints={s32[], s32[], s32[], s32[], s32[], s32[], s32[], f64[], f64[5,5]{0,1}, f64[5,5]{0,1}}, output_to_operand_aliasing={{}: (9, {})}, api_version=API_VERSION_STATUS_RETURNING, metadata={op_name="jit(step)/jit(main)/jit(_cho_solve)/triangular_solve[left_side=True lower=True transpose_a=True conjugate_a=False unit_diagonal=False]" source_file="/home/mathis/repos/backward_ica/src/utils/misc.py" source_line=573}
  %get-tuple-element.12892 = f64[50,5]{1,0} get-tuple-element((s64[], f64[5]{0}, f64[5,5]{1,0}, f64[100]{0}, f64[100]{0}, /*index=5*/f64[100,5]{1,0}, f64[5]{0}, f64[5]{0}, f64[5]{0}, f64[5]{0}, /*index=10*/f64[100]{0}, f64[5,100]{1,0}, f64[10]{0}, f64[100,10]{1,0}, s32[], /*index=15*/pred[], s32[], s32[], f64[5]{0}, f64[5]{0}, /*index=20*/f64[5]{0}, f64[5]{0}, f64[100]{0}, f64[5,100]{1,0}, f64[10]{0}, /*index=25*/f64[100,10]{1,0}, f64[5]{0}, f64[5]{0}, f64[5]{0}, f64[5]{0}, /*index=30*/f64[100]{0}, f64[5,100]{1,0}, f64[10]{0}, f64[100,10]{1,0}, f64[50]{0}, /*index=35*/f64[50,5]{1,0}, f64[50,5,5]{2,1,0}, f64[50,5,5]{2,1,0}, f64[50,5]{1,0}, f64[50,5]{1,0}, /*index=40*/f64[50,5,5]{2,1,0}, f64[50,100,5]{2,1,0}, f64[50,100,5]{2,1,0}, f64[50,100,5]{2,1,0}, f64[50,100,5]{2,1,0}, /*index=45*/f64[50,100,100]{2,1,0}, f64[50,100,5,100]{3,2,1,0}, f64[50,100,10]{2,1,0}, f64[50,100,100,10]{3,2,1,0}, f64[50,100,5]{2,1,0}, /*index=50*/f64[50,100,5]{2,1,0}, f64[50,100,5]{2,1,0}, f64[50,100,5]{2,1,0}, f64[50,100,100]{2,1,0}, f64[50,100,5,100]{3,2,1,0}, /*index=55*/f64[50,100,10]{2,1,0}, f64[50,100,100,10]{3,2,1,0}, f64[50,100]{1,0}, f64[50,100]{1,0}, f64[50,100,5]{2,1,0}, /*index=60*/u32[50,2]{1,0}, f64[1,1,5]{2,1,0}, f64[5]{0}, f64[5,5]{1,0}, f64[100]{0}, /*index=65*/f64[100]{0}, f64[100,5]{1,0}, s32[], s32[], f64[]) %while.55), index=35, metadata={op_name="jit(step)/jit(main)/while[cond_nconsts=0 body_nconsts=15]" source_file="/home/mathis/repos/backward_ica/src/training.py" source_line=413}
  %fusion.604 = f64[5]{0} fusion(f64[5,5]{0,1} %custom-call.248, f64[50,5]{1,0} %get-tuple-element.12892), kind=kLoop, calls=%fused_computation.604, metadata={op_name="jit(step)/jit(main)/dot_general[dimension_numbers=(((1,), (0,)), ((), ())) precision=None preferred_element_type=None]" source_file="/home/mathis/repos/backward_ica/src/stats/distributions.py" source_line=142}
  %get-tuple-element.12894 = f64[50,5,5]{2,1,0} get-tuple-element((s64[], f64[5]{0}, f64[5,5]{1,0}, f64[100]{0}, f64[100]{0}, /*index=5*/f64[100,5]{1,0}, f64[5]{0}, f64[5]{0}, f64[5]{0}, f64[5]{0}, /*index=10*/f64[100]{0}, f64[5,100]{1,0}, f64[10]{0}, f64[100,10]{1,0}, s32[], /*index=15*/pred[], s32[], s32[], f64[5]{0}, f64[5]{0}, /*index=20*/f64[5]{0}, f64[5]{0}, f64[100]{0}, f64[5,100]{1,0}, f64[10]{0}, /*index=25*/f64[100,10]{1,0}, f64[5]{0}, f64[5]{0}, f64[5]{0}, f64[5]{0}, /*index=30*/f64[100]{0}, f64[5,100]{1,0}, f64[10]{0}, f64[100,10]{1,0}, f64[50]{0}, /*index=35*/f64[50,5]{1,0}, f64[50,5,5]{2,1,0}, f64[50,5,5]{2,1,0}, f64[50,5]{1,0}, f64[50,5]{1,0}, /*index=40*/f64[50,5,5]{2,1,0}, f64[50,100,5]{2,1,0}, f64[50,100,5]{2,1,0}, f64[50,100,5]{2,1,0}, f64[50,100,5]{2,1,0}, /*index=45*/f64[50,100,100]{2,1,0}, f64[50,100,5,100]{3,2,1,0}, f64[50,100,10]{2,1,0}, f64[50,100,100,10]{3,2,1,0}, f64[50,100,5]{2,1,0}, /*index=50*/f64[50,100,5]{2,1,0}, f64[50,100,5]{2,1,0}, f64[50,100,5]{2,1,0}, f64[50,100,100]{2,1,0}, f64[50,100,5,100]{3,2,1,0}, /*index=55*/f64[50,100,10]{2,1,0}, f64[50,100,100,10]{3,2,1,0}, f64[50,100]{1,0}, f64[50,100]{1,0}, f64[50,100,5]{2,1,0}, /*index=60*/u32[50,2]{1,0}, f64[1,1,5]{2,1,0}, f64[5]{0}, f64[5,5]{1,0}, f64[100]{0}, /*index=65*/f64[100]{0}, f64[100,5]{1,0}, s32[], s32[], f64[]) %while.55), index=37, metadata={op_name="jit(step)/jit(main)/while[cond_nconsts=0 body_nconsts=15]" source_file="/home/mathis/repos/backward_ica/src/training.py" source_line=413}
  %fusion.603 = f64[5]{0} fusion(f64[5]{0} %fusion.604, f64[50,5,5]{2,1,0} %get-tuple-element.12894), kind=kLoop, calls=%fused_computation.603, metadata={op_name="jit(step)/jit(main)/dot_general[dimension_numbers=(((1,), (0,)), ((), ())) precision=None preferred_element_type=None]" source_file="/home/mathis/repos/backward_ica/src/stats/__init__.py" source_line=271}
  %get-tuple-element.12895 = f64[50,5]{1,0} get-tuple-element((s64[], f64[5]{0}, f64[5,5]{1,0}, f64[100]{0}, f64[100]{0}, /*index=5*/f64[100,5]{1,0}, f64[5]{0}, f64[5]{0}, f64[5]{0}, f64[5]{0}, /*index=10*/f64[100]{0}, f64[5,100]{1,0}, f64[10]{0}, f64[100,10]{1,0}, s32[], /*index=15*/pred[], s32[], s32[], f64[5]{0}, f64[5]{0}, /*index=20*/f64[5]{0}, f64[5]{0}, f64[100]{0}, f64[5,100]{1,0}, f64[10]{0}, /*index=25*/f64[100,10]{1,0}, f64[5]{0}, f64[5]{0}, f64[5]{0}, f64[5]{0}, /*index=30*/f64[100]{0}, f64[5,100]{1,0}, f64[10]{0}, f64[100,10]{1,0}, f64[50]{0}, /*index=35*/f64[50,5]{1,0}, f64[50,5,5]{2,1,0}, f64[50,5,5]{2,1,0}, f64[50,5]{1,0}, f64[50,5]{1,0}, /*index=40*/f64[50,5,5]{2,1,0}, f64[50,100,5]{2,1,0}, f64[50,100,5]{2,1,0}, f64[50,100,5]{2,1,0}, f64[50,100,5]{2,1,0}, /*index=45*/f64[50,100,100]{2,1,0}, f64[50,100,5,100]{3,2,1,0}, f64[50,100,10]{2,1,0}, f64[50,100,100,10]{3,2,1,0}, f64[50,100,5]{2,1,0}, /*index=50*/f64[50,100,5]{2,1,0}, f64[50,100,5]{2,1,0}, f64[50,100,5]{2,1,0}, f64[50,100,100]{2,1,0}, f64[50,100,5,100]{3,2,1,0}, /*index=55*/f64[50,100,10]{2,1,0}, f64[50,100,100,10]{3,2,1,0}, f64[50,100]{1,0}, f64[50,100]{1,0}, f64[50,100,5]{2,1,0}, /*index=60*/u32[50,2]{1,0}, f64[1,1,5]{2,1,0}, f64[5]{0}, f64[5,5]{1,0}, f64[100]{0}, /*index=65*/f64[100]{0}, f64[100,5]{1,0}, s32[], s32[], f64[]) %while.55), index=38, metadata={op_name="jit(step)/jit(main)/while[cond_nconsts=0 body_nconsts=15]" source_file="/home/mathis/repos/backward_ica/src/training.py" source_line=413}
  %fusion.602 = f64[5]{0} fusion(f64[5]{0} %fusion.603, f64[50,5]{1,0} %get-tuple-element.12895), kind=kLoop, calls=%fused_computation.602, metadata={op_name="jit(step)/jit(main)/add" source_file="/home/mathis/repos/backward_ica/src/stats/__init__.py" source_line=271}
  ROOT %tuple.13079 = (f64[5]{0}, f64[5]{0}, f64[5]{0}, f64[5]{0}, f64[100]{0}, /*index=5*/f64[5,100]{1,0}, f64[10]{0}, f64[100,10]{1,0}, s32[], pred[], /*index=10*/s32[], s32[], f64[5]{0}, f64[5]{0}, f64[5]{0}, /*index=15*/f64[5]{0}, f64[100]{0}, f64[5,100]{1,0}, f64[10]{0}, f64[100,10]{1,0}, /*index=20*/f64[5]{0}, f64[5]{0}, f64[5]{0}, f64[5]{0}, f64[100]{0}, /*index=25*/f64[5,100]{1,0}, f64[10]{0}, f64[100,10]{1,0}, f64[5]{0}, f64[5,5]{1,0}, /*index=30*/f64[100,5]{1,0}, f64[100,5]{1,0}, f64[100,5]{1,0}, f64[100,5]{1,0}, f64[100,100]{1,0}, /*index=35*/f64[100,5,100]{2,1,0}, f64[100,10]{1,0}, f64[100,100,10]{2,1,0}, f64[100,5]{1,0}, f64[100,5]{1,0}, /*index=40*/f64[100,5]{1,0}, f64[100,5]{1,0}, f64[100,100]{1,0}, f64[100,5,100]{2,1,0}, f64[100,10]{1,0}, /*index=45*/f64[100,100,10]{2,1,0}, f64[100]{0}, f64[100]{0}, f64[100,5]{1,0}, f64[50]{0}, /*index=50*/f64[5]{0}, f64[5]{0}) tuple(f64[5]{0} %get-tuple-element.12863, f64[5]{0} %get-tuple-element.12864, f64[5]{0} %get-tuple-element.12865, f64[5]{0} %get-tuple-element.12866, f64[100]{0} %get-tuple-element.12867, /*index=5*/f64[5,100]{1,0} %get-tuple-element.12868, f64[10]{0} %get-tuple-element.12869, f64[100,10]{1,0} %get-tuple-element.12870, s32[] %get-tuple-element.12871, pred[] %get-tuple-element.12872, /*index=10*/s32[] %get-tuple-element.12873, s32[] %get-tuple-element.12874, f64[5]{0} %get-tuple-element.12875, f64[5]{0} %get-tuple-element.12876, f64[5]{0} %get-tuple-element.12877, /*index=15*/f64[5]{0} %get-tuple-element.12878, f64[100]{0} %get-tuple-element.12879, f64[5,100]{1,0} %get-tuple-element.12880, f64[10]{0} %get-tuple-element.12881, f64[100,10]{1,0} %get-tuple-element.12882, /*index=20*/f64[5]{0} %get-tuple-element.12883, f64[5]{0} %get-tuple-element.12884, f64[5]{0} %get-tuple-element.12885, f64[5]{0} %get-tuple-element.12886, f64[100]{0} %get-tuple-element.12887, /*index=25*/f64[5,100]{1,0} %get-tuple-element.12888, f64[10]{0} %get-tuple-element.12889, f64[100,10]{1,0} %get-tuple-element.12890, f64[5]{0} %fusion.630, f64[5,5]{1,0} %fusion.629, /*index=30*/f64[100,5]{1,0} %fusion.628, f64[100,5]{1,0} %fusion.627, f64[100,5]{1,0} %fusion.626, f64[100,5]{1,0} %fusion.625, f64[100,100]{1,0} %fusion.624, /*index=35*/f64[100,5,100]{2,1,0} %fusion.623, f64[100,10]{1,0} %fusion.622, f64[100,100,10]{2,1,0} %call.14, f64[100,5]{1,0} %fusion.620, f64[100,5]{1,0} %fusion.619, /*index=40*/f64[100,5]{1,0} %fusion.618, f64[100,5]{1,0} %fusion.617, f64[100,100]{1,0} %fusion.616, f64[100,5,100]{2,1,0} %fusion.615, f64[100,10]{1,0} %fusion.614, /*index=45*/f64[100,100,10]{2,1,0} %call.13, f64[100]{0} %fusion.612, f64[100]{0} %fusion.611, f64[100,5]{1,0} %fusion.610, f64[50]{0} %get-tuple-element.12891, /*index=50*/f64[5]{0} %fusion.602, f64[5]{0} %fusion.604)
}

