HloModule jit_f, entry_computation_layout={(f64[5]{0}, f64[5]{0}, f64[100]{0}, f64[5,100]{1,0}, f64[10]{0}, /*index=5*/f64[100,10]{1,0}, f64[5]{0}, f64[5]{0}, f64[5,5]{1,0}, u32[2]{0})->(f64[], f64[], f64[5]{0}, f64[5]{0}, f64[5]{0}, /*index=5*/f64[5]{0}, f64[100]{0}, f64[5,100]{1,0}, f64[10]{0}, f64[100,10]{1,0})}, allow_spmd_sharding_propagation_to_output={true,true,true,true,true,true,true,true,true,true}

%region_7.1889 (Arg_0.1890: f64[], Arg_1.1891: f64[]) -> f64[] {
  %Arg_0.1890 = f64[] parameter(0)
  %Arg_1.1891 = f64[] parameter(1)
  ROOT %add.1892 = f64[] add(f64[] %Arg_0.1890, f64[] %Arg_1.1891), metadata={op_name="jit(f)/jit(main)/transpose(jvp(jit(_diag)))/jit(_where)/reduce_sum[axes=(0,)]" source_file="/home/mathis/repos/backward_ica/src/variational/inference_nets.py" source_line=107}
}

%region_15.3367 (Arg_0.3368: f64[], Arg_1.3369: f64[]) -> f64[] {
  %Arg_0.3368 = f64[] parameter(0)
  %Arg_1.3369 = f64[] parameter(1)
  ROOT %add.3370 = f64[] add(f64[] %Arg_0.3368, f64[] %Arg_1.3369), metadata={op_name="jit(f)/jit(main)/transpose(jvp(jit(_diag)))/jit(_where)/reduce_sum[axes=(0,)]" source_file="/home/mathis/repos/backward_ica/src/variational/inference_nets.py" source_line=107}
}

%region_6.1867 (Arg_0.1868: f64[], Arg_1.1869: f64[]) -> f64[] {
  %Arg_0.1868 = f64[] parameter(0)
  %Arg_1.1869 = f64[] parameter(1)
  ROOT %add.1870 = f64[] add(f64[] %Arg_0.1868, f64[] %Arg_1.1869), metadata={op_name="jit(f)/jit(main)/transpose(jvp(jit(_diag)))/jit(_where)/reduce_sum[axes=(0,)]" source_file="/home/mathis/repos/backward_ica/src/variational/inference_nets.py" source_line=107}
}

%region_14.3345 (Arg_0.3346: f64[], Arg_1.3347: f64[]) -> f64[] {
  %Arg_0.3346 = f64[] parameter(0)
  %Arg_1.3347 = f64[] parameter(1)
  ROOT %add.3348 = f64[] add(f64[] %Arg_0.3346, f64[] %Arg_1.3347), metadata={op_name="jit(f)/jit(main)/transpose(jvp(jit(_diag)))/jit(_where)/reduce_sum[axes=(0,)]" source_file="/home/mathis/repos/backward_ica/src/variational/inference_nets.py" source_line=107}
}

%region_8.1907 (Arg_0.1908: f64[], Arg_1.1909: f64[]) -> f64[] {
  %Arg_0.1908 = f64[] parameter(0)
  %Arg_1.1909 = f64[] parameter(1)
  ROOT %add.1910 = f64[] add(f64[] %Arg_0.1908, f64[] %Arg_1.1909), metadata={op_name="jit(f)/jit(main)/transpose(jvp(jit(_diag)))/jit(_where)/reduce_sum[axes=(0,)]" source_file="/home/mathis/repos/backward_ica/src/variational/inference_nets.py" source_line=107}
}

%region_16.3385 (Arg_0.3386: f64[], Arg_1.3387: f64[]) -> f64[] {
  %Arg_0.3386 = f64[] parameter(0)
  %Arg_1.3387 = f64[] parameter(1)
  ROOT %add.3388 = f64[] add(f64[] %Arg_0.3386, f64[] %Arg_1.3387), metadata={op_name="jit(f)/jit(main)/transpose(jvp(jit(_diag)))/jit(_where)/reduce_sum[axes=(0,)]" source_file="/home/mathis/repos/backward_ica/src/variational/inference_nets.py" source_line=107}
}

%and.reduce_sub_computation.1 (lhs.1: pred[], rhs.1: pred[]) -> pred[] {
  %lhs.1 = pred[] parameter(0)
  %rhs.1 = pred[] parameter(1)
  ROOT %and.2 = pred[] and(pred[] %lhs.1, pred[] %rhs.1)
}

%fused_computation (param_0: f64[5,5], param_1.3: f64[5], param_2.4: s32[], param_3.6: s32[2], param_4.8: s32[5,2]) -> f64[5,5] {
  %param_0 = f64[5,5]{1,0} parameter(0)
  %constant.1044 = s32[] constant(0)
  %broadcast.1357 = s32[2]{0} broadcast(s32[] %constant.1044), dimensions={}
  %param_3.6 = s32[2]{0} parameter(3)
  %compare.190 = pred[2]{0} compare(s32[2]{0} %broadcast.1357, s32[2]{0} %param_3.6), direction=LE
  %constant.1043 = s32[] constant(4)
  %broadcast.1356 = s32[2]{0} broadcast(s32[] %constant.1043), dimensions={}
  %compare.189 = pred[2]{0} compare(s32[2]{0} %broadcast.1356, s32[2]{0} %param_3.6), direction=GE
  %and.8 = pred[2]{0} and(pred[2]{0} %compare.190, pred[2]{0} %compare.189)
  %constant.1042 = pred[] constant(true)
  %reduce.17 = pred[] reduce(pred[2]{0} %and.8, pred[] %constant.1042), dimensions={0}, to_apply=%and.reduce_sub_computation.1
  %reshape.381 = pred[1,1]{1,0} reshape(pred[] %reduce.17)
  %param_4.8 = s32[5,2]{1,0} parameter(4)
  %param_2.4 = s32[] parameter(2)
  %dynamic-slice.12 = s32[1,2]{1,0} dynamic-slice(s32[5,2]{1,0} %param_4.8, s32[] %param_2.4, s32[] %constant.1044), dynamic_slice_sizes={1,2}
  %slice.75 = s32[1,1]{1,0} slice(s32[1,2]{1,0} %dynamic-slice.12), slice={[0:1], [0:1]}
  %reshape.380 = s32[] reshape(s32[1,1]{1,0} %slice.75)
  %reshape.382 = s32[2]{0} reshape(s32[1,2]{1,0} %dynamic-slice.12)
  %slice.74 = s32[1]{0} slice(s32[2]{0} %reshape.382), slice={[1:2]}
  %reshape.379 = s32[] reshape(s32[1]{0} %slice.74)
  %dynamic-slice.11 = f64[1,1]{1,0} dynamic-slice(f64[5,5]{1,0} %param_0, s32[] %reshape.380, s32[] %reshape.379), dynamic_slice_sizes={1,1}
  %param_1.3 = f64[5]{0} parameter(1)
  %dynamic-slice.10 = f64[1]{0} dynamic-slice(f64[5]{0} %param_1.3, s32[] %param_2.4), dynamic_slice_sizes={1}
  %reshape.378 = f64[1,1]{1,0} reshape(f64[1]{0} %dynamic-slice.10)
  %add.257 = f64[1,1]{1,0} add(f64[1,1]{1,0} %dynamic-slice.11, f64[1,1]{1,0} %reshape.378), metadata={op_name="/add" source_file="/home/mathis/repos/backward_ica/src/stats/distributions.py" source_line=211}
  %select.380 = f64[1,1]{1,0} select(pred[1,1]{1,0} %reshape.381, f64[1,1]{1,0} %add.257, f64[1,1]{1,0} %dynamic-slice.11)
  ROOT %dynamic-update-slice.3 = f64[5,5]{1,0} dynamic-update-slice(f64[5,5]{1,0} %param_0, f64[1,1]{1,0} %select.380, s32[] %reshape.380, s32[] %reshape.379)
}

%fused_computation.1 (param_0.3: s32[5,2], param_1.8: s32[]) -> s32[2] {
  %param_0.3 = s32[5,2]{1,0} parameter(0)
  %param_1.8 = s32[] parameter(1)
  %constant.1045 = s32[] constant(0)
  %dynamic-slice.13 = s32[1,2]{1,0} dynamic-slice(s32[5,2]{1,0} %param_0.3, s32[] %param_1.8, s32[] %constant.1045), dynamic_slice_sizes={1,2}
  %slice.77 = s32[1,1]{1,0} slice(s32[1,2]{1,0} %dynamic-slice.13), slice={[0:1], [0:1]}
  %reshape.384 = s32[1]{0} reshape(s32[1,1]{1,0} %slice.77)
  %reshape.383 = s32[2]{0} reshape(s32[1,2]{1,0} %dynamic-slice.13)
  %slice.76 = s32[1]{0} slice(s32[2]{0} %reshape.383), slice={[1:2]}
  ROOT %concatenate.7 = s32[2]{0} concatenate(s32[1]{0} %reshape.384, s32[1]{0} %slice.76), dimensions={0}
}

%while_body.1 (param.2: (s32[], f64[5,5], s32[5,2], f64[5])) -> (s32[], f64[5,5], s32[5,2], f64[5]) {
  %param.2 = (s32[], f64[5,5]{1,0}, s32[5,2]{1,0}, f64[5]{0}) parameter(0)
  %get-tuple-element.341 = s32[] get-tuple-element((s32[], f64[5,5]{1,0}, s32[5,2]{1,0}, f64[5]{0}) %param.2), index=0
  %copy.460 = s32[] copy(s32[] %get-tuple-element.341)
  %constant.870 = s32[] constant(1)
  %add.163 = s32[] add(s32[] %copy.460, s32[] %constant.870)
  %get-tuple-element.342 = f64[5,5]{1,0} get-tuple-element((s32[], f64[5,5]{1,0}, s32[5,2]{1,0}, f64[5]{0}) %param.2), index=1
  %get-tuple-element.348 = f64[5]{0} get-tuple-element((s32[], f64[5,5]{1,0}, s32[5,2]{1,0}, f64[5]{0}) %param.2), index=3
  %get-tuple-element.347 = s32[5,2]{1,0} get-tuple-element((s32[], f64[5,5]{1,0}, s32[5,2]{1,0}, f64[5]{0}) %param.2), index=2
  %fusion.1 = s32[2]{0} fusion(s32[5,2]{1,0} %get-tuple-element.347, s32[] %copy.460), kind=kLoop, calls=%fused_computation.1
  %fusion = f64[5,5]{1,0} fusion(f64[5,5]{1,0} %get-tuple-element.342, f64[5]{0} %get-tuple-element.348, s32[] %copy.460, s32[2]{0} %fusion.1, s32[5,2]{1,0} %get-tuple-element.347), kind=kLoop, calls=%fused_computation
  ROOT %tuple.93 = (s32[], f64[5,5]{1,0}, s32[5,2]{1,0}, f64[5]{0}) tuple(s32[] %add.163, f64[5,5]{1,0} %fusion, s32[5,2]{1,0} %get-tuple-element.347, f64[5]{0} %get-tuple-element.348)
}

%while_cond.1 (param.3: (s32[], f64[5,5], s32[5,2], f64[5])) -> pred[] {
  %param.3 = (s32[], f64[5,5]{1,0}, s32[5,2]{1,0}, f64[5]{0}) parameter(0)
  %get-tuple-element.74 = s32[] get-tuple-element((s32[], f64[5,5]{1,0}, s32[5,2]{1,0}, f64[5]{0}) %param.3), index=0
  %constant.886 = s32[] constant(5)
  ROOT %compare.177 = pred[] compare(s32[] %get-tuple-element.74, s32[] %constant.886), direction=LT
}

%fused_computation.2 (param_0.6: u32[], param_1.14: u32[4], param_2.12: u32[5], param_3.14: u32[5], param_4.21: s64[]) -> u32[5] {
  %param_3.14 = u32[5]{0} parameter(3)
  %param_2.12 = u32[5]{0} parameter(2)
  %add.265 = u32[5]{0} add(u32[5]{0} %param_3.14, u32[5]{0} %param_2.12), metadata={op_name="jit(f)/jit(main)/jvp(jit(_normal))/jit(_normal_real)/jit(_uniform)/while/body/add" source_file="/home/mathis/repos/backward_ica/src/stats/distributions.py" source_line=222}
  %param_1.14 = u32[4]{0} parameter(1)
  %slice.81 = u32[1]{0} slice(u32[4]{0} %param_1.14), slice={[0:1]}, metadata={op_name="jit(f)/jit(main)/jvp(jit(_normal))/jit(_normal_real)/jit(_uniform)/while/body/slice[start_indices=(0,) limit_indices=(1,) strides=(1,)]" source_file="/home/mathis/repos/backward_ica/src/stats/distributions.py" source_line=222}
  %reshape.388 = u32[] reshape(u32[1]{0} %slice.81), metadata={op_name="jit(f)/jit(main)/jvp(jit(_normal))/jit(_normal_real)/jit(_uniform)/while/body/squeeze[dimensions=(0,)]" source_file="/home/mathis/repos/backward_ica/src/stats/distributions.py" source_line=222}
  %broadcast.1367 = u32[5]{0} broadcast(u32[] %reshape.388), dimensions={}, metadata={op_name="jit(f)/jit(main)/jvp(jit(_normal))/jit(_normal_real)/jit(_uniform)/while/body/shift_left" source_file="/home/mathis/repos/backward_ica/src/stats/distributions.py" source_line=222}
  %shift-left.33 = u32[5]{0} shift-left(u32[5]{0} %param_2.12, u32[5]{0} %broadcast.1367), metadata={op_name="jit(f)/jit(main)/jvp(jit(_normal))/jit(_normal_real)/jit(_uniform)/while/body/shift_left" source_file="/home/mathis/repos/backward_ica/src/stats/distributions.py" source_line=222}
  %constant.1046 = u32[] constant(32)
  %subtract.53 = u32[] subtract(u32[] %constant.1046, u32[] %reshape.388), metadata={op_name="jit(f)/jit(main)/jvp(jit(_normal))/jit(_normal_real)/jit(_uniform)/while/body/sub" source_file="/home/mathis/repos/backward_ica/src/stats/distributions.py" source_line=222}
  %broadcast.1366 = u32[5]{0} broadcast(u32[] %subtract.53), dimensions={}, metadata={op_name="jit(f)/jit(main)/jvp(jit(_normal))/jit(_normal_real)/jit(_uniform)/while/body/shift_right_logical" source_file="/home/mathis/repos/backward_ica/src/stats/distributions.py" source_line=222}
  %shift-right-logical.33 = u32[5]{0} shift-right-logical(u32[5]{0} %param_2.12, u32[5]{0} %broadcast.1366), metadata={op_name="jit(f)/jit(main)/jvp(jit(_normal))/jit(_normal_real)/jit(_uniform)/while/body/shift_right_logical" source_file="/home/mathis/repos/backward_ica/src/stats/distributions.py" source_line=222}
  %or.39 = u32[5]{0} or(u32[5]{0} %shift-left.33, u32[5]{0} %shift-right-logical.33), metadata={op_name="jit(f)/jit(main)/jvp(jit(_normal))/jit(_normal_real)/jit(_uniform)/while/body/or" source_file="/home/mathis/repos/backward_ica/src/stats/distributions.py" source_line=222}
  %xor.39 = u32[5]{0} xor(u32[5]{0} %add.265, u32[5]{0} %or.39), metadata={op_name="jit(f)/jit(main)/jvp(jit(_normal))/jit(_normal_real)/jit(_uniform)/while/body/xor" source_file="/home/mathis/repos/backward_ica/src/stats/distributions.py" source_line=222}
  %add.264 = u32[5]{0} add(u32[5]{0} %add.265, u32[5]{0} %xor.39), metadata={op_name="jit(f)/jit(main)/jvp(jit(_normal))/jit(_normal_real)/jit(_uniform)/while/body/add" source_file="/home/mathis/repos/backward_ica/src/stats/distributions.py" source_line=222}
  %slice.80 = u32[1]{0} slice(u32[4]{0} %param_1.14), slice={[1:2]}, metadata={op_name="jit(f)/jit(main)/jvp(jit(_normal))/jit(_normal_real)/jit(_uniform)/while/body/slice[start_indices=(1,) limit_indices=(2,) strides=(1,)]" source_file="/home/mathis/repos/backward_ica/src/stats/distributions.py" source_line=222}
  %reshape.387 = u32[] reshape(u32[1]{0} %slice.80), metadata={op_name="jit(f)/jit(main)/jvp(jit(_normal))/jit(_normal_real)/jit(_uniform)/while/body/squeeze[dimensions=(0,)]" source_file="/home/mathis/repos/backward_ica/src/stats/distributions.py" source_line=222}
  %broadcast.1365 = u32[5]{0} broadcast(u32[] %reshape.387), dimensions={}, metadata={op_name="jit(f)/jit(main)/jvp(jit(_normal))/jit(_normal_real)/jit(_uniform)/while/body/shift_left" source_file="/home/mathis/repos/backward_ica/src/stats/distributions.py" source_line=222}
  %shift-left.32 = u32[5]{0} shift-left(u32[5]{0} %xor.39, u32[5]{0} %broadcast.1365), metadata={op_name="jit(f)/jit(main)/jvp(jit(_normal))/jit(_normal_real)/jit(_uniform)/while/body/shift_left" source_file="/home/mathis/repos/backward_ica/src/stats/distributions.py" source_line=222}
  %subtract.52 = u32[] subtract(u32[] %constant.1046, u32[] %reshape.387), metadata={op_name="jit(f)/jit(main)/jvp(jit(_normal))/jit(_normal_real)/jit(_uniform)/while/body/sub" source_file="/home/mathis/repos/backward_ica/src/stats/distributions.py" source_line=222}
  %broadcast.1364 = u32[5]{0} broadcast(u32[] %subtract.52), dimensions={}, metadata={op_name="jit(f)/jit(main)/jvp(jit(_normal))/jit(_normal_real)/jit(_uniform)/while/body/shift_right_logical" source_file="/home/mathis/repos/backward_ica/src/stats/distributions.py" source_line=222}
  %shift-right-logical.32 = u32[5]{0} shift-right-logical(u32[5]{0} %xor.39, u32[5]{0} %broadcast.1364), metadata={op_name="jit(f)/jit(main)/jvp(jit(_normal))/jit(_normal_real)/jit(_uniform)/while/body/shift_right_logical" source_file="/home/mathis/repos/backward_ica/src/stats/distributions.py" source_line=222}
  %or.38 = u32[5]{0} or(u32[5]{0} %shift-left.32, u32[5]{0} %shift-right-logical.32), metadata={op_name="jit(f)/jit(main)/jvp(jit(_normal))/jit(_normal_real)/jit(_uniform)/while/body/or" source_file="/home/mathis/repos/backward_ica/src/stats/distributions.py" source_line=222}
  %xor.38 = u32[5]{0} xor(u32[5]{0} %add.264, u32[5]{0} %or.38), metadata={op_name="jit(f)/jit(main)/jvp(jit(_normal))/jit(_normal_real)/jit(_uniform)/while/body/xor" source_file="/home/mathis/repos/backward_ica/src/stats/distributions.py" source_line=222}
  %add.262 = u32[5]{0} add(u32[5]{0} %add.264, u32[5]{0} %xor.38), metadata={op_name="jit(f)/jit(main)/jvp(jit(_normal))/jit(_normal_real)/jit(_uniform)/while/body/add" source_file="/home/mathis/repos/backward_ica/src/stats/distributions.py" source_line=222}
  %slice.79 = u32[1]{0} slice(u32[4]{0} %param_1.14), slice={[2:3]}, metadata={op_name="jit(f)/jit(main)/jvp(jit(_normal))/jit(_normal_real)/jit(_uniform)/while/body/slice[start_indices=(2,) limit_indices=(3,) strides=(1,)]" source_file="/home/mathis/repos/backward_ica/src/stats/distributions.py" source_line=222}
  %reshape.386 = u32[] reshape(u32[1]{0} %slice.79), metadata={op_name="jit(f)/jit(main)/jvp(jit(_normal))/jit(_normal_real)/jit(_uniform)/while/body/squeeze[dimensions=(0,)]" source_file="/home/mathis/repos/backward_ica/src/stats/distributions.py" source_line=222}
  %broadcast.1363 = u32[5]{0} broadcast(u32[] %reshape.386), dimensions={}, metadata={op_name="jit(f)/jit(main)/jvp(jit(_normal))/jit(_normal_real)/jit(_uniform)/while/body/shift_left" source_file="/home/mathis/repos/backward_ica/src/stats/distributions.py" source_line=222}
  %shift-left.31 = u32[5]{0} shift-left(u32[5]{0} %xor.38, u32[5]{0} %broadcast.1363), metadata={op_name="jit(f)/jit(main)/jvp(jit(_normal))/jit(_normal_real)/jit(_uniform)/while/body/shift_left" source_file="/home/mathis/repos/backward_ica/src/stats/distributions.py" source_line=222}
  %subtract.51 = u32[] subtract(u32[] %constant.1046, u32[] %reshape.386), metadata={op_name="jit(f)/jit(main)/jvp(jit(_normal))/jit(_normal_real)/jit(_uniform)/while/body/sub" source_file="/home/mathis/repos/backward_ica/src/stats/distributions.py" source_line=222}
  %broadcast.1362 = u32[5]{0} broadcast(u32[] %subtract.51), dimensions={}, metadata={op_name="jit(f)/jit(main)/jvp(jit(_normal))/jit(_normal_real)/jit(_uniform)/while/body/shift_right_logical" source_file="/home/mathis/repos/backward_ica/src/stats/distributions.py" source_line=222}
  %shift-right-logical.31 = u32[5]{0} shift-right-logical(u32[5]{0} %xor.38, u32[5]{0} %broadcast.1362), metadata={op_name="jit(f)/jit(main)/jvp(jit(_normal))/jit(_normal_real)/jit(_uniform)/while/body/shift_right_logical" source_file="/home/mathis/repos/backward_ica/src/stats/distributions.py" source_line=222}
  %or.37 = u32[5]{0} or(u32[5]{0} %shift-left.31, u32[5]{0} %shift-right-logical.31), metadata={op_name="jit(f)/jit(main)/jvp(jit(_normal))/jit(_normal_real)/jit(_uniform)/while/body/or" source_file="/home/mathis/repos/backward_ica/src/stats/distributions.py" source_line=222}
  %xor.37 = u32[5]{0} xor(u32[5]{0} %add.262, u32[5]{0} %or.37), metadata={op_name="jit(f)/jit(main)/jvp(jit(_normal))/jit(_normal_real)/jit(_uniform)/while/body/xor" source_file="/home/mathis/repos/backward_ica/src/stats/distributions.py" source_line=222}
  %add.261 = u32[5]{0} add(u32[5]{0} %add.262, u32[5]{0} %xor.37), metadata={op_name="jit(f)/jit(main)/jvp(jit(_normal))/jit(_normal_real)/jit(_uniform)/while/body/add" source_file="/home/mathis/repos/backward_ica/src/stats/distributions.py" source_line=222}
  %slice.78 = u32[1]{0} slice(u32[4]{0} %param_1.14), slice={[3:4]}, metadata={op_name="jit(f)/jit(main)/jvp(jit(_normal))/jit(_normal_real)/jit(_uniform)/while/body/slice[start_indices=(3,) limit_indices=(4,) strides=(1,)]" source_file="/home/mathis/repos/backward_ica/src/stats/distributions.py" source_line=222}
  %reshape.385 = u32[] reshape(u32[1]{0} %slice.78), metadata={op_name="jit(f)/jit(main)/jvp(jit(_normal))/jit(_normal_real)/jit(_uniform)/while/body/squeeze[dimensions=(0,)]" source_file="/home/mathis/repos/backward_ica/src/stats/distributions.py" source_line=222}
  %broadcast.1361 = u32[5]{0} broadcast(u32[] %reshape.385), dimensions={}, metadata={op_name="jit(f)/jit(main)/jvp(jit(_normal))/jit(_normal_real)/jit(_uniform)/while/body/shift_left" source_file="/home/mathis/repos/backward_ica/src/stats/distributions.py" source_line=222}
  %shift-left.30 = u32[5]{0} shift-left(u32[5]{0} %xor.37, u32[5]{0} %broadcast.1361), metadata={op_name="jit(f)/jit(main)/jvp(jit(_normal))/jit(_normal_real)/jit(_uniform)/while/body/shift_left" source_file="/home/mathis/repos/backward_ica/src/stats/distributions.py" source_line=222}
  %subtract.50 = u32[] subtract(u32[] %constant.1046, u32[] %reshape.385), metadata={op_name="jit(f)/jit(main)/jvp(jit(_normal))/jit(_normal_real)/jit(_uniform)/while/body/sub" source_file="/home/mathis/repos/backward_ica/src/stats/distributions.py" source_line=222}
  %broadcast.1360 = u32[5]{0} broadcast(u32[] %subtract.50), dimensions={}, metadata={op_name="jit(f)/jit(main)/jvp(jit(_normal))/jit(_normal_real)/jit(_uniform)/while/body/shift_right_logical" source_file="/home/mathis/repos/backward_ica/src/stats/distributions.py" source_line=222}
  %shift-right-logical.30 = u32[5]{0} shift-right-logical(u32[5]{0} %xor.37, u32[5]{0} %broadcast.1360), metadata={op_name="jit(f)/jit(main)/jvp(jit(_normal))/jit(_normal_real)/jit(_uniform)/while/body/shift_right_logical" source_file="/home/mathis/repos/backward_ica/src/stats/distributions.py" source_line=222}
  %or.36 = u32[5]{0} or(u32[5]{0} %shift-left.30, u32[5]{0} %shift-right-logical.30), metadata={op_name="jit(f)/jit(main)/jvp(jit(_normal))/jit(_normal_real)/jit(_uniform)/while/body/or" source_file="/home/mathis/repos/backward_ica/src/stats/distributions.py" source_line=222}
  %xor.36 = u32[5]{0} xor(u32[5]{0} %add.261, u32[5]{0} %or.36), metadata={op_name="jit(f)/jit(main)/jvp(jit(_normal))/jit(_normal_real)/jit(_uniform)/while/body/xor" source_file="/home/mathis/repos/backward_ica/src/stats/distributions.py" source_line=222}
  %param_0.6 = u32[] parameter(0)
  %broadcast.1359 = u32[5]{0} broadcast(u32[] %param_0.6), dimensions={}, metadata={op_name="jit(f)/jit(main)/jvp(jit(_normal))/jit(_normal_real)/jit(_uniform)/while/body/add" source_file="/home/mathis/repos/backward_ica/src/stats/distributions.py" source_line=222}
  %add.260 = u32[5]{0} add(u32[5]{0} %xor.36, u32[5]{0} %broadcast.1359), metadata={op_name="jit(f)/jit(main)/jvp(jit(_normal))/jit(_normal_real)/jit(_uniform)/while/body/add" source_file="/home/mathis/repos/backward_ica/src/stats/distributions.py" source_line=222}
  %param_4.21 = s64[] parameter(4)
  %constant.1047 = s64[] constant(1)
  %add.266 = s64[] add(s64[] %param_4.21, s64[] %constant.1047), metadata={op_name="jit(f)/jit(main)/jvp(jit(_normal))/jit(_normal_real)/jit(_uniform)/while/body/add" source_file="/home/mathis/repos/backward_ica/src/stats/distributions.py" source_line=207}
  %convert.32 = u32[] convert(s64[] %add.266), metadata={op_name="jit(f)/jit(main)/jvp(jit(_normal))/jit(_normal_real)/jit(_uniform)/while/body/convert_element_type[new_dtype=uint32 weak_type=False]" source_file="/home/mathis/repos/backward_ica/src/stats/distributions.py" source_line=222}
  %broadcast.1358 = u32[5]{0} broadcast(u32[] %convert.32), dimensions={}, metadata={op_name="jit(f)/jit(main)/jvp(jit(_normal))/jit(_normal_real)/jit(_uniform)/while/body/add" source_file="/home/mathis/repos/backward_ica/src/stats/distributions.py" source_line=222}
  ROOT %add.258 = u32[5]{0} add(u32[5]{0} %add.260, u32[5]{0} %broadcast.1358), metadata={op_name="jit(f)/jit(main)/jvp(jit(_normal))/jit(_normal_real)/jit(_uniform)/while/body/add" source_file="/home/mathis/repos/backward_ica/src/stats/distributions.py" source_line=222}
}

%fused_computation.3 (param_0.8: u32[], param_1.20: u32[4], param_2.20: u32[5], param_3.24: u32[5]) -> u32[5] {
  %param_3.24 = u32[5]{0} parameter(3)
  %param_2.20 = u32[5]{0} parameter(2)
  %add.271 = u32[5]{0} add(u32[5]{0} %param_3.24, u32[5]{0} %param_2.20), metadata={op_name="jit(f)/jit(main)/jvp(jit(_normal))/jit(_normal_real)/jit(_uniform)/while/body/add" source_file="/home/mathis/repos/backward_ica/src/stats/distributions.py" source_line=222}
  %param_1.20 = u32[4]{0} parameter(1)
  %slice.84 = u32[1]{0} slice(u32[4]{0} %param_1.20), slice={[0:1]}, metadata={op_name="jit(f)/jit(main)/jvp(jit(_normal))/jit(_normal_real)/jit(_uniform)/while/body/slice[start_indices=(0,) limit_indices=(1,) strides=(1,)]" source_file="/home/mathis/repos/backward_ica/src/stats/distributions.py" source_line=222}
  %reshape.391 = u32[] reshape(u32[1]{0} %slice.84), metadata={op_name="jit(f)/jit(main)/jvp(jit(_normal))/jit(_normal_real)/jit(_uniform)/while/body/squeeze[dimensions=(0,)]" source_file="/home/mathis/repos/backward_ica/src/stats/distributions.py" source_line=222}
  %broadcast.1374 = u32[5]{0} broadcast(u32[] %reshape.391), dimensions={}, metadata={op_name="jit(f)/jit(main)/jvp(jit(_normal))/jit(_normal_real)/jit(_uniform)/while/body/shift_left" source_file="/home/mathis/repos/backward_ica/src/stats/distributions.py" source_line=222}
  %shift-left.36 = u32[5]{0} shift-left(u32[5]{0} %param_2.20, u32[5]{0} %broadcast.1374), metadata={op_name="jit(f)/jit(main)/jvp(jit(_normal))/jit(_normal_real)/jit(_uniform)/while/body/shift_left" source_file="/home/mathis/repos/backward_ica/src/stats/distributions.py" source_line=222}
  %constant.1048 = u32[] constant(32)
  %subtract.56 = u32[] subtract(u32[] %constant.1048, u32[] %reshape.391), metadata={op_name="jit(f)/jit(main)/jvp(jit(_normal))/jit(_normal_real)/jit(_uniform)/while/body/sub" source_file="/home/mathis/repos/backward_ica/src/stats/distributions.py" source_line=222}
  %broadcast.1373 = u32[5]{0} broadcast(u32[] %subtract.56), dimensions={}, metadata={op_name="jit(f)/jit(main)/jvp(jit(_normal))/jit(_normal_real)/jit(_uniform)/while/body/shift_right_logical" source_file="/home/mathis/repos/backward_ica/src/stats/distributions.py" source_line=222}
  %shift-right-logical.36 = u32[5]{0} shift-right-logical(u32[5]{0} %param_2.20, u32[5]{0} %broadcast.1373), metadata={op_name="jit(f)/jit(main)/jvp(jit(_normal))/jit(_normal_real)/jit(_uniform)/while/body/shift_right_logical" source_file="/home/mathis/repos/backward_ica/src/stats/distributions.py" source_line=222}
  %or.42 = u32[5]{0} or(u32[5]{0} %shift-left.36, u32[5]{0} %shift-right-logical.36), metadata={op_name="jit(f)/jit(main)/jvp(jit(_normal))/jit(_normal_real)/jit(_uniform)/while/body/or" source_file="/home/mathis/repos/backward_ica/src/stats/distributions.py" source_line=222}
  %xor.42 = u32[5]{0} xor(u32[5]{0} %add.271, u32[5]{0} %or.42), metadata={op_name="jit(f)/jit(main)/jvp(jit(_normal))/jit(_normal_real)/jit(_uniform)/while/body/xor" source_file="/home/mathis/repos/backward_ica/src/stats/distributions.py" source_line=222}
  %add.270 = u32[5]{0} add(u32[5]{0} %add.271, u32[5]{0} %xor.42), metadata={op_name="jit(f)/jit(main)/jvp(jit(_normal))/jit(_normal_real)/jit(_uniform)/while/body/add" source_file="/home/mathis/repos/backward_ica/src/stats/distributions.py" source_line=222}
  %slice.83 = u32[1]{0} slice(u32[4]{0} %param_1.20), slice={[1:2]}, metadata={op_name="jit(f)/jit(main)/jvp(jit(_normal))/jit(_normal_real)/jit(_uniform)/while/body/slice[start_indices=(1,) limit_indices=(2,) strides=(1,)]" source_file="/home/mathis/repos/backward_ica/src/stats/distributions.py" source_line=222}
  %reshape.390 = u32[] reshape(u32[1]{0} %slice.83), metadata={op_name="jit(f)/jit(main)/jvp(jit(_normal))/jit(_normal_real)/jit(_uniform)/while/body/squeeze[dimensions=(0,)]" source_file="/home/mathis/repos/backward_ica/src/stats/distributions.py" source_line=222}
  %broadcast.1372 = u32[5]{0} broadcast(u32[] %reshape.390), dimensions={}, metadata={op_name="jit(f)/jit(main)/jvp(jit(_normal))/jit(_normal_real)/jit(_uniform)/while/body/shift_left" source_file="/home/mathis/repos/backward_ica/src/stats/distributions.py" source_line=222}
  %shift-left.35 = u32[5]{0} shift-left(u32[5]{0} %xor.42, u32[5]{0} %broadcast.1372), metadata={op_name="jit(f)/jit(main)/jvp(jit(_normal))/jit(_normal_real)/jit(_uniform)/while/body/shift_left" source_file="/home/mathis/repos/backward_ica/src/stats/distributions.py" source_line=222}
  %subtract.55 = u32[] subtract(u32[] %constant.1048, u32[] %reshape.390), metadata={op_name="jit(f)/jit(main)/jvp(jit(_normal))/jit(_normal_real)/jit(_uniform)/while/body/sub" source_file="/home/mathis/repos/backward_ica/src/stats/distributions.py" source_line=222}
  %broadcast.1371 = u32[5]{0} broadcast(u32[] %subtract.55), dimensions={}, metadata={op_name="jit(f)/jit(main)/jvp(jit(_normal))/jit(_normal_real)/jit(_uniform)/while/body/shift_right_logical" source_file="/home/mathis/repos/backward_ica/src/stats/distributions.py" source_line=222}
  %shift-right-logical.35 = u32[5]{0} shift-right-logical(u32[5]{0} %xor.42, u32[5]{0} %broadcast.1371), metadata={op_name="jit(f)/jit(main)/jvp(jit(_normal))/jit(_normal_real)/jit(_uniform)/while/body/shift_right_logical" source_file="/home/mathis/repos/backward_ica/src/stats/distributions.py" source_line=222}
  %or.41 = u32[5]{0} or(u32[5]{0} %shift-left.35, u32[5]{0} %shift-right-logical.35), metadata={op_name="jit(f)/jit(main)/jvp(jit(_normal))/jit(_normal_real)/jit(_uniform)/while/body/or" source_file="/home/mathis/repos/backward_ica/src/stats/distributions.py" source_line=222}
  %xor.41 = u32[5]{0} xor(u32[5]{0} %add.270, u32[5]{0} %or.41), metadata={op_name="jit(f)/jit(main)/jvp(jit(_normal))/jit(_normal_real)/jit(_uniform)/while/body/xor" source_file="/home/mathis/repos/backward_ica/src/stats/distributions.py" source_line=222}
  %add.269 = u32[5]{0} add(u32[5]{0} %add.270, u32[5]{0} %xor.41), metadata={op_name="jit(f)/jit(main)/jvp(jit(_normal))/jit(_normal_real)/jit(_uniform)/while/body/add" source_file="/home/mathis/repos/backward_ica/src/stats/distributions.py" source_line=222}
  %slice.82 = u32[1]{0} slice(u32[4]{0} %param_1.20), slice={[2:3]}, metadata={op_name="jit(f)/jit(main)/jvp(jit(_normal))/jit(_normal_real)/jit(_uniform)/while/body/slice[start_indices=(2,) limit_indices=(3,) strides=(1,)]" source_file="/home/mathis/repos/backward_ica/src/stats/distributions.py" source_line=222}
  %reshape.389 = u32[] reshape(u32[1]{0} %slice.82), metadata={op_name="jit(f)/jit(main)/jvp(jit(_normal))/jit(_normal_real)/jit(_uniform)/while/body/squeeze[dimensions=(0,)]" source_file="/home/mathis/repos/backward_ica/src/stats/distributions.py" source_line=222}
  %broadcast.1370 = u32[5]{0} broadcast(u32[] %reshape.389), dimensions={}, metadata={op_name="jit(f)/jit(main)/jvp(jit(_normal))/jit(_normal_real)/jit(_uniform)/while/body/shift_left" source_file="/home/mathis/repos/backward_ica/src/stats/distributions.py" source_line=222}
  %shift-left.34 = u32[5]{0} shift-left(u32[5]{0} %xor.41, u32[5]{0} %broadcast.1370), metadata={op_name="jit(f)/jit(main)/jvp(jit(_normal))/jit(_normal_real)/jit(_uniform)/while/body/shift_left" source_file="/home/mathis/repos/backward_ica/src/stats/distributions.py" source_line=222}
  %subtract.54 = u32[] subtract(u32[] %constant.1048, u32[] %reshape.389), metadata={op_name="jit(f)/jit(main)/jvp(jit(_normal))/jit(_normal_real)/jit(_uniform)/while/body/sub" source_file="/home/mathis/repos/backward_ica/src/stats/distributions.py" source_line=222}
  %broadcast.1369 = u32[5]{0} broadcast(u32[] %subtract.54), dimensions={}, metadata={op_name="jit(f)/jit(main)/jvp(jit(_normal))/jit(_normal_real)/jit(_uniform)/while/body/shift_right_logical" source_file="/home/mathis/repos/backward_ica/src/stats/distributions.py" source_line=222}
  %shift-right-logical.34 = u32[5]{0} shift-right-logical(u32[5]{0} %xor.41, u32[5]{0} %broadcast.1369), metadata={op_name="jit(f)/jit(main)/jvp(jit(_normal))/jit(_normal_real)/jit(_uniform)/while/body/shift_right_logical" source_file="/home/mathis/repos/backward_ica/src/stats/distributions.py" source_line=222}
  %or.40 = u32[5]{0} or(u32[5]{0} %shift-left.34, u32[5]{0} %shift-right-logical.34), metadata={op_name="jit(f)/jit(main)/jvp(jit(_normal))/jit(_normal_real)/jit(_uniform)/while/body/or" source_file="/home/mathis/repos/backward_ica/src/stats/distributions.py" source_line=222}
  %xor.40 = u32[5]{0} xor(u32[5]{0} %add.269, u32[5]{0} %or.40), metadata={op_name="jit(f)/jit(main)/jvp(jit(_normal))/jit(_normal_real)/jit(_uniform)/while/body/xor" source_file="/home/mathis/repos/backward_ica/src/stats/distributions.py" source_line=222}
  %add.268 = u32[5]{0} add(u32[5]{0} %add.269, u32[5]{0} %xor.40), metadata={op_name="jit(f)/jit(main)/jvp(jit(_normal))/jit(_normal_real)/jit(_uniform)/while/body/add" source_file="/home/mathis/repos/backward_ica/src/stats/distributions.py" source_line=222}
  %param_0.8 = u32[] parameter(0)
  %broadcast.1368 = u32[5]{0} broadcast(u32[] %param_0.8), dimensions={}, metadata={op_name="jit(f)/jit(main)/jvp(jit(_normal))/jit(_normal_real)/jit(_uniform)/while/body/add" source_file="/home/mathis/repos/backward_ica/src/stats/distributions.py" source_line=222}
  ROOT %add.267 = u32[5]{0} add(u32[5]{0} %add.268, u32[5]{0} %broadcast.1368), metadata={op_name="jit(f)/jit(main)/jvp(jit(_normal))/jit(_normal_real)/jit(_uniform)/while/body/add" source_file="/home/mathis/repos/backward_ica/src/stats/distributions.py" source_line=222}
}

%region_0.675.clone.clone.clone (arg_tuple.6: (s64[], u32[5], u32[5], u32[], u32[], /*index=5*/u32[], u32[4], u32[4])) -> (s64[], u32[5], u32[5], u32[], u32[], /*index=5*/u32[], u32[4], u32[4]) {
  %arg_tuple.6 = (s64[], u32[5]{0}, u32[5]{0}, u32[], u32[], /*index=5*/u32[], u32[4]{0}, u32[4]{0}) parameter(0)
  %get-tuple-element.321 = s64[] get-tuple-element((s64[], u32[5]{0}, u32[5]{0}, u32[], u32[], /*index=5*/u32[], u32[4]{0}, u32[4]{0}) %arg_tuple.6), index=0
  %copy.439 = s64[] copy(s64[] %get-tuple-element.321)
  %constant.1037 = s64[] constant(1)
  %add.242 = s64[] add(s64[] %copy.439, s64[] %constant.1037), metadata={op_name="jit(f)/jit(main)/jvp(jit(_normal))/jit(_normal_real)/jit(_uniform)/while/body/add" source_file="/home/mathis/repos/backward_ica/src/stats/distributions.py" source_line=207}
  %get-tuple-element.324 = u32[] get-tuple-element((s64[], u32[5]{0}, u32[5]{0}, u32[], u32[], /*index=5*/u32[], u32[4]{0}, u32[4]{0}) %arg_tuple.6), index=3
  %copy.442 = u32[] copy(u32[] %get-tuple-element.324)
  %get-tuple-element.327 = u32[4]{0} get-tuple-element((s64[], u32[5]{0}, u32[5]{0}, u32[], u32[], /*index=5*/u32[], u32[4]{0}, u32[4]{0}) %arg_tuple.6), index=6
  %copy.445 = u32[4]{0} copy(u32[4]{0} %get-tuple-element.327)
  %get-tuple-element.323 = u32[5]{0} get-tuple-element((s64[], u32[5]{0}, u32[5]{0}, u32[], u32[], /*index=5*/u32[], u32[4]{0}, u32[4]{0}) %arg_tuple.6), index=2
  %copy.441 = u32[5]{0} copy(u32[5]{0} %get-tuple-element.323)
  %get-tuple-element.322 = u32[5]{0} get-tuple-element((s64[], u32[5]{0}, u32[5]{0}, u32[], u32[], /*index=5*/u32[], u32[4]{0}, u32[4]{0}) %arg_tuple.6), index=1
  %copy.440 = u32[5]{0} copy(u32[5]{0} %get-tuple-element.322)
  %fusion.3 = u32[5]{0} fusion(u32[] %copy.442, u32[4]{0} %copy.445, u32[5]{0} %copy.441, u32[5]{0} %copy.440), kind=kLoop, calls=%fused_computation.3, metadata={op_name="jit(f)/jit(main)/jvp(jit(_normal))/jit(_normal_real)/jit(_uniform)/while/body/add" source_file="/home/mathis/repos/backward_ica/src/stats/distributions.py" source_line=222}
  %get-tuple-element.325 = u32[] get-tuple-element((s64[], u32[5]{0}, u32[5]{0}, u32[], u32[], /*index=5*/u32[], u32[4]{0}, u32[4]{0}) %arg_tuple.6), index=4
  %copy.443 = u32[] copy(u32[] %get-tuple-element.325)
  %fusion.2 = u32[5]{0} fusion(u32[] %copy.443, u32[4]{0} %copy.445, u32[5]{0} %copy.441, u32[5]{0} %copy.440, s64[] %copy.439), kind=kLoop, calls=%fused_computation.2, metadata={op_name="jit(f)/jit(main)/jvp(jit(_normal))/jit(_normal_real)/jit(_uniform)/while/body/add" source_file="/home/mathis/repos/backward_ica/src/stats/distributions.py" source_line=222}
  %copy.450 = u32[] copy(u32[] %copy.443), control-predecessors={%copy.442}
  %get-tuple-element.326 = u32[] get-tuple-element((s64[], u32[5]{0}, u32[5]{0}, u32[], u32[], /*index=5*/u32[], u32[4]{0}, u32[4]{0}) %arg_tuple.6), index=5
  %copy.444 = u32[] copy(u32[] %get-tuple-element.326)
  %copy.451 = u32[] copy(u32[] %copy.444), control-predecessors={%copy.443}
  %copy.452 = u32[] copy(u32[] %copy.442), control-predecessors={%copy.444}
  %get-tuple-element.328 = u32[4]{0} get-tuple-element((s64[], u32[5]{0}, u32[5]{0}, u32[], u32[], /*index=5*/u32[], u32[4]{0}, u32[4]{0}) %arg_tuple.6), index=7
  %copy.446 = u32[4]{0} copy(u32[4]{0} %get-tuple-element.328)
  %copy.453 = u32[4]{0} copy(u32[4]{0} %copy.446), control-predecessors={%copy.445}
  %copy.454 = u32[4]{0} copy(u32[4]{0} %copy.445), control-predecessors={%copy.446}
  ROOT %tuple.90 = (s64[], u32[5]{0}, u32[5]{0}, u32[], u32[], /*index=5*/u32[], u32[4]{0}, u32[4]{0}) tuple(s64[] %add.242, u32[5]{0} %fusion.3, u32[5]{0} %fusion.2, u32[] %copy.450, u32[] %copy.451, /*index=5*/u32[] %copy.452, u32[4]{0} %copy.453, u32[4]{0} %copy.454)
}

%region_1.739.clone.clone (arg_tuple.7: (s64[], u32[5], u32[5], u32[], u32[], /*index=5*/u32[], u32[4], u32[4])) -> pred[] {
  %arg_tuple.7 = (s64[], u32[5]{0}, u32[5]{0}, u32[], u32[], /*index=5*/u32[], u32[4]{0}, u32[4]{0}) parameter(0)
  %get-tuple-element.262 = s64[] get-tuple-element((s64[], u32[5]{0}, u32[5]{0}, u32[], u32[], /*index=5*/u32[], u32[4]{0}, u32[4]{0}) %arg_tuple.7), index=0
  %constant.1038 = s64[] constant(5)
  ROOT %compare.187 = pred[] compare(s64[] %get-tuple-element.262, s64[] %constant.1038), direction=LT, metadata={op_name="jit(f)/jit(main)/jvp(jit(_normal))/jit(_normal_real)/jit(_uniform)/while/cond/lt" source_file="/home/mathis/repos/backward_ica/src/stats/distributions.py" source_line=207}
}

%fused_computation.4 (param_0.12: f64[10], param_1.26: f64[100], param_2.25: f64[10]) -> f64[100,10] {
  %param_2.25 = f64[10]{0} parameter(2)
  %broadcast.1377 = f64[10,100]{1,0} broadcast(f64[10]{0} %param_2.25), dimensions={0}, metadata={op_name="jit(f)/jit(main)/transpose(jvp(mlp))/linear_1/dot_general[dimension_numbers=(((), ()), ((), ())) precision=None preferred_element_type=None]" source_file="/home/mathis/venvs/jax_gpu/lib/python3.10/site-packages/haiku/_src/basic.py" source_line=178}
  %param_1.26 = f64[100]{0} parameter(1)
  %broadcast.1376 = f64[10,100]{1,0} broadcast(f64[100]{0} %param_1.26), dimensions={1}, metadata={op_name="jit(f)/jit(main)/transpose(jvp(mlp))/linear_1/dot_general[dimension_numbers=(((), ()), ((), ())) precision=None preferred_element_type=None]" source_file="/home/mathis/venvs/jax_gpu/lib/python3.10/site-packages/haiku/_src/basic.py" source_line=178}
  %multiply.180 = f64[10,100]{1,0} multiply(f64[10,100]{1,0} %broadcast.1377, f64[10,100]{1,0} %broadcast.1376), metadata={op_name="jit(f)/jit(main)/transpose(jvp(mlp))/linear_1/dot_general[dimension_numbers=(((), ()), ((), ())) precision=None preferred_element_type=None]" source_file="/home/mathis/venvs/jax_gpu/lib/python3.10/site-packages/haiku/_src/basic.py" source_line=178}
  %param_0.12 = f64[10]{0} parameter(0)
  %broadcast.1375 = f64[10,100]{1,0} broadcast(f64[10]{0} %param_0.12), dimensions={0}, metadata={op_name="jit(f)/jit(main)/transpose(jvp(mlp))/linear_1/dot_general[dimension_numbers=(((), ()), ((), ())) precision=None preferred_element_type=None]" source_file="/home/mathis/venvs/jax_gpu/lib/python3.10/site-packages/haiku/_src/basic.py" source_line=178}
  %multiply.179 = f64[10,100]{1,0} multiply(f64[10,100]{1,0} %broadcast.1375, f64[10,100]{1,0} %broadcast.1376), metadata={op_name="jit(f)/jit(main)/transpose(jvp(mlp))/linear_1/dot_general[dimension_numbers=(((), ()), ((), ())) precision=None preferred_element_type=None]" source_file="/home/mathis/venvs/jax_gpu/lib/python3.10/site-packages/haiku/_src/basic.py" source_line=178}
  %add.272 = f64[10,100]{1,0} add(f64[10,100]{1,0} %multiply.180, f64[10,100]{1,0} %multiply.179), metadata={op_name="jit(f)/jit(main)/add" source_file="/home/mathis/repos/backward_ica/test.py" source_line=86}
  ROOT %transpose.117 = f64[100,10]{0,1} transpose(f64[10,100]{1,0} %add.272), dimensions={1,0}, metadata={op_name="jit(f)/jit(main)/add" source_file="/home/mathis/repos/backward_ica/test.py" source_line=86}
}

%fused_computation.5 (param_0.17: f64[5], param_1.34: f64[100], param_2.33: f64[100], param_3.29: f64[100]) -> f64[5,100] {
  %param_3.29 = f64[100]{0} parameter(3)
  %constant.1049 = f64[] constant(1)
  %broadcast.1381 = f64[100]{0} broadcast(f64[] %constant.1049), dimensions={}, metadata={op_name="jit(f)/jit(main)/jvp(mlp)/sub" source_file="/home/mathis/venvs/jax_gpu/lib/python3.10/site-packages/haiku/_src/nets/mlp.py" source_line=118}
  %param_1.34 = f64[100]{0} parameter(1)
  %subtract.57 = f64[100]{0} subtract(f64[100]{0} %broadcast.1381, f64[100]{0} %param_1.34), metadata={op_name="jit(f)/jit(main)/jvp(mlp)/sub" source_file="/home/mathis/venvs/jax_gpu/lib/python3.10/site-packages/haiku/_src/nets/mlp.py" source_line=118}
  %multiply.186 = f64[100]{0} multiply(f64[100]{0} %param_3.29, f64[100]{0} %subtract.57), metadata={op_name="jit(f)/jit(main)/transpose(jvp(mlp))/mul" source_file="/home/mathis/venvs/jax_gpu/lib/python3.10/site-packages/haiku/_src/nets/mlp.py" source_line=118}
  %multiply.185 = f64[100]{0} multiply(f64[100]{0} %multiply.186, f64[100]{0} %param_1.34), metadata={op_name="jit(f)/jit(main)/transpose(jvp(mlp))/mul" source_file="/home/mathis/venvs/jax_gpu/lib/python3.10/site-packages/haiku/_src/nets/mlp.py" source_line=118}
  %add.276 = f64[100]{0} add(f64[100]{0} %multiply.186, f64[100]{0} %multiply.185), metadata={op_name="jit(f)/jit(main)/transpose(jvp(mlp))/add_any" source_file="/home/mathis/venvs/jax_gpu/lib/python3.10/site-packages/haiku/_src/nets/mlp.py" source_line=118}
  %broadcast.1380 = f64[100,5]{1,0} broadcast(f64[100]{0} %add.276), dimensions={0}, metadata={op_name="jit(f)/jit(main)/transpose(jvp(mlp))/linear_0/dot_general[dimension_numbers=(((), ()), ((), ())) precision=None preferred_element_type=None]" source_file="/home/mathis/venvs/jax_gpu/lib/python3.10/site-packages/haiku/_src/basic.py" source_line=178}
  %param_0.17 = f64[5]{0} parameter(0)
  %broadcast.1379 = f64[100,5]{1,0} broadcast(f64[5]{0} %param_0.17), dimensions={1}, metadata={op_name="jit(f)/jit(main)/transpose(jvp(mlp))/linear_0/dot_general[dimension_numbers=(((), ()), ((), ())) precision=None preferred_element_type=None]" source_file="/home/mathis/venvs/jax_gpu/lib/python3.10/site-packages/haiku/_src/basic.py" source_line=178}
  %multiply.182 = f64[100,5]{1,0} multiply(f64[100,5]{1,0} %broadcast.1380, f64[100,5]{1,0} %broadcast.1379), metadata={op_name="jit(f)/jit(main)/transpose(jvp(mlp))/linear_0/dot_general[dimension_numbers=(((), ()), ((), ())) precision=None preferred_element_type=None]" source_file="/home/mathis/venvs/jax_gpu/lib/python3.10/site-packages/haiku/_src/basic.py" source_line=178}
  %param_2.33 = f64[100]{0} parameter(2)
  %multiply.184 = f64[100]{0} multiply(f64[100]{0} %param_2.33, f64[100]{0} %subtract.57), metadata={op_name="jit(f)/jit(main)/transpose(jvp(mlp))/mul" source_file="/home/mathis/venvs/jax_gpu/lib/python3.10/site-packages/haiku/_src/nets/mlp.py" source_line=118}
  %multiply.183 = f64[100]{0} multiply(f64[100]{0} %multiply.184, f64[100]{0} %param_1.34), metadata={op_name="jit(f)/jit(main)/transpose(jvp(mlp))/mul" source_file="/home/mathis/venvs/jax_gpu/lib/python3.10/site-packages/haiku/_src/nets/mlp.py" source_line=118}
  %add.274 = f64[100]{0} add(f64[100]{0} %multiply.184, f64[100]{0} %multiply.183), metadata={op_name="jit(f)/jit(main)/transpose(jvp(mlp))/add_any" source_file="/home/mathis/venvs/jax_gpu/lib/python3.10/site-packages/haiku/_src/nets/mlp.py" source_line=118}
  %broadcast.1378 = f64[100,5]{1,0} broadcast(f64[100]{0} %add.274), dimensions={0}, metadata={op_name="jit(f)/jit(main)/transpose(jvp(mlp))/linear_0/dot_general[dimension_numbers=(((), ()), ((), ())) precision=None preferred_element_type=None]" source_file="/home/mathis/venvs/jax_gpu/lib/python3.10/site-packages/haiku/_src/basic.py" source_line=178}
  %multiply.181 = f64[100,5]{1,0} multiply(f64[100,5]{1,0} %broadcast.1378, f64[100,5]{1,0} %broadcast.1379), metadata={op_name="jit(f)/jit(main)/transpose(jvp(mlp))/linear_0/dot_general[dimension_numbers=(((), ()), ((), ())) precision=None preferred_element_type=None]" source_file="/home/mathis/venvs/jax_gpu/lib/python3.10/site-packages/haiku/_src/basic.py" source_line=178}
  %add.273 = f64[100,5]{1,0} add(f64[100,5]{1,0} %multiply.182, f64[100,5]{1,0} %multiply.181), metadata={op_name="jit(f)/jit(main)/add" source_file="/home/mathis/repos/backward_ica/test.py" source_line=86}
  ROOT %transpose.118 = f64[5,100]{0,1} transpose(f64[100,5]{1,0} %add.273), dimensions={1,0}, metadata={op_name="jit(f)/jit(main)/add" source_file="/home/mathis/repos/backward_ica/test.py" source_line=86}
}

%fused_computation.6 (param_0.19: f64[100], param_1.38: f64[100], param_2.38: f64[100]) -> f64[100] {
  %param_2.38 = f64[100]{0} parameter(2)
  %constant.1050 = f64[] constant(1)
  %broadcast.1383 = f64[100]{0} broadcast(f64[] %constant.1050), dimensions={}, metadata={op_name="jit(f)/jit(main)/jvp(mlp)/sub" source_file="/home/mathis/venvs/jax_gpu/lib/python3.10/site-packages/haiku/_src/nets/mlp.py" source_line=118}
  %param_0.19 = f64[100]{0} parameter(0)
  %subtract.58 = f64[100]{0} subtract(f64[100]{0} %broadcast.1383, f64[100]{0} %param_0.19), metadata={op_name="jit(f)/jit(main)/jvp(mlp)/sub" source_file="/home/mathis/venvs/jax_gpu/lib/python3.10/site-packages/haiku/_src/nets/mlp.py" source_line=118}
  %multiply.190 = f64[100]{0} multiply(f64[100]{0} %param_2.38, f64[100]{0} %subtract.58), metadata={op_name="jit(f)/jit(main)/transpose(jvp(mlp))/mul" source_file="/home/mathis/venvs/jax_gpu/lib/python3.10/site-packages/haiku/_src/nets/mlp.py" source_line=118}
  %multiply.189 = f64[100]{0} multiply(f64[100]{0} %multiply.190, f64[100]{0} %param_0.19), metadata={op_name="jit(f)/jit(main)/transpose(jvp(mlp))/mul" source_file="/home/mathis/venvs/jax_gpu/lib/python3.10/site-packages/haiku/_src/nets/mlp.py" source_line=118}
  %add.279 = f64[100]{0} add(f64[100]{0} %multiply.190, f64[100]{0} %multiply.189), metadata={op_name="jit(f)/jit(main)/transpose(jvp(mlp))/add_any" source_file="/home/mathis/venvs/jax_gpu/lib/python3.10/site-packages/haiku/_src/nets/mlp.py" source_line=118}
  %param_1.38 = f64[100]{0} parameter(1)
  %multiply.188 = f64[100]{0} multiply(f64[100]{0} %param_1.38, f64[100]{0} %subtract.58), metadata={op_name="jit(f)/jit(main)/transpose(jvp(mlp))/mul" source_file="/home/mathis/venvs/jax_gpu/lib/python3.10/site-packages/haiku/_src/nets/mlp.py" source_line=118}
  %multiply.187 = f64[100]{0} multiply(f64[100]{0} %multiply.188, f64[100]{0} %param_0.19), metadata={op_name="jit(f)/jit(main)/transpose(jvp(mlp))/mul" source_file="/home/mathis/venvs/jax_gpu/lib/python3.10/site-packages/haiku/_src/nets/mlp.py" source_line=118}
  %add.278 = f64[100]{0} add(f64[100]{0} %multiply.188, f64[100]{0} %multiply.187), metadata={op_name="jit(f)/jit(main)/transpose(jvp(mlp))/add_any" source_file="/home/mathis/venvs/jax_gpu/lib/python3.10/site-packages/haiku/_src/nets/mlp.py" source_line=118}
  ROOT %add.277 = f64[100]{0} add(f64[100]{0} %add.279, f64[100]{0} %add.278), metadata={op_name="jit(f)/jit(main)/add" source_file="/home/mathis/repos/backward_ica/test.py" source_line=86}
}

%fused_computation.7 (param_0.22: f64[5], param_1.43: f64[5], param_2.42: f64[5]) -> f64[10] {
  %param_2.42 = f64[5]{0} parameter(2)
  %constant.1051 = f64[] constant(0)
  %pad.5 = f64[10]{0} pad(f64[5]{0} %param_2.42, f64[] %constant.1051), padding=0_5, metadata={op_name="jit(f)/jit(main)/pad[padding_config=((0, 5, 0),)]" source_file="/home/mathis/repos/backward_ica/src/variational/inference_nets.py" source_line=106}
  %param_0.22 = f64[5]{0} parameter(0)
  %param_1.43 = f64[5]{0} parameter(1)
  %multiply.191 = f64[5]{0} multiply(f64[5]{0} %param_0.22, f64[5]{0} %param_1.43), metadata={op_name="jit(f)/jit(main)/transpose(jvp(jit(softplus)))/mul" source_file="/home/mathis/repos/backward_ica/src/variational/inference_nets.py" source_line=107}
  %pad.4 = f64[10]{0} pad(f64[5]{0} %multiply.191, f64[] %constant.1051), padding=5_0, metadata={op_name="jit(f)/jit(main)/pad[padding_config=((5, 0, 0),)]" source_file="/home/mathis/repos/backward_ica/src/variational/inference_nets.py" source_line=106}
  ROOT %add.281 = f64[10]{0} add(f64[10]{0} %pad.5, f64[10]{0} %pad.4), metadata={op_name="jit(f)/jit(main)/add_any" source_file="/home/mathis/repos/backward_ica/src/variational/inference_nets.py" source_line=106}
}

%fused_computation.8 (param_0.24: f64[5,5]) -> f64[5,5] {
  %iota.489 = s32[5,5]{1,0} iota(), iota_dimension=0, metadata={op_name="jit(f)/jit(main)/jvp(jit(_diag))/iota[dtype=int32 shape=(5, 5) dimension=0]" source_file="/home/mathis/repos/backward_ica/src/variational/inference_nets.py" source_line=107}
  %iota.488 = s32[5,5]{1,0} iota(), iota_dimension=1, metadata={op_name="jit(f)/jit(main)/jvp(jit(_diag))/iota[dtype=int32 shape=(5, 5) dimension=1]" source_file="/home/mathis/repos/backward_ica/src/variational/inference_nets.py" source_line=107}
  %compare.191 = pred[5,5]{1,0} compare(s32[5,5]{1,0} %iota.489, s32[5,5]{1,0} %iota.488), direction=EQ, metadata={op_name="jit(f)/jit(main)/jvp(jit(_diag))/eq" source_file="/home/mathis/repos/backward_ica/src/variational/inference_nets.py" source_line=107}
  %param_0.24 = f64[5,5]{1,0} parameter(0)
  %constant.1052 = f64[] constant(-2)
  %broadcast.1384 = f64[5,5]{1,0} broadcast(f64[] %constant.1052), dimensions={}
  %multiply.192 = f64[5,5]{1,0} multiply(f64[5,5]{1,0} %param_0.24, f64[5,5]{1,0} %broadcast.1384), metadata={op_name="jit(f)/jit(main)/add_any" source_file="/home/mathis/repos/backward_ica/src/stats/distributions.py" source_line=149}
  %negate.45 = f64[5,5]{1,0} negate(f64[5,5]{1,0} %multiply.192), metadata={op_name="jit(f)/jit(main)/neg" source_file="/home/mathis/repos/backward_ica/src/variational/inference_nets.py" source_line=107}
  %constant.1053 = f64[] constant(0)
  %broadcast.1385 = f64[5,5]{1,0} broadcast(f64[] %constant.1053), dimensions={}, metadata={op_name="jit(f)/jit(main)/jvp(jit(_diag))/jit(_where)/broadcast_in_dim[shape=(5, 5) broadcast_dimensions=(1,)]" source_file="/home/mathis/repos/backward_ica/src/variational/inference_nets.py" source_line=107}
  ROOT %select.381 = f64[5,5]{1,0} select(pred[5,5]{1,0} %compare.191, f64[5,5]{1,0} %negate.45, f64[5,5]{1,0} %broadcast.1385), metadata={op_name="jit(f)/jit(main)/transpose(jvp(jit(_diag)))/jit(_where)/select_n" source_file="/home/mathis/repos/backward_ica/src/variational/inference_nets.py" source_line=107}
}

%fused_computation.9 (param_0.27: f64[5], param_1.52: f64[5], param_2.51: f64[5]) -> f64[10] {
  %param_2.51 = f64[5]{0} parameter(2)
  %constant.1054 = f64[] constant(0)
  %pad.7 = f64[10]{0} pad(f64[5]{0} %param_2.51, f64[] %constant.1054), padding=0_5, metadata={op_name="jit(f)/jit(main)/pad[padding_config=((0, 5, 0),)]" source_file="/home/mathis/repos/backward_ica/src/variational/inference_nets.py" source_line=106}
  %param_0.27 = f64[5]{0} parameter(0)
  %param_1.52 = f64[5]{0} parameter(1)
  %multiply.193 = f64[5]{0} multiply(f64[5]{0} %param_0.27, f64[5]{0} %param_1.52), metadata={op_name="jit(f)/jit(main)/transpose(jvp(jit(softplus)))/mul" source_file="/home/mathis/repos/backward_ica/src/variational/inference_nets.py" source_line=107}
  %pad.6 = f64[10]{0} pad(f64[5]{0} %multiply.193, f64[] %constant.1054), padding=5_0, metadata={op_name="jit(f)/jit(main)/pad[padding_config=((5, 0, 0),)]" source_file="/home/mathis/repos/backward_ica/src/variational/inference_nets.py" source_line=106}
  ROOT %add.282 = f64[10]{0} add(f64[10]{0} %pad.7, f64[10]{0} %pad.6), metadata={op_name="jit(f)/jit(main)/add_any" source_file="/home/mathis/repos/backward_ica/src/variational/inference_nets.py" source_line=106}
}

%fused_computation.10 (param_0.32: f64[5], param_1.60: f64[10]) -> f64[5] {
  %param_1.60 = f64[10]{0} parameter(1)
  %slice.85 = f64[5]{0} slice(f64[10]{0} %param_1.60), slice={[5:10]}, metadata={op_name="jit(f)/jit(main)/slice[start_indices=(5,) limit_indices=(10,) strides=None]" source_file="/home/mathis/repos/backward_ica/src/variational/inference_nets.py" source_line=106}
  %constant.1055 = f64[] constant(inf)
  %broadcast.1386 = f64[5]{0} broadcast(f64[] %constant.1055), dimensions={}
  %compare.193 = pred[5]{0} compare(f64[5]{0} %slice.85, f64[5]{0} %broadcast.1386), direction=EQ, metadata={op_name="jit(f)/jit(main)/jvp(jit(softplus))/eq" source_file="/home/mathis/repos/backward_ica/src/variational/inference_nets.py" source_line=107}
  %constant.1056 = f64[] constant(0)
  %broadcast.1387 = f64[5]{0} broadcast(f64[] %constant.1056), dimensions={}, metadata={op_name="jit(f)/jit(main)/jvp(jit(softplus))/jit(logaddexp)/max" source_file="/home/mathis/repos/backward_ica/src/variational/inference_nets.py" source_line=107}
  %select.383 = f64[5]{0} select(pred[5]{0} %compare.193, f64[5]{0} %broadcast.1387, f64[5]{0} %slice.85), metadata={op_name="jit(f)/jit(main)/jvp(jit(softplus))/select_n" source_file="/home/mathis/repos/backward_ica/src/variational/inference_nets.py" source_line=107}
  %compare.194 = pred[5]{0} compare(f64[5]{0} %slice.85, f64[5]{0} %slice.85), direction=NE, metadata={op_name="jit(f)/jit(main)/jvp(jit(softplus))/jit(logaddexp)/ne" source_file="/home/mathis/repos/backward_ica/src/variational/inference_nets.py" source_line=107}
  %maximum.10 = f64[5]{0} maximum(f64[5]{0} %slice.85, f64[5]{0} %broadcast.1387), metadata={op_name="jit(f)/jit(main)/jvp(jit(softplus))/jit(logaddexp)/max" source_file="/home/mathis/repos/backward_ica/src/variational/inference_nets.py" source_line=107}
  %param_0.32 = f64[5]{0} parameter(0)
  %add.283 = f64[5]{0} add(f64[5]{0} %maximum.10, f64[5]{0} %param_0.32), metadata={op_name="jit(f)/jit(main)/jvp(jit(softplus))/jit(logaddexp)/add" source_file="/home/mathis/repos/backward_ica/src/variational/inference_nets.py" source_line=107}
  %select.384 = f64[5]{0} select(pred[5]{0} %compare.194, f64[5]{0} %slice.85, f64[5]{0} %add.283), metadata={op_name="jit(f)/jit(main)/jvp(jit(softplus))/jit(logaddexp)/select_n" source_file="/home/mathis/repos/backward_ica/src/variational/inference_nets.py" source_line=107}
  %compare.192 = pred[5]{0} compare(f64[5]{0} %select.384, f64[5]{0} %broadcast.1386), direction=EQ, metadata={op_name="jit(f)/jit(main)/jvp(jit(softplus))/eq" source_file="/home/mathis/repos/backward_ica/src/variational/inference_nets.py" source_line=107}
  %select.382 = f64[5]{0} select(pred[5]{0} %compare.192, f64[5]{0} %broadcast.1387, f64[5]{0} %select.384), metadata={op_name="jit(f)/jit(main)/jvp(jit(softplus))/select_n" source_file="/home/mathis/repos/backward_ica/src/variational/inference_nets.py" source_line=107}
  %subtract.59 = f64[5]{0} subtract(f64[5]{0} %select.383, f64[5]{0} %select.382), metadata={op_name="jit(f)/jit(main)/jvp(jit(softplus))/sub" source_file="/home/mathis/repos/backward_ica/src/variational/inference_nets.py" source_line=107}
  ROOT %exponential.6 = f64[5]{0} exponential(f64[5]{0} %subtract.59), metadata={op_name="jit(f)/jit(main)/jvp(jit(softplus))/exp" source_file="/home/mathis/repos/backward_ica/src/variational/inference_nets.py" source_line=107}
}

%fused_computation.11 (param_0.34: f64[5,5]) -> f64[5,5] {
  %iota.491 = s32[5,5]{1,0} iota(), iota_dimension=0, metadata={op_name="jit(f)/jit(main)/jvp(jit(_diag))/iota[dtype=int32 shape=(5, 5) dimension=0]" source_file="/home/mathis/repos/backward_ica/src/variational/inference_nets.py" source_line=107}
  %iota.490 = s32[5,5]{1,0} iota(), iota_dimension=1, metadata={op_name="jit(f)/jit(main)/jvp(jit(_diag))/iota[dtype=int32 shape=(5, 5) dimension=1]" source_file="/home/mathis/repos/backward_ica/src/variational/inference_nets.py" source_line=107}
  %compare.195 = pred[5,5]{1,0} compare(s32[5,5]{1,0} %iota.491, s32[5,5]{1,0} %iota.490), direction=EQ, metadata={op_name="jit(f)/jit(main)/jvp(jit(_diag))/eq" source_file="/home/mathis/repos/backward_ica/src/variational/inference_nets.py" source_line=107}
  %param_0.34 = f64[5,5]{1,0} parameter(0)
  %constant.1057 = f64[] constant(-2)
  %broadcast.1388 = f64[5,5]{1,0} broadcast(f64[] %constant.1057), dimensions={}
  %multiply.194 = f64[5,5]{1,0} multiply(f64[5,5]{1,0} %param_0.34, f64[5,5]{1,0} %broadcast.1388), metadata={op_name="jit(f)/jit(main)/add_any" source_file="/home/mathis/repos/backward_ica/src/stats/distributions.py" source_line=149}
  %negate.46 = f64[5,5]{1,0} negate(f64[5,5]{1,0} %multiply.194), metadata={op_name="jit(f)/jit(main)/neg" source_file="/home/mathis/repos/backward_ica/src/variational/inference_nets.py" source_line=107}
  %constant.1058 = f64[] constant(0)
  %broadcast.1389 = f64[5,5]{1,0} broadcast(f64[] %constant.1058), dimensions={}, metadata={op_name="jit(f)/jit(main)/jvp(jit(_diag))/jit(_where)/broadcast_in_dim[shape=(5, 5) broadcast_dimensions=(1,)]" source_file="/home/mathis/repos/backward_ica/src/variational/inference_nets.py" source_line=107}
  ROOT %select.385 = f64[5,5]{1,0} select(pred[5,5]{1,0} %compare.195, f64[5,5]{1,0} %negate.46, f64[5,5]{1,0} %broadcast.1389), metadata={op_name="jit(f)/jit(main)/transpose(jvp(jit(_diag)))/jit(_where)/select_n" source_file="/home/mathis/repos/backward_ica/src/variational/inference_nets.py" source_line=107}
}

%fused_computation.12 (param_0.36: f64[5,5], param_1.68: f64[5,5]) -> f64[5,5] {
  %iota.493 = s32[5,5]{1,0} iota(), iota_dimension=0, metadata={op_name="jit(f)/jit(main)/jvp(jit(_diag))/iota[dtype=int32 shape=(5, 5) dimension=0]" source_file="/home/mathis/repos/backward_ica/src/variational/inference_nets.py" source_line=107}
  %iota.492 = s32[5,5]{1,0} iota(), iota_dimension=1, metadata={op_name="jit(f)/jit(main)/jvp(jit(_diag))/iota[dtype=int32 shape=(5, 5) dimension=1]" source_file="/home/mathis/repos/backward_ica/src/variational/inference_nets.py" source_line=107}
  %compare.196 = pred[5,5]{1,0} compare(s32[5,5]{1,0} %iota.493, s32[5,5]{1,0} %iota.492), direction=EQ, metadata={op_name="jit(f)/jit(main)/jvp(jit(_diag))/eq" source_file="/home/mathis/repos/backward_ica/src/variational/inference_nets.py" source_line=107}
  %param_0.36 = f64[5,5]{1,0} parameter(0)
  %param_1.68 = f64[5,5]{1,0} parameter(1)
  %add.284 = f64[5,5]{1,0} add(f64[5,5]{1,0} %param_0.36, f64[5,5]{1,0} %param_1.68), metadata={op_name="jit(f)/jit(main)/add_any" source_file="/home/mathis/repos/backward_ica/src/utils/misc.py" source_line=563}
  %constant.1059 = f64[] constant(0)
  %broadcast.1390 = f64[5,5]{1,0} broadcast(f64[] %constant.1059), dimensions={}, metadata={op_name="jit(f)/jit(main)/jvp(jit(_diag))/jit(_where)/broadcast_in_dim[shape=(5, 5) broadcast_dimensions=(1,)]" source_file="/home/mathis/repos/backward_ica/src/variational/inference_nets.py" source_line=107}
  ROOT %select.386 = f64[5,5]{1,0} select(pred[5,5]{1,0} %compare.196, f64[5,5]{1,0} %add.284, f64[5,5]{1,0} %broadcast.1390), metadata={op_name="jit(f)/jit(main)/transpose(jvp(jit(_diag)))/jit(_where)/select_n" source_file="/home/mathis/repos/backward_ica/src/variational/inference_nets.py" source_line=107}
}

%fused_computation.13 (param_0.38: f64[5,5], param_1.72: f64[5,5]) -> f64[5,5] {
  %iota.495 = s32[5,5]{1,0} iota(), iota_dimension=0, metadata={op_name="jit(f)/jit(main)/jvp(jit(_diag))/iota[dtype=int32 shape=(5, 5) dimension=0]" source_file="/home/mathis/repos/backward_ica/src/variational/inference_nets.py" source_line=107}
  %iota.494 = s32[5,5]{1,0} iota(), iota_dimension=1, metadata={op_name="jit(f)/jit(main)/jvp(jit(_diag))/iota[dtype=int32 shape=(5, 5) dimension=1]" source_file="/home/mathis/repos/backward_ica/src/variational/inference_nets.py" source_line=107}
  %compare.198 = pred[5,5]{1,0} compare(s32[5,5]{1,0} %iota.495, s32[5,5]{1,0} %iota.494), direction=EQ, metadata={op_name="jit(f)/jit(main)/jvp(jit(_diag))/eq" source_file="/home/mathis/repos/backward_ica/src/variational/inference_nets.py" source_line=107}
  %param_0.38 = f64[5,5]{1,0} parameter(0)
  %param_1.72 = f64[5,5]{1,0} parameter(1)
  %add.285 = f64[5,5]{1,0} add(f64[5,5]{1,0} %param_0.38, f64[5,5]{1,0} %param_1.72), metadata={op_name="jit(f)/jit(main)/add_any" source_file="/home/mathis/repos/backward_ica/src/utils/misc.py" source_line=563}
  %constant.1060 = f64[] constant(0)
  %broadcast.1391 = f64[5,5]{1,0} broadcast(f64[] %constant.1060), dimensions={}, metadata={op_name="jit(f)/jit(main)/jvp(jit(_diag))/jit(_where)/broadcast_in_dim[shape=(5, 5) broadcast_dimensions=(1,)]" source_file="/home/mathis/repos/backward_ica/src/variational/inference_nets.py" source_line=107}
  ROOT %select.387 = f64[5,5]{1,0} select(pred[5,5]{1,0} %compare.198, f64[5,5]{1,0} %add.285, f64[5,5]{1,0} %broadcast.1391), metadata={op_name="jit(f)/jit(main)/transpose(jvp(jit(_diag)))/jit(_where)/select_n" source_file="/home/mathis/repos/backward_ica/src/variational/inference_nets.py" source_line=107}
}

%fused_computation.14 (param_0.40: f64[5,5], param_1.76: f64[5,5], param_2.75: f64[5], param_3.62: f64[5]) -> f64[5,5] {
  %iota.497 = s32[5,5]{1,0} iota(), iota_dimension=0, metadata={op_name="jit(f)/jit(main)/jvp(jit(_diag))/iota[dtype=int32 shape=(5, 5) dimension=0]" source_file="/home/mathis/repos/backward_ica/src/variational/inference_nets.py" source_line=107}
  %iota.496 = s32[5,5]{1,0} iota(), iota_dimension=1, metadata={op_name="jit(f)/jit(main)/jvp(jit(_diag))/iota[dtype=int32 shape=(5, 5) dimension=1]" source_file="/home/mathis/repos/backward_ica/src/variational/inference_nets.py" source_line=107}
  %compare.199 = pred[5,5]{1,0} compare(s32[5,5]{1,0} %iota.497, s32[5,5]{1,0} %iota.496), direction=EQ, metadata={op_name="jit(f)/jit(main)/jvp(jit(_diag))/eq" source_file="/home/mathis/repos/backward_ica/src/variational/inference_nets.py" source_line=107}
  %param_2.75 = f64[5]{0} parameter(2)
  %broadcast.1392 = f64[5,5]{1,0} broadcast(f64[5]{0} %param_2.75), dimensions={0}, metadata={op_name="jit(f)/jit(main)/dot_general[dimension_numbers=(((), ()), ((), ())) precision=None preferred_element_type=None]" source_file="/home/mathis/repos/backward_ica/src/stats/kalman.py" source_line=15}
  %param_3.62 = f64[5]{0} parameter(3)
  %broadcast.1393 = f64[5,5]{1,0} broadcast(f64[5]{0} %param_3.62), dimensions={1}, metadata={op_name="jit(f)/jit(main)/dot_general[dimension_numbers=(((), ()), ((), ())) precision=None preferred_element_type=None]" source_file="/home/mathis/repos/backward_ica/src/stats/kalman.py" source_line=15}
  %multiply.195 = f64[5,5]{1,0} multiply(f64[5,5]{1,0} %broadcast.1392, f64[5,5]{1,0} %broadcast.1393), metadata={op_name="jit(f)/jit(main)/dot_general[dimension_numbers=(((), ()), ((), ())) precision=None preferred_element_type=None]" source_file="/home/mathis/repos/backward_ica/src/stats/kalman.py" source_line=15}
  %param_1.76 = f64[5,5]{1,0} parameter(1)
  %add.287 = f64[5,5]{1,0} add(f64[5,5]{1,0} %multiply.195, f64[5,5]{1,0} %param_1.76), metadata={op_name="jit(f)/jit(main)/add_any" source_file="/home/mathis/repos/backward_ica/src/stats/kalman.py" source_line=16}
  %param_0.40 = f64[5,5]{1,0} parameter(0)
  %add.286 = f64[5,5]{1,0} add(f64[5,5]{1,0} %add.287, f64[5,5]{1,0} %param_0.40), metadata={op_name="jit(f)/jit(main)/add_any" source_file="/home/mathis/repos/backward_ica/src/stats/kalman.py" source_line=16}
  %constant.1061 = f64[] constant(0)
  %broadcast.1394 = f64[5,5]{1,0} broadcast(f64[] %constant.1061), dimensions={}, metadata={op_name="jit(f)/jit(main)/jvp(jit(_diag))/jit(_where)/broadcast_in_dim[shape=(5, 5) broadcast_dimensions=(1,)]" source_file="/home/mathis/repos/backward_ica/src/variational/inference_nets.py" source_line=107}
  ROOT %select.388 = f64[5,5]{1,0} select(pred[5,5]{1,0} %compare.199, f64[5,5]{1,0} %add.286, f64[5,5]{1,0} %broadcast.1394), metadata={op_name="jit(f)/jit(main)/transpose(jvp(jit(_diag)))/jit(_where)/select_n" source_file="/home/mathis/repos/backward_ica/src/variational/inference_nets.py" source_line=107}
}

%fused_computation.15 (param_0.44: f64[5,5]) -> f64[5,5] {
  %param_0.44 = f64[5,5]{0,1} parameter(0)
  %copy.250 = f64[5,5]{1,0} copy(f64[5,5]{0,1} %param_0.44), metadata={op_name="jit(f)/jit(main)/transpose(jvp(jit(cholesky)))/triangular_solve[left_side=False lower=True transpose_a=False conjugate_a=False unit_diagonal=False]" source_file="/home/mathis/repos/backward_ica/src/utils/misc.py" source_line=566}
  %constant.1062 = f64[] constant(0.5)
  %broadcast.1395 = f64[5,5]{1,0} broadcast(f64[] %constant.1062), dimensions={}
  %multiply.196 = f64[5,5]{1,0} multiply(f64[5,5]{1,0} %copy.250, f64[5,5]{1,0} %broadcast.1395), metadata={op_name="jit(f)/jit(main)/transpose(jvp(jit(cholesky)))/div" source_file="/home/mathis/repos/backward_ica/src/utils/misc.py" source_line=566}
  %transpose.119 = f64[5,5]{0,1} transpose(f64[5,5]{1,0} %multiply.196), dimensions={1,0}, metadata={op_name="jit(f)/jit(main)/transpose(jvp(jit(cholesky)))/transpose[permutation=(1, 0)]" source_file="/home/mathis/repos/backward_ica/src/utils/misc.py" source_line=566}
  %copy.249 = f64[5,5]{1,0} copy(f64[5,5]{0,1} %transpose.119), metadata={op_name="jit(f)/jit(main)/transpose(jvp(jit(cholesky)))/transpose[permutation=(1, 0)]" source_file="/home/mathis/repos/backward_ica/src/utils/misc.py" source_line=566}
  ROOT %add.288 = f64[5,5]{1,0} add(f64[5,5]{1,0} %multiply.196, f64[5,5]{1,0} %copy.249), metadata={op_name="jit(f)/jit(main)/transpose(jvp(jit(cholesky)))/add_any" source_file="/home/mathis/repos/backward_ica/src/utils/misc.py" source_line=566}
}

%fused_computation.16 (param_0.46: f64[5,5]) -> f64[5,5] {
  %param_0.46 = f64[5,5]{0,1} parameter(0)
  %copy.252 = f64[5,5]{1,0} copy(f64[5,5]{0,1} %param_0.46), metadata={op_name="jit(f)/jit(main)/transpose(jvp(jit(cholesky)))/triangular_solve[left_side=True lower=True transpose_a=True conjugate_a=False unit_diagonal=False]" source_file="/home/mathis/repos/backward_ica/src/utils/misc.py" source_line=566}
  ROOT %copy.251 = f64[5,5]{0,1} copy(f64[5,5]{1,0} %copy.252), metadata={op_name="jit(f)/jit(main)/transpose(jvp(jit(cholesky)))/triangular_solve[left_side=True lower=True transpose_a=True conjugate_a=False unit_diagonal=False]" source_file="/home/mathis/repos/backward_ica/src/utils/misc.py" source_line=566}
}

%fused_computation.17 (param_0.49: f64[5,5]) -> f64[5,5] {
  %iota.501 = s32[5,5]{1,0} iota(), iota_dimension=0, metadata={op_name="jit(f)/jit(main)/jvp(jit(tril))/iota[dtype=int32 shape=(5, 5) dimension=0]" source_file="/home/mathis/repos/backward_ica/src/utils/misc.py" source_line=566}
  %iota.500 = s32[5,5]{1,0} iota(), iota_dimension=1, metadata={op_name="jit(f)/jit(main)/jvp(jit(tril))/iota[dtype=int32 shape=(5, 5) dimension=1]" source_file="/home/mathis/repos/backward_ica/src/utils/misc.py" source_line=566}
  %compare.201 = pred[5,5]{1,0} compare(s32[5,5]{1,0} %iota.501, s32[5,5]{1,0} %iota.500), direction=GE, metadata={op_name="jit(f)/jit(main)/jvp(jit(tril))/ge" source_file="/home/mathis/repos/backward_ica/src/utils/misc.py" source_line=566}
  %param_0.49 = f64[5,5]{1,0} parameter(0)
  %iota.499 = s32[5,5]{1,0} iota(), iota_dimension=0, metadata={op_name="jit(f)/jit(main)/jvp(jit(_diag))/iota[dtype=int32 shape=(5, 5) dimension=0]" source_file="/home/mathis/repos/backward_ica/src/variational/inference_nets.py" source_line=107}
  %iota.498 = s32[5,5]{1,0} iota(), iota_dimension=1, metadata={op_name="jit(f)/jit(main)/jvp(jit(_diag))/iota[dtype=int32 shape=(5, 5) dimension=1]" source_file="/home/mathis/repos/backward_ica/src/variational/inference_nets.py" source_line=107}
  %compare.200 = pred[5,5]{1,0} compare(s32[5,5]{1,0} %iota.499, s32[5,5]{1,0} %iota.498), direction=EQ, metadata={op_name="jit(f)/jit(main)/jvp(jit(_diag))/eq" source_file="/home/mathis/repos/backward_ica/src/variational/inference_nets.py" source_line=107}
  %convert.33 = f64[5,5]{1,0} convert(pred[5,5]{1,0} %compare.200), metadata={op_name="jit(f)/jit(main)/convert_element_type[new_dtype=float64 weak_type=False]" source_file="/home/mathis/repos/backward_ica/src/utils/misc.py" source_line=571}
  %constant.1064 = f64[] constant(1)
  %broadcast.1396 = f64[5,5]{1,0} broadcast(f64[] %constant.1064), dimensions={}
  %add.289 = f64[5,5]{1,0} add(f64[5,5]{1,0} %convert.33, f64[5,5]{1,0} %broadcast.1396), metadata={op_name="jit(f)/jit(main)/jvp(jit(cholesky))/add" source_file="/home/mathis/repos/backward_ica/src/utils/misc.py" source_line=566}
  %divide.34 = f64[5,5]{1,0} divide(f64[5,5]{1,0} %param_0.49, f64[5,5]{1,0} %add.289), metadata={op_name="jit(f)/jit(main)/transpose(jvp(jit(cholesky)))/div" source_file="/home/mathis/repos/backward_ica/src/utils/misc.py" source_line=566}
  %constant.1063 = f64[] constant(0)
  %broadcast.1397 = f64[5,5]{1,0} broadcast(f64[] %constant.1063), dimensions={}, metadata={op_name="jit(f)/jit(main)/jvp(jit(_diag))/jit(_where)/broadcast_in_dim[shape=(5, 5) broadcast_dimensions=(1,)]" source_file="/home/mathis/repos/backward_ica/src/variational/inference_nets.py" source_line=107}
  %select.389 = f64[5,5]{1,0} select(pred[5,5]{1,0} %compare.201, f64[5,5]{1,0} %divide.34, f64[5,5]{1,0} %broadcast.1397), metadata={op_name="jit(f)/jit(main)/transpose(jvp(jit(cholesky)))/jit(tril)/select_n" source_file="/home/mathis/repos/backward_ica/src/utils/misc.py" source_line=566}
  ROOT %copy.253 = f64[5,5]{0,1} copy(f64[5,5]{1,0} %select.389), metadata={op_name="jit(f)/jit(main)/transpose(jvp(jit(cholesky)))/jit(tril)/select_n" source_file="/home/mathis/repos/backward_ica/src/utils/misc.py" source_line=566}
}

%fused_computation.18 (param_0.51: f64[5,5], param_1.89: f64[5,5], param_2.84: f64[5,5], param_3.74: f64[5,5]) -> f64[5,5] {
  %iota.503 = s32[5,5]{1,0} iota(), iota_dimension=0, metadata={op_name="jit(f)/jit(main)/jvp(jit(tril))/iota[dtype=int32 shape=(5, 5) dimension=0]" source_file="/home/mathis/repos/backward_ica/src/utils/misc.py" source_line=566}
  %iota.502 = s32[5,5]{1,0} iota(), iota_dimension=1, metadata={op_name="jit(f)/jit(main)/jvp(jit(tril))/iota[dtype=int32 shape=(5, 5) dimension=1]" source_file="/home/mathis/repos/backward_ica/src/utils/misc.py" source_line=566}
  %compare.202 = pred[5,5]{1,0} compare(s32[5,5]{1,0} %iota.503, s32[5,5]{1,0} %iota.502), direction=GE, metadata={op_name="jit(f)/jit(main)/jvp(jit(tril))/ge" source_file="/home/mathis/repos/backward_ica/src/utils/misc.py" source_line=566}
  %param_3.74 = f64[5,5]{0,1} parameter(3)
  %copy.259 = f64[5,5]{1,0} copy(f64[5,5]{0,1} %param_3.74), metadata={op_name="jit(f)/jit(main)/transpose(jvp(jit(_cho_solve)))/triangular_solve[left_side=True lower=True transpose_a=True conjugate_a=False unit_diagonal=False]" source_file="/home/mathis/repos/backward_ica/src/utils/misc.py" source_line=573}
  %negate.50 = f64[5,5]{1,0} negate(f64[5,5]{1,0} %copy.259), metadata={op_name="jit(f)/jit(main)/transpose(jvp(jit(_cho_solve)))/neg" source_file="/home/mathis/repos/backward_ica/src/utils/misc.py" source_line=573}
  %constant.1065 = f64[] constant(0)
  %broadcast.1398 = f64[5,5]{1,0} broadcast(f64[] %constant.1065), dimensions={}, metadata={op_name="jit(f)/jit(main)/jvp(jit(_diag))/jit(_where)/broadcast_in_dim[shape=(5, 5) broadcast_dimensions=(1,)]" source_file="/home/mathis/repos/backward_ica/src/variational/inference_nets.py" source_line=107}
  %select.394 = f64[5,5]{1,0} select(pred[5,5]{1,0} %compare.202, f64[5,5]{1,0} %negate.50, f64[5,5]{1,0} %broadcast.1398), metadata={op_name="jit(f)/jit(main)/transpose(jvp(jit(_cho_solve)))/jit(tril)/select_n" source_file="/home/mathis/repos/backward_ica/src/utils/misc.py" source_line=573}
  %param_2.84 = f64[5,5]{0,1} parameter(2)
  %copy.258 = f64[5,5]{1,0} copy(f64[5,5]{0,1} %param_2.84), metadata={op_name="jit(f)/jit(main)/transpose(jvp(jit(_cho_solve)))/triangular_solve[left_side=True lower=True transpose_a=False conjugate_a=False unit_diagonal=False]" source_file="/home/mathis/repos/backward_ica/src/utils/misc.py" source_line=573}
  %negate.49 = f64[5,5]{1,0} negate(f64[5,5]{1,0} %copy.258), metadata={op_name="jit(f)/jit(main)/transpose(jvp(jit(_cho_solve)))/neg" source_file="/home/mathis/repos/backward_ica/src/utils/misc.py" source_line=573}
  %transpose.121 = f64[5,5]{0,1} transpose(f64[5,5]{1,0} %negate.49), dimensions={1,0}, metadata={op_name="jit(f)/jit(main)/transpose(jvp(jit(_cho_solve)))/neg" source_file="/home/mathis/repos/backward_ica/src/utils/misc.py" source_line=573}
  %copy.257 = f64[5,5]{1,0} copy(f64[5,5]{0,1} %transpose.121), metadata={op_name="jit(f)/jit(main)/transpose(jvp(jit(_cho_solve)))/neg" source_file="/home/mathis/repos/backward_ica/src/utils/misc.py" source_line=573}
  %select.393 = f64[5,5]{1,0} select(pred[5,5]{1,0} %compare.202, f64[5,5]{1,0} %copy.257, f64[5,5]{1,0} %broadcast.1398), metadata={op_name="jit(f)/jit(main)/transpose(jvp(jit(_cho_solve)))/jit(tril)/select_n" source_file="/home/mathis/repos/backward_ica/src/utils/misc.py" source_line=573}
  %add.292 = f64[5,5]{1,0} add(f64[5,5]{1,0} %select.394, f64[5,5]{1,0} %select.393), metadata={op_name="jit(f)/jit(main)/transpose(jvp(jit(_cho_solve)))/add_any" source_file="/home/mathis/repos/backward_ica/src/utils/misc.py" source_line=573}
  %param_1.89 = f64[5,5]{0,1} parameter(1)
  %copy.256 = f64[5,5]{1,0} copy(f64[5,5]{0,1} %param_1.89), metadata={op_name="jit(f)/jit(main)/transpose(jvp(jit(_cho_solve)))/triangular_solve[left_side=True lower=True transpose_a=True conjugate_a=False unit_diagonal=False]" source_file="/home/mathis/repos/backward_ica/src/utils/misc.py" source_line=573}
  %negate.48 = f64[5,5]{1,0} negate(f64[5,5]{1,0} %copy.256), metadata={op_name="jit(f)/jit(main)/transpose(jvp(jit(_cho_solve)))/neg" source_file="/home/mathis/repos/backward_ica/src/utils/misc.py" source_line=573}
  %select.392 = f64[5,5]{1,0} select(pred[5,5]{1,0} %compare.202, f64[5,5]{1,0} %negate.48, f64[5,5]{1,0} %broadcast.1398), metadata={op_name="jit(f)/jit(main)/transpose(jvp(jit(_cho_solve)))/jit(tril)/select_n" source_file="/home/mathis/repos/backward_ica/src/utils/misc.py" source_line=573}
  %param_0.51 = f64[5,5]{0,1} parameter(0)
  %copy.255 = f64[5,5]{1,0} copy(f64[5,5]{0,1} %param_0.51), metadata={op_name="jit(f)/jit(main)/transpose(jvp(jit(_cho_solve)))/triangular_solve[left_side=True lower=True transpose_a=False conjugate_a=False unit_diagonal=False]" source_file="/home/mathis/repos/backward_ica/src/utils/misc.py" source_line=573}
  %negate.47 = f64[5,5]{1,0} negate(f64[5,5]{1,0} %copy.255), metadata={op_name="jit(f)/jit(main)/transpose(jvp(jit(_cho_solve)))/neg" source_file="/home/mathis/repos/backward_ica/src/utils/misc.py" source_line=573}
  %transpose.120 = f64[5,5]{0,1} transpose(f64[5,5]{1,0} %negate.47), dimensions={1,0}, metadata={op_name="jit(f)/jit(main)/transpose(jvp(jit(_cho_solve)))/neg" source_file="/home/mathis/repos/backward_ica/src/utils/misc.py" source_line=573}
  %copy.254 = f64[5,5]{1,0} copy(f64[5,5]{0,1} %transpose.120), metadata={op_name="jit(f)/jit(main)/transpose(jvp(jit(_cho_solve)))/neg" source_file="/home/mathis/repos/backward_ica/src/utils/misc.py" source_line=573}
  %select.391 = f64[5,5]{1,0} select(pred[5,5]{1,0} %compare.202, f64[5,5]{1,0} %copy.254, f64[5,5]{1,0} %broadcast.1398), metadata={op_name="jit(f)/jit(main)/transpose(jvp(jit(_cho_solve)))/jit(tril)/select_n" source_file="/home/mathis/repos/backward_ica/src/utils/misc.py" source_line=573}
  %add.291 = f64[5,5]{1,0} add(f64[5,5]{1,0} %select.392, f64[5,5]{1,0} %select.391), metadata={op_name="jit(f)/jit(main)/transpose(jvp(jit(_cho_solve)))/add_any" source_file="/home/mathis/repos/backward_ica/src/utils/misc.py" source_line=573}
  %add.290 = f64[5,5]{1,0} add(f64[5,5]{1,0} %add.292, f64[5,5]{1,0} %add.291), metadata={op_name="jit(f)/jit(main)/add_any" source_file="/home/mathis/repos/backward_ica/src/utils/misc.py" source_line=573}
  ROOT %select.390 = f64[5,5]{1,0} select(pred[5,5]{1,0} %compare.202, f64[5,5]{1,0} %add.290, f64[5,5]{1,0} %broadcast.1398), metadata={op_name="jit(f)/jit(main)/transpose(jvp(jit(cholesky)))/jit(tril)/select_n" source_file="/home/mathis/repos/backward_ica/src/utils/misc.py" source_line=566}
}

%fused_computation.20 (param_0.57: f64[5,5], param_1.97: f64[5,5]) -> f64[5,5] {
  %param_1.97 = f64[5,5]{0,1} parameter(1)
  %copy.264 = f64[5,5]{1,0} copy(f64[5,5]{0,1} %param_1.97), metadata={op_name="jit(f)/jit(main)/transpose(jvp(jit(cholesky)))/triangular_solve[left_side=False lower=True transpose_a=False conjugate_a=False unit_diagonal=False]" source_file="/home/mathis/repos/backward_ica/src/utils/misc.py" source_line=566}
  %constant.1068 = f64[] constant(0.5)
  %broadcast.1400 = f64[5,5]{1,0} broadcast(f64[] %constant.1068), dimensions={}
  %multiply.198 = f64[5,5]{1,0} multiply(f64[5,5]{1,0} %copy.264, f64[5,5]{1,0} %broadcast.1400), metadata={op_name="jit(f)/jit(main)/transpose(jvp(jit(cholesky)))/div" source_file="/home/mathis/repos/backward_ica/src/utils/misc.py" source_line=566}
  %transpose.123 = f64[5,5]{0,1} transpose(f64[5,5]{1,0} %multiply.198), dimensions={1,0}, metadata={op_name="jit(f)/jit(main)/transpose(jvp(jit(cholesky)))/transpose[permutation=(1, 0)]" source_file="/home/mathis/repos/backward_ica/src/utils/misc.py" source_line=566}
  %copy.263 = f64[5,5]{1,0} copy(f64[5,5]{0,1} %transpose.123), metadata={op_name="jit(f)/jit(main)/transpose(jvp(jit(cholesky)))/transpose[permutation=(1, 0)]" source_file="/home/mathis/repos/backward_ica/src/utils/misc.py" source_line=566}
  %add.295 = f64[5,5]{1,0} add(f64[5,5]{1,0} %multiply.198, f64[5,5]{1,0} %copy.263), metadata={op_name="jit(f)/jit(main)/transpose(jvp(jit(cholesky)))/add_any" source_file="/home/mathis/repos/backward_ica/src/utils/misc.py" source_line=566}
  %param_0.57 = f64[5,5]{0,1} parameter(0)
  %copy.262 = f64[5,5]{1,0} copy(f64[5,5]{0,1} %param_0.57), metadata={op_name="jit(f)/jit(main)/transpose(jvp(jit(cholesky)))/triangular_solve[left_side=False lower=True transpose_a=False conjugate_a=False unit_diagonal=False]" source_file="/home/mathis/repos/backward_ica/src/utils/misc.py" source_line=566}
  %multiply.197 = f64[5,5]{1,0} multiply(f64[5,5]{1,0} %copy.262, f64[5,5]{1,0} %broadcast.1400), metadata={op_name="jit(f)/jit(main)/transpose(jvp(jit(cholesky)))/div" source_file="/home/mathis/repos/backward_ica/src/utils/misc.py" source_line=566}
  %transpose.122 = f64[5,5]{0,1} transpose(f64[5,5]{1,0} %multiply.197), dimensions={1,0}, metadata={op_name="jit(f)/jit(main)/transpose(jvp(jit(cholesky)))/transpose[permutation=(1, 0)]" source_file="/home/mathis/repos/backward_ica/src/utils/misc.py" source_line=566}
  %copy.261 = f64[5,5]{1,0} copy(f64[5,5]{0,1} %transpose.122), metadata={op_name="jit(f)/jit(main)/transpose(jvp(jit(cholesky)))/transpose[permutation=(1, 0)]" source_file="/home/mathis/repos/backward_ica/src/utils/misc.py" source_line=566}
  %add.294 = f64[5,5]{1,0} add(f64[5,5]{1,0} %multiply.197, f64[5,5]{1,0} %copy.261), metadata={op_name="jit(f)/jit(main)/transpose(jvp(jit(cholesky)))/add_any" source_file="/home/mathis/repos/backward_ica/src/utils/misc.py" source_line=566}
  ROOT %add.293 = f64[5,5]{1,0} add(f64[5,5]{1,0} %add.295, f64[5,5]{1,0} %add.294), metadata={op_name="jit(f)/jit(main)/mul" source_file="/home/mathis/repos/backward_ica/src/stats/distributions.py" source_line=149}
}

%fused_computation.21 (param_0.59: f64[5,5]) -> f64[5,5] {
  %param_0.59 = f64[5,5]{0,1} parameter(0)
  %copy.266 = f64[5,5]{1,0} copy(f64[5,5]{0,1} %param_0.59), metadata={op_name="jit(f)/jit(main)/transpose(jvp(jit(cholesky)))/triangular_solve[left_side=True lower=True transpose_a=True conjugate_a=False unit_diagonal=False]" source_file="/home/mathis/repos/backward_ica/src/utils/misc.py" source_line=566}
  ROOT %copy.265 = f64[5,5]{0,1} copy(f64[5,5]{1,0} %copy.266), metadata={op_name="jit(f)/jit(main)/transpose(jvp(jit(cholesky)))/triangular_solve[left_side=True lower=True transpose_a=True conjugate_a=False unit_diagonal=False]" source_file="/home/mathis/repos/backward_ica/src/utils/misc.py" source_line=566}
}

%fused_computation.22 (param_0.62: f64[5,5]) -> f64[5,5] {
  %iota.509 = s32[5,5]{1,0} iota(), iota_dimension=0, metadata={op_name="jit(f)/jit(main)/jvp(jit(tril))/iota[dtype=int32 shape=(5, 5) dimension=0]" source_file="/home/mathis/repos/backward_ica/src/utils/misc.py" source_line=566}
  %iota.508 = s32[5,5]{1,0} iota(), iota_dimension=1, metadata={op_name="jit(f)/jit(main)/jvp(jit(tril))/iota[dtype=int32 shape=(5, 5) dimension=1]" source_file="/home/mathis/repos/backward_ica/src/utils/misc.py" source_line=566}
  %compare.206 = pred[5,5]{1,0} compare(s32[5,5]{1,0} %iota.509, s32[5,5]{1,0} %iota.508), direction=GE, metadata={op_name="jit(f)/jit(main)/jvp(jit(tril))/ge" source_file="/home/mathis/repos/backward_ica/src/utils/misc.py" source_line=566}
  %param_0.62 = f64[5,5]{1,0} parameter(0)
  %iota.507 = s32[5,5]{1,0} iota(), iota_dimension=0, metadata={op_name="jit(f)/jit(main)/jvp(jit(_diag))/iota[dtype=int32 shape=(5, 5) dimension=0]" source_file="/home/mathis/repos/backward_ica/src/variational/inference_nets.py" source_line=107}
  %iota.506 = s32[5,5]{1,0} iota(), iota_dimension=1, metadata={op_name="jit(f)/jit(main)/jvp(jit(_diag))/iota[dtype=int32 shape=(5, 5) dimension=1]" source_file="/home/mathis/repos/backward_ica/src/variational/inference_nets.py" source_line=107}
  %compare.205 = pred[5,5]{1,0} compare(s32[5,5]{1,0} %iota.507, s32[5,5]{1,0} %iota.506), direction=EQ, metadata={op_name="jit(f)/jit(main)/jvp(jit(_diag))/eq" source_file="/home/mathis/repos/backward_ica/src/variational/inference_nets.py" source_line=107}
  %convert.34 = f64[5,5]{1,0} convert(pred[5,5]{1,0} %compare.205), metadata={op_name="jit(f)/jit(main)/convert_element_type[new_dtype=float64 weak_type=False]" source_file="/home/mathis/repos/backward_ica/src/utils/misc.py" source_line=571}
  %constant.1070 = f64[] constant(1)
  %broadcast.1401 = f64[5,5]{1,0} broadcast(f64[] %constant.1070), dimensions={}
  %add.296 = f64[5,5]{1,0} add(f64[5,5]{1,0} %convert.34, f64[5,5]{1,0} %broadcast.1401), metadata={op_name="jit(f)/jit(main)/jvp(jit(cholesky))/add" source_file="/home/mathis/repos/backward_ica/src/utils/misc.py" source_line=566}
  %divide.35 = f64[5,5]{1,0} divide(f64[5,5]{1,0} %param_0.62, f64[5,5]{1,0} %add.296), metadata={op_name="jit(f)/jit(main)/transpose(jvp(jit(cholesky)))/div" source_file="/home/mathis/repos/backward_ica/src/utils/misc.py" source_line=566}
  %constant.1069 = f64[] constant(0)
  %broadcast.1402 = f64[5,5]{1,0} broadcast(f64[] %constant.1069), dimensions={}, metadata={op_name="jit(f)/jit(main)/jvp(jit(_diag))/jit(_where)/broadcast_in_dim[shape=(5, 5) broadcast_dimensions=(1,)]" source_file="/home/mathis/repos/backward_ica/src/variational/inference_nets.py" source_line=107}
  %select.396 = f64[5,5]{1,0} select(pred[5,5]{1,0} %compare.206, f64[5,5]{1,0} %divide.35, f64[5,5]{1,0} %broadcast.1402), metadata={op_name="jit(f)/jit(main)/transpose(jvp(jit(cholesky)))/jit(tril)/select_n" source_file="/home/mathis/repos/backward_ica/src/utils/misc.py" source_line=566}
  ROOT %copy.267 = f64[5,5]{0,1} copy(f64[5,5]{1,0} %select.396), metadata={op_name="jit(f)/jit(main)/transpose(jvp(jit(cholesky)))/jit(tril)/select_n" source_file="/home/mathis/repos/backward_ica/src/utils/misc.py" source_line=566}
}

%fused_computation.23 (param_0.64: f64[5,5], param_1.105: f64[5,5]) -> f64[5,5] {
  %iota.513 = s32[5,5]{1,0} iota(), iota_dimension=0, metadata={op_name="jit(f)/jit(main)/jvp(jit(tril))/iota[dtype=int32 shape=(5, 5) dimension=0]" source_file="/home/mathis/repos/backward_ica/src/utils/misc.py" source_line=566}
  %iota.511 = s32[5,5]{1,0} iota(), iota_dimension=1, metadata={op_name="jit(f)/jit(main)/jvp(jit(tril))/iota[dtype=int32 shape=(5, 5) dimension=1]" source_file="/home/mathis/repos/backward_ica/src/utils/misc.py" source_line=566}
  %compare.207 = pred[5,5]{1,0} compare(s32[5,5]{1,0} %iota.513, s32[5,5]{1,0} %iota.511), direction=GE, metadata={op_name="jit(f)/jit(main)/jvp(jit(tril))/ge" source_file="/home/mathis/repos/backward_ica/src/utils/misc.py" source_line=566}
  %param_1.105 = f64[5,5]{0,1} parameter(1)
  %copy.270 = f64[5,5]{1,0} copy(f64[5,5]{0,1} %param_1.105), metadata={op_name="jit(f)/jit(main)/transpose(jvp(jit(_cho_solve)))/triangular_solve[left_side=True lower=True transpose_a=True conjugate_a=False unit_diagonal=False]" source_file="/home/mathis/repos/backward_ica/src/utils/misc.py" source_line=573}
  %negate.52 = f64[5,5]{1,0} negate(f64[5,5]{1,0} %copy.270), metadata={op_name="jit(f)/jit(main)/transpose(jvp(jit(_cho_solve)))/neg" source_file="/home/mathis/repos/backward_ica/src/utils/misc.py" source_line=573}
  %constant.1071 = f64[] constant(0)
  %broadcast.1403 = f64[5,5]{1,0} broadcast(f64[] %constant.1071), dimensions={}, metadata={op_name="jit(f)/jit(main)/jvp(jit(_diag))/jit(_where)/broadcast_in_dim[shape=(5, 5) broadcast_dimensions=(1,)]" source_file="/home/mathis/repos/backward_ica/src/variational/inference_nets.py" source_line=107}
  %select.399 = f64[5,5]{1,0} select(pred[5,5]{1,0} %compare.207, f64[5,5]{1,0} %negate.52, f64[5,5]{1,0} %broadcast.1403), metadata={op_name="jit(f)/jit(main)/transpose(jvp(jit(_cho_solve)))/jit(tril)/select_n" source_file="/home/mathis/repos/backward_ica/src/utils/misc.py" source_line=573}
  %param_0.64 = f64[5,5]{0,1} parameter(0)
  %copy.269 = f64[5,5]{1,0} copy(f64[5,5]{0,1} %param_0.64), metadata={op_name="jit(f)/jit(main)/transpose(jvp(jit(_cho_solve)))/triangular_solve[left_side=True lower=True transpose_a=False conjugate_a=False unit_diagonal=False]" source_file="/home/mathis/repos/backward_ica/src/utils/misc.py" source_line=573}
  %negate.51 = f64[5,5]{1,0} negate(f64[5,5]{1,0} %copy.269), metadata={op_name="jit(f)/jit(main)/transpose(jvp(jit(_cho_solve)))/neg" source_file="/home/mathis/repos/backward_ica/src/utils/misc.py" source_line=573}
  %transpose.124 = f64[5,5]{0,1} transpose(f64[5,5]{1,0} %negate.51), dimensions={1,0}, metadata={op_name="jit(f)/jit(main)/transpose(jvp(jit(_cho_solve)))/neg" source_file="/home/mathis/repos/backward_ica/src/utils/misc.py" source_line=573}
  %copy.268 = f64[5,5]{1,0} copy(f64[5,5]{0,1} %transpose.124), metadata={op_name="jit(f)/jit(main)/transpose(jvp(jit(_cho_solve)))/neg" source_file="/home/mathis/repos/backward_ica/src/utils/misc.py" source_line=573}
  %select.398 = f64[5,5]{1,0} select(pred[5,5]{1,0} %compare.207, f64[5,5]{1,0} %copy.268, f64[5,5]{1,0} %broadcast.1403), metadata={op_name="jit(f)/jit(main)/transpose(jvp(jit(_cho_solve)))/jit(tril)/select_n" source_file="/home/mathis/repos/backward_ica/src/utils/misc.py" source_line=573}
  %add.297 = f64[5,5]{1,0} add(f64[5,5]{1,0} %select.399, f64[5,5]{1,0} %select.398), metadata={op_name="jit(f)/jit(main)/transpose(jvp(jit(_cho_solve)))/add_any" source_file="/home/mathis/repos/backward_ica/src/utils/misc.py" source_line=573}
  ROOT %select.397 = f64[5,5]{1,0} select(pred[5,5]{1,0} %compare.207, f64[5,5]{1,0} %add.297, f64[5,5]{1,0} %broadcast.1403), metadata={op_name="jit(f)/jit(main)/transpose(jvp(jit(cholesky)))/jit(tril)/select_n" source_file="/home/mathis/repos/backward_ica/src/utils/misc.py" source_line=566}
}

%fused_computation.24 (param_0.68: f64[5], param_1.108: f64[5]) -> f64[5,5] {
  %param_0.68 = f64[5]{0} parameter(0)
  %broadcast.1404 = f64[5,5]{1,0} broadcast(f64[5]{0} %param_0.68), dimensions={0}, metadata={op_name="jit(f)/jit(main)/dot_general[dimension_numbers=(((), ()), ((), ())) precision=None preferred_element_type=None]" source_file="/home/mathis/repos/backward_ica/src/stats/distributions.py" source_line=207}
  %param_1.108 = f64[5]{0} parameter(1)
  %broadcast.1405 = f64[5,5]{1,0} broadcast(f64[5]{0} %param_1.108), dimensions={1}, metadata={op_name="jit(f)/jit(main)/dot_general[dimension_numbers=(((), ()), ((), ())) precision=None preferred_element_type=None]" source_file="/home/mathis/repos/backward_ica/src/stats/distributions.py" source_line=142}
  %multiply.199 = f64[5,5]{1,0} multiply(f64[5,5]{1,0} %broadcast.1404, f64[5,5]{1,0} %broadcast.1405), metadata={op_name="jit(f)/jit(main)/dot_general[dimension_numbers=(((), ()), ((), ())) precision=None preferred_element_type=None]" source_file="/home/mathis/repos/backward_ica/src/stats/distributions.py" source_line=142}
  ROOT %copy.271 = f64[5,5]{0,1} copy(f64[5,5]{1,0} %multiply.199), metadata={op_name="jit(f)/jit(main)/dot_general[dimension_numbers=(((), ()), ((), ())) precision=None preferred_element_type=None]" source_file="/home/mathis/repos/backward_ica/src/stats/distributions.py" source_line=142}
}

%fused_computation.25 (param_0.71: f64[5], param_1.111: f64[5]) -> f64[5,5] {
  %param_0.71 = f64[5]{0} parameter(0)
  %broadcast.1406 = f64[5,5]{1,0} broadcast(f64[5]{0} %param_0.71), dimensions={0}, metadata={op_name="jit(f)/jit(main)/dot_general[dimension_numbers=(((), ()), ((), ())) precision=None preferred_element_type=None]" source_file="/home/mathis/repos/backward_ica/src/stats/distributions.py" source_line=207}
  %param_1.111 = f64[5]{0} parameter(1)
  %broadcast.1408 = f64[5,5]{1,0} broadcast(f64[5]{0} %param_1.111), dimensions={1}, metadata={op_name="jit(f)/jit(main)/dot_general[dimension_numbers=(((), ()), ((), ())) precision=None preferred_element_type=None]" source_file="/home/mathis/repos/backward_ica/src/stats/distributions.py" source_line=142}
  ROOT %multiply.200 = f64[5,5]{1,0} multiply(f64[5,5]{1,0} %broadcast.1406, f64[5,5]{1,0} %broadcast.1408), metadata={op_name="jit(f)/jit(main)/dot_general[dimension_numbers=(((), ()), ((), ())) precision=None preferred_element_type=None]" source_file="/home/mathis/repos/backward_ica/src/stats/distributions.py" source_line=142}
}

%fused_computation.26 (param_0.73: f64[5,5]) -> f64[5,5] {
  %param_0.73 = f64[5,5]{0,1} parameter(0)
  %copy.273 = f64[5,5]{1,0} copy(f64[5,5]{0,1} %param_0.73), metadata={op_name="jit(f)/jit(main)/transpose(jvp(jit(cholesky)))/triangular_solve[left_side=True lower=True transpose_a=True conjugate_a=False unit_diagonal=False]" source_file="/home/mathis/repos/backward_ica/src/utils/misc.py" source_line=566}
  ROOT %copy.272 = f64[5,5]{0,1} copy(f64[5,5]{1,0} %copy.273), metadata={op_name="jit(f)/jit(main)/transpose(jvp(jit(cholesky)))/triangular_solve[left_side=True lower=True transpose_a=True conjugate_a=False unit_diagonal=False]" source_file="/home/mathis/repos/backward_ica/src/utils/misc.py" source_line=566}
}

%fused_computation.27 (param_0.76: f64[5,5]) -> f64[5,5] {
  %iota.518 = s32[5,5]{1,0} iota(), iota_dimension=0, metadata={op_name="jit(f)/jit(main)/jvp(jit(tril))/iota[dtype=int32 shape=(5, 5) dimension=0]" source_file="/home/mathis/repos/backward_ica/src/utils/misc.py" source_line=566}
  %iota.516 = s32[5,5]{1,0} iota(), iota_dimension=1, metadata={op_name="jit(f)/jit(main)/jvp(jit(tril))/iota[dtype=int32 shape=(5, 5) dimension=1]" source_file="/home/mathis/repos/backward_ica/src/utils/misc.py" source_line=566}
  %compare.209 = pred[5,5]{1,0} compare(s32[5,5]{1,0} %iota.518, s32[5,5]{1,0} %iota.516), direction=GE, metadata={op_name="jit(f)/jit(main)/jvp(jit(tril))/ge" source_file="/home/mathis/repos/backward_ica/src/utils/misc.py" source_line=566}
  %param_0.76 = f64[5,5]{1,0} parameter(0)
  %iota.515 = s32[5,5]{1,0} iota(), iota_dimension=0, metadata={op_name="jit(f)/jit(main)/jvp(jit(_diag))/iota[dtype=int32 shape=(5, 5) dimension=0]" source_file="/home/mathis/repos/backward_ica/src/variational/inference_nets.py" source_line=107}
  %iota.514 = s32[5,5]{1,0} iota(), iota_dimension=1, metadata={op_name="jit(f)/jit(main)/jvp(jit(_diag))/iota[dtype=int32 shape=(5, 5) dimension=1]" source_file="/home/mathis/repos/backward_ica/src/variational/inference_nets.py" source_line=107}
  %compare.208 = pred[5,5]{1,0} compare(s32[5,5]{1,0} %iota.515, s32[5,5]{1,0} %iota.514), direction=EQ, metadata={op_name="jit(f)/jit(main)/jvp(jit(_diag))/eq" source_file="/home/mathis/repos/backward_ica/src/variational/inference_nets.py" source_line=107}
  %convert.35 = f64[5,5]{1,0} convert(pred[5,5]{1,0} %compare.208), metadata={op_name="jit(f)/jit(main)/convert_element_type[new_dtype=float64 weak_type=False]" source_file="/home/mathis/repos/backward_ica/src/utils/misc.py" source_line=571}
  %constant.1073 = f64[] constant(1)
  %broadcast.1409 = f64[5,5]{1,0} broadcast(f64[] %constant.1073), dimensions={}
  %add.298 = f64[5,5]{1,0} add(f64[5,5]{1,0} %convert.35, f64[5,5]{1,0} %broadcast.1409), metadata={op_name="jit(f)/jit(main)/jvp(jit(cholesky))/add" source_file="/home/mathis/repos/backward_ica/src/utils/misc.py" source_line=566}
  %divide.36 = f64[5,5]{1,0} divide(f64[5,5]{1,0} %param_0.76, f64[5,5]{1,0} %add.298), metadata={op_name="jit(f)/jit(main)/transpose(jvp(jit(cholesky)))/div" source_file="/home/mathis/repos/backward_ica/src/utils/misc.py" source_line=566}
  %constant.1072 = f64[] constant(0)
  %broadcast.1410 = f64[5,5]{1,0} broadcast(f64[] %constant.1072), dimensions={}, metadata={op_name="jit(f)/jit(main)/jvp(jit(_diag))/jit(_where)/broadcast_in_dim[shape=(5, 5) broadcast_dimensions=(1,)]" source_file="/home/mathis/repos/backward_ica/src/variational/inference_nets.py" source_line=107}
  %select.400 = f64[5,5]{1,0} select(pred[5,5]{1,0} %compare.209, f64[5,5]{1,0} %divide.36, f64[5,5]{1,0} %broadcast.1410), metadata={op_name="jit(f)/jit(main)/transpose(jvp(jit(cholesky)))/jit(tril)/select_n" source_file="/home/mathis/repos/backward_ica/src/utils/misc.py" source_line=566}
  ROOT %copy.274 = f64[5,5]{0,1} copy(f64[5,5]{1,0} %select.400), metadata={op_name="jit(f)/jit(main)/transpose(jvp(jit(cholesky)))/jit(tril)/select_n" source_file="/home/mathis/repos/backward_ica/src/utils/misc.py" source_line=566}
}

%fused_computation.28 (param_0.78: f64[5,5], param_1.119: f64[5,5]) -> f64[5,5] {
  %iota.521 = s32[5,5]{1,0} iota(), iota_dimension=0, metadata={op_name="jit(f)/jit(main)/jvp(jit(tril))/iota[dtype=int32 shape=(5, 5) dimension=0]" source_file="/home/mathis/repos/backward_ica/src/utils/misc.py" source_line=566}
  %iota.520 = s32[5,5]{1,0} iota(), iota_dimension=1, metadata={op_name="jit(f)/jit(main)/jvp(jit(tril))/iota[dtype=int32 shape=(5, 5) dimension=1]" source_file="/home/mathis/repos/backward_ica/src/utils/misc.py" source_line=566}
  %compare.210 = pred[5,5]{1,0} compare(s32[5,5]{1,0} %iota.521, s32[5,5]{1,0} %iota.520), direction=GE, metadata={op_name="jit(f)/jit(main)/jvp(jit(tril))/ge" source_file="/home/mathis/repos/backward_ica/src/utils/misc.py" source_line=566}
  %param_0.78 = f64[5,5]{1,0} parameter(0)
  %param_1.119 = f64[5,5]{1,0} parameter(1)
  %add.299 = f64[5,5]{1,0} add(f64[5,5]{1,0} %param_0.78, f64[5,5]{1,0} %param_1.119), metadata={op_name="jit(f)/jit(main)/add_any" source_file="/home/mathis/repos/backward_ica/src/utils/misc.py" source_line=563}
  %constant.1074 = f64[] constant(0)
  %broadcast.1411 = f64[5,5]{1,0} broadcast(f64[] %constant.1074), dimensions={}, metadata={op_name="jit(f)/jit(main)/jvp(jit(_diag))/jit(_where)/broadcast_in_dim[shape=(5, 5) broadcast_dimensions=(1,)]" source_file="/home/mathis/repos/backward_ica/src/variational/inference_nets.py" source_line=107}
  ROOT %select.401 = f64[5,5]{1,0} select(pred[5,5]{1,0} %compare.210, f64[5,5]{1,0} %add.299, f64[5,5]{1,0} %broadcast.1411), metadata={op_name="jit(f)/jit(main)/transpose(jvp(jit(cholesky)))/jit(tril)/select_n" source_file="/home/mathis/repos/backward_ica/src/utils/misc.py" source_line=566}
}

%fused_computation.29 (param_0.83: f64[5,5]) -> f64[5,5] {
  %param_0.83 = f64[5,5]{0,1} parameter(0)
  %copy.276 = f64[5,5]{1,0} copy(f64[5,5]{0,1} %param_0.83), metadata={op_name="jit(f)/jit(main)/transpose(jvp(jit(cholesky)))/triangular_solve[left_side=False lower=True transpose_a=False conjugate_a=False unit_diagonal=False]" source_file="/home/mathis/repos/backward_ica/src/utils/misc.py" source_line=566}
  %constant.1075 = f64[] constant(0.5)
  %broadcast.1412 = f64[5,5]{1,0} broadcast(f64[] %constant.1075), dimensions={}
  %multiply.201 = f64[5,5]{1,0} multiply(f64[5,5]{1,0} %copy.276, f64[5,5]{1,0} %broadcast.1412), metadata={op_name="jit(f)/jit(main)/transpose(jvp(jit(cholesky)))/div" source_file="/home/mathis/repos/backward_ica/src/utils/misc.py" source_line=566}
  %transpose.125 = f64[5,5]{0,1} transpose(f64[5,5]{1,0} %multiply.201), dimensions={1,0}, metadata={op_name="jit(f)/jit(main)/transpose(jvp(jit(cholesky)))/transpose[permutation=(1, 0)]" source_file="/home/mathis/repos/backward_ica/src/utils/misc.py" source_line=566}
  %copy.275 = f64[5,5]{1,0} copy(f64[5,5]{0,1} %transpose.125), metadata={op_name="jit(f)/jit(main)/transpose(jvp(jit(cholesky)))/transpose[permutation=(1, 0)]" source_file="/home/mathis/repos/backward_ica/src/utils/misc.py" source_line=566}
  %add.300 = f64[5,5]{1,0} add(f64[5,5]{1,0} %multiply.201, f64[5,5]{1,0} %copy.275), metadata={op_name="jit(f)/jit(main)/transpose(jvp(jit(cholesky)))/add_any" source_file="/home/mathis/repos/backward_ica/src/utils/misc.py" source_line=566}
  ROOT %reverse.0 = f64[5,5]{1,0} reverse(f64[5,5]{1,0} %add.300), dimensions={0,1}, metadata={op_name="jit(f)/jit(main)/rev[dimensions=(0, 1)]" source_file="/home/mathis/repos/backward_ica/src/utils/misc.py" source_line=557}
}

%fused_computation.30 (param_0.85: f64[5,5]) -> f64[5,5] {
  %param_0.85 = f64[5,5]{0,1} parameter(0)
  %copy.278 = f64[5,5]{1,0} copy(f64[5,5]{0,1} %param_0.85), metadata={op_name="jit(f)/jit(main)/transpose(jvp(jit(cholesky)))/triangular_solve[left_side=True lower=True transpose_a=True conjugate_a=False unit_diagonal=False]" source_file="/home/mathis/repos/backward_ica/src/utils/misc.py" source_line=566}
  ROOT %copy.277 = f64[5,5]{0,1} copy(f64[5,5]{1,0} %copy.278), metadata={op_name="jit(f)/jit(main)/transpose(jvp(jit(cholesky)))/triangular_solve[left_side=True lower=True transpose_a=True conjugate_a=False unit_diagonal=False]" source_file="/home/mathis/repos/backward_ica/src/utils/misc.py" source_line=566}
}

%fused_computation.31 (param_0.88: f64[5,5]) -> f64[5,5] {
  %iota.525 = s32[5,5]{1,0} iota(), iota_dimension=0, metadata={op_name="jit(f)/jit(main)/jvp(jit(tril))/iota[dtype=int32 shape=(5, 5) dimension=0]" source_file="/home/mathis/repos/backward_ica/src/utils/misc.py" source_line=566}
  %iota.524 = s32[5,5]{1,0} iota(), iota_dimension=1, metadata={op_name="jit(f)/jit(main)/jvp(jit(tril))/iota[dtype=int32 shape=(5, 5) dimension=1]" source_file="/home/mathis/repos/backward_ica/src/utils/misc.py" source_line=566}
  %compare.212 = pred[5,5]{1,0} compare(s32[5,5]{1,0} %iota.525, s32[5,5]{1,0} %iota.524), direction=GE, metadata={op_name="jit(f)/jit(main)/jvp(jit(tril))/ge" source_file="/home/mathis/repos/backward_ica/src/utils/misc.py" source_line=566}
  %param_0.88 = f64[5,5]{1,0} parameter(0)
  %iota.523 = s32[5,5]{1,0} iota(), iota_dimension=0, metadata={op_name="jit(f)/jit(main)/jvp(jit(_diag))/iota[dtype=int32 shape=(5, 5) dimension=0]" source_file="/home/mathis/repos/backward_ica/src/variational/inference_nets.py" source_line=107}
  %iota.522 = s32[5,5]{1,0} iota(), iota_dimension=1, metadata={op_name="jit(f)/jit(main)/jvp(jit(_diag))/iota[dtype=int32 shape=(5, 5) dimension=1]" source_file="/home/mathis/repos/backward_ica/src/variational/inference_nets.py" source_line=107}
  %compare.211 = pred[5,5]{1,0} compare(s32[5,5]{1,0} %iota.523, s32[5,5]{1,0} %iota.522), direction=EQ, metadata={op_name="jit(f)/jit(main)/jvp(jit(_diag))/eq" source_file="/home/mathis/repos/backward_ica/src/variational/inference_nets.py" source_line=107}
  %convert.36 = f64[5,5]{1,0} convert(pred[5,5]{1,0} %compare.211), metadata={op_name="jit(f)/jit(main)/convert_element_type[new_dtype=float64 weak_type=False]" source_file="/home/mathis/repos/backward_ica/src/utils/misc.py" source_line=571}
  %constant.1077 = f64[] constant(1)
  %broadcast.1414 = f64[5,5]{1,0} broadcast(f64[] %constant.1077), dimensions={}
  %add.301 = f64[5,5]{1,0} add(f64[5,5]{1,0} %convert.36, f64[5,5]{1,0} %broadcast.1414), metadata={op_name="jit(f)/jit(main)/jvp(jit(cholesky))/add" source_file="/home/mathis/repos/backward_ica/src/utils/misc.py" source_line=566}
  %divide.37 = f64[5,5]{1,0} divide(f64[5,5]{1,0} %param_0.88, f64[5,5]{1,0} %add.301), metadata={op_name="jit(f)/jit(main)/transpose(jvp(jit(cholesky)))/div" source_file="/home/mathis/repos/backward_ica/src/utils/misc.py" source_line=566}
  %constant.1076 = f64[] constant(0)
  %broadcast.1415 = f64[5,5]{1,0} broadcast(f64[] %constant.1076), dimensions={}, metadata={op_name="jit(f)/jit(main)/jvp(jit(_diag))/jit(_where)/broadcast_in_dim[shape=(5, 5) broadcast_dimensions=(1,)]" source_file="/home/mathis/repos/backward_ica/src/variational/inference_nets.py" source_line=107}
  %select.402 = f64[5,5]{1,0} select(pred[5,5]{1,0} %compare.212, f64[5,5]{1,0} %divide.37, f64[5,5]{1,0} %broadcast.1415), metadata={op_name="jit(f)/jit(main)/transpose(jvp(jit(cholesky)))/jit(tril)/select_n" source_file="/home/mathis/repos/backward_ica/src/utils/misc.py" source_line=566}
  ROOT %copy.279 = f64[5,5]{0,1} copy(f64[5,5]{1,0} %select.402), metadata={op_name="jit(f)/jit(main)/transpose(jvp(jit(cholesky)))/jit(tril)/select_n" source_file="/home/mathis/repos/backward_ica/src/utils/misc.py" source_line=566}
}

%fused_computation.32 (param_0.90: f64[5,5]) -> f64[5,5] {
  %iota.529 = s32[5,5]{1,0} iota(), iota_dimension=0, metadata={op_name="jit(f)/jit(main)/jvp(jit(tril))/iota[dtype=int32 shape=(5, 5) dimension=0]" source_file="/home/mathis/repos/backward_ica/src/utils/misc.py" source_line=566}
  %iota.527 = s32[5,5]{1,0} iota(), iota_dimension=1, metadata={op_name="jit(f)/jit(main)/jvp(jit(tril))/iota[dtype=int32 shape=(5, 5) dimension=1]" source_file="/home/mathis/repos/backward_ica/src/utils/misc.py" source_line=566}
  %compare.214 = pred[5,5]{1,0} compare(s32[5,5]{1,0} %iota.529, s32[5,5]{1,0} %iota.527), direction=GE, metadata={op_name="jit(f)/jit(main)/jvp(jit(tril))/ge" source_file="/home/mathis/repos/backward_ica/src/utils/misc.py" source_line=566}
  %param_0.90 = f64[5,5]{0,1} parameter(0)
  %copy.281 = f64[5,5]{1,0} copy(f64[5,5]{0,1} %param_0.90), metadata={op_name="jit(f)/jit(main)/transpose(jvp(jit(_solve_triangular)))/triangular_solve[left_side=True lower=True transpose_a=True conjugate_a=False unit_diagonal=False]" source_file="/home/mathis/repos/backward_ica/src/utils/misc.py" source_line=560}
  %negate.53 = f64[5,5]{1,0} negate(f64[5,5]{1,0} %copy.281), metadata={op_name="jit(f)/jit(main)/transpose(jvp(jit(_solve_triangular)))/neg" source_file="/home/mathis/repos/backward_ica/src/utils/misc.py" source_line=560}
  %constant.1078 = f64[] constant(0)
  %broadcast.1416 = f64[5,5]{1,0} broadcast(f64[] %constant.1078), dimensions={}, metadata={op_name="jit(f)/jit(main)/jvp(jit(_diag))/jit(_where)/broadcast_in_dim[shape=(5, 5) broadcast_dimensions=(1,)]" source_file="/home/mathis/repos/backward_ica/src/variational/inference_nets.py" source_line=107}
  %select.404 = f64[5,5]{1,0} select(pred[5,5]{1,0} %compare.214, f64[5,5]{1,0} %negate.53, f64[5,5]{1,0} %broadcast.1416), metadata={op_name="jit(f)/jit(main)/transpose(jvp(jit(_solve_triangular)))/jit(tril)/select_n" source_file="/home/mathis/repos/backward_ica/src/utils/misc.py" source_line=573}
  %transpose.126 = f64[5,5]{0,1} transpose(f64[5,5]{1,0} %select.404), dimensions={1,0}, metadata={op_name="jit(f)/jit(main)/transpose[permutation=(1, 0)]" source_file="/home/mathis/repos/backward_ica/src/utils/misc.py" source_line=556}
  %copy.280 = f64[5,5]{1,0} copy(f64[5,5]{0,1} %transpose.126), metadata={op_name="jit(f)/jit(main)/transpose[permutation=(1, 0)]" source_file="/home/mathis/repos/backward_ica/src/utils/misc.py" source_line=556}
  %reverse.1 = f64[5,5]{1,0} reverse(f64[5,5]{1,0} %copy.280), dimensions={0,1}, metadata={op_name="jit(f)/jit(main)/rev[dimensions=(0, 1)]" source_file="/home/mathis/repos/backward_ica/src/utils/misc.py" source_line=557}
  ROOT %select.403 = f64[5,5]{1,0} select(pred[5,5]{1,0} %compare.214, f64[5,5]{1,0} %reverse.1, f64[5,5]{1,0} %broadcast.1416), metadata={op_name="jit(f)/jit(main)/transpose(jvp(jit(cholesky)))/jit(tril)/select_n" source_file="/home/mathis/repos/backward_ica/src/utils/misc.py" source_line=566}
}

%fused_computation.33 (param_0.93: f64[5], param_1.139: f64[5], param_2.131: f64[5], param_3.115: u32[5], param_4.93: u32[5]) -> f64[5,5] {
  %param_0.93 = f64[5]{0} parameter(0)
  %broadcast.1417 = f64[5,5]{1,0} broadcast(f64[5]{0} %param_0.93), dimensions={0}, metadata={op_name="jit(f)/jit(main)/dot_general[dimension_numbers=(((), ()), ((), ())) precision=None preferred_element_type=None]" source_file="/home/mathis/repos/backward_ica/src/stats/distributions.py" source_line=207}
  %constant.1161 = f64[] constant(-0.99999999999999989)
  %broadcast.1495 = f64[5]{0} broadcast(f64[] %constant.1161), dimensions={}, metadata={op_name="jit(f)/jit(main)/jvp(jit(_normal))/jit(_normal_real)/jit(_uniform)/max" source_file="/home/mathis/repos/backward_ica/src/stats/distributions.py" source_line=207}
  %param_4.93 = u32[5]{0} parameter(4)
  %convert.38 = u64[5]{0} convert(u32[5]{0} %param_4.93), metadata={op_name="jit(f)/jit(main)/jvp(jit(_normal))/jit(_normal_real)/jit(_uniform)/convert_element_type[new_dtype=uint64 weak_type=False]" source_file="/home/mathis/repos/backward_ica/src/stats/distributions.py" source_line=207}
  %constant.1160 = u64[] constant(32)
  %broadcast.1494 = u64[5]{0} broadcast(u64[] %constant.1160), dimensions={}
  %shift-left.37 = u64[5]{0} shift-left(u64[5]{0} %convert.38, u64[5]{0} %broadcast.1494), metadata={op_name="jit(f)/jit(main)/jvp(jit(_normal))/jit(_normal_real)/jit(_uniform)/shift_left" source_file="/home/mathis/repos/backward_ica/src/stats/distributions.py" source_line=207}
  %param_3.115 = u32[5]{0} parameter(3)
  %convert.37 = u64[5]{0} convert(u32[5]{0} %param_3.115), metadata={op_name="jit(f)/jit(main)/jvp(jit(_normal))/jit(_normal_real)/jit(_uniform)/convert_element_type[new_dtype=uint64 weak_type=False]" source_file="/home/mathis/repos/backward_ica/src/stats/distributions.py" source_line=207}
  %or.44 = u64[5]{0} or(u64[5]{0} %shift-left.37, u64[5]{0} %convert.37), metadata={op_name="jit(f)/jit(main)/jvp(jit(_normal))/jit(_normal_real)/jit(_uniform)/or" source_file="/home/mathis/repos/backward_ica/src/stats/distributions.py" source_line=207}
  %constant.1159 = u64[] constant(12)
  %broadcast.1493 = u64[5]{0} broadcast(u64[] %constant.1159), dimensions={}
  %shift-right-logical.37 = u64[5]{0} shift-right-logical(u64[5]{0} %or.44, u64[5]{0} %broadcast.1493), metadata={op_name="jit(f)/jit(main)/jvp(jit(_normal))/jit(_normal_real)/jit(_uniform)/shift_right_logical" source_file="/home/mathis/repos/backward_ica/src/stats/distributions.py" source_line=207}
  %constant.1158 = u64[] constant(4607182418800017408)
  %broadcast.1492 = u64[5]{0} broadcast(u64[] %constant.1158), dimensions={}
  %or.43 = u64[5]{0} or(u64[5]{0} %shift-right-logical.37, u64[5]{0} %broadcast.1492), metadata={op_name="jit(f)/jit(main)/jvp(jit(_normal))/jit(_normal_real)/jit(_uniform)/or" source_file="/home/mathis/repos/backward_ica/src/stats/distributions.py" source_line=207}
  %bitcast-convert.6 = f64[5]{0} bitcast-convert(u64[5]{0} %or.43), metadata={op_name="jit(f)/jit(main)/jvp(jit(_normal))/jit(_normal_real)/jit(_uniform)/bitcast_convert_type[new_dtype=float64]" source_file="/home/mathis/repos/backward_ica/src/stats/distributions.py" source_line=207}
  %constant.1153 = f64[] constant(-1)
  %broadcast.1491 = f64[5]{0} broadcast(f64[] %constant.1153), dimensions={}
  %add.326 = f64[5]{0} add(f64[5]{0} %bitcast-convert.6, f64[5]{0} %broadcast.1491), metadata={op_name="jit(f)/jit(main)/jvp(jit(_normal))/jit(_normal_real)/jit(_uniform)/sub" source_file="/home/mathis/repos/backward_ica/src/stats/distributions.py" source_line=207}
  %constant.1152 = f64[] constant(2)
  %broadcast.1490 = f64[5]{0} broadcast(f64[] %constant.1152), dimensions={}, metadata={op_name="jit(f)/jit(main)/jvp(jit(_normal))/jit(_normal_real)/jit(_uniform)/mul" source_file="/home/mathis/repos/backward_ica/src/stats/distributions.py" source_line=207}
  %multiply.228 = f64[5]{0} multiply(f64[5]{0} %add.326, f64[5]{0} %broadcast.1490), metadata={op_name="jit(f)/jit(main)/jvp(jit(_normal))/jit(_normal_real)/jit(_uniform)/mul" source_file="/home/mathis/repos/backward_ica/src/stats/distributions.py" source_line=207}
  %add.325 = f64[5]{0} add(f64[5]{0} %multiply.228, f64[5]{0} %broadcast.1495), metadata={op_name="jit(f)/jit(main)/jvp(jit(_normal))/jit(_normal_real)/jit(_uniform)/add" source_file="/home/mathis/repos/backward_ica/src/stats/distributions.py" source_line=207}
  %maximum.11 = f64[5]{0} maximum(f64[5]{0} %broadcast.1495, f64[5]{0} %add.325), metadata={op_name="jit(f)/jit(main)/jvp(jit(_normal))/jit(_normal_real)/jit(_uniform)/max" source_file="/home/mathis/repos/backward_ica/src/stats/distributions.py" source_line=207}
  %abs.8 = f64[5]{0} abs(f64[5]{0} %maximum.11), metadata={op_name="jit(f)/jit(main)/jvp(jit(_normal))/jit(_normal_real)/erf_inv" source_file="/home/mathis/repos/backward_ica/src/stats/distributions.py" source_line=207}
  %constant.1162 = f64[] constant(1)
  %broadcast.1489 = f64[5]{0} broadcast(f64[] %constant.1162), dimensions={}
  %compare.217 = pred[5]{0} compare(f64[5]{0} %abs.8, f64[5]{0} %broadcast.1489), direction=EQ, metadata={op_name="jit(f)/jit(main)/jvp(jit(_normal))/jit(_normal_real)/erf_inv" source_file="/home/mathis/repos/backward_ica/src/stats/distributions.py" source_line=207}
  %constant.1151 = f64[] constant(inf)
  %broadcast.1488 = f64[5]{0} broadcast(f64[] %constant.1151), dimensions={}
  %multiply.227 = f64[5]{0} multiply(f64[5]{0} %maximum.11, f64[5]{0} %broadcast.1488), metadata={op_name="jit(f)/jit(main)/jvp(jit(_normal))/jit(_normal_real)/erf_inv" source_file="/home/mathis/repos/backward_ica/src/stats/distributions.py" source_line=207}
  %param_2.131 = f64[5]{0} parameter(2)
  %negate.54 = f64[5]{0} negate(f64[5]{0} %param_2.131), metadata={op_name="jit(f)/jit(main)/jvp(jit(_normal))/jit(_normal_real)/erf_inv" source_file="/home/mathis/repos/backward_ica/src/stats/distributions.py" source_line=207}
  %constant.1150 = f64[] constant(6.25)
  %broadcast.1487 = f64[5]{0} broadcast(f64[] %constant.1150), dimensions={}
  %compare.216 = pred[5]{0} compare(f64[5]{0} %negate.54, f64[5]{0} %broadcast.1487), direction=LT, metadata={op_name="jit(f)/jit(main)/jvp(jit(_normal))/jit(_normal_real)/erf_inv" source_file="/home/mathis/repos/backward_ica/src/stats/distributions.py" source_line=207}
  %constant.1149 = f64[] constant(16)
  %broadcast.1486 = f64[5]{0} broadcast(f64[] %constant.1149), dimensions={}
  %compare.215 = pred[5]{0} compare(f64[5]{0} %negate.54, f64[5]{0} %broadcast.1486), direction=LT, metadata={op_name="jit(f)/jit(main)/jvp(jit(_normal))/jit(_normal_real)/erf_inv" source_file="/home/mathis/repos/backward_ica/src/stats/distributions.py" source_line=207}
  %constant.1148 = f64[] constant(0.00018673420803405714)
  %broadcast.1485 = f64[5]{0} broadcast(f64[] %constant.1148), dimensions={}
  %constant.1147 = f64[] constant(3.0838856104922208)
  %broadcast.1484 = f64[5]{0} broadcast(f64[] %constant.1147), dimensions={}
  %select.452 = f64[5]{0} select(pred[5]{0} %compare.216, f64[5]{0} %broadcast.1485, f64[5]{0} %broadcast.1484), metadata={op_name="jit(f)/jit(main)/jvp(jit(_normal))/jit(_normal_real)/erf_inv" source_file="/home/mathis/repos/backward_ica/src/stats/distributions.py" source_line=207}
  %constant.1146 = f64[] constant(-1.3882523362786469e-05)
  %broadcast.1483 = f64[5]{0} broadcast(f64[] %constant.1146), dimensions={}
  %constant.1145 = f64[] constant(1.0052589676941592)
  %broadcast.1482 = f64[5]{0} broadcast(f64[] %constant.1145), dimensions={}
  %select.451 = f64[5]{0} select(pred[5]{0} %compare.216, f64[5]{0} %broadcast.1483, f64[5]{0} %broadcast.1482), metadata={op_name="jit(f)/jit(main)/jvp(jit(_normal))/jit(_normal_real)/erf_inv" source_file="/home/mathis/repos/backward_ica/src/stats/distributions.py" source_line=207}
  %constant.1144 = f64[] constant(-1.3654692000834679e-06)
  %broadcast.1481 = f64[5]{0} broadcast(f64[] %constant.1144), dimensions={}
  %constant.1143 = f64[] constant(0.0053709145535900636)
  %broadcast.1480 = f64[5]{0} broadcast(f64[] %constant.1143), dimensions={}
  %select.450 = f64[5]{0} select(pred[5]{0} %compare.216, f64[5]{0} %broadcast.1481, f64[5]{0} %broadcast.1480), metadata={op_name="jit(f)/jit(main)/jvp(jit(_normal))/jit(_normal_real)/erf_inv" source_file="/home/mathis/repos/backward_ica/src/stats/distributions.py" source_line=207}
  %constant.1142 = f64[] constant(4.8499064014085844)
  %broadcast.1478 = f64[5]{0} broadcast(f64[] %constant.1142), dimensions={}
  %select.449 = f64[5]{0} select(pred[5]{0} %compare.215, f64[5]{0} %select.450, f64[5]{0} %broadcast.1478), metadata={op_name="jit(f)/jit(main)/jvp(jit(_normal))/jit(_normal_real)/erf_inv" source_file="/home/mathis/repos/backward_ica/src/stats/distributions.py" source_line=207}
  %constant.1141 = f64[] constant(4.2347877827932404e-07)
  %broadcast.1477 = f64[5]{0} broadcast(f64[] %constant.1141), dimensions={}
  %constant.1140 = f64[] constant(-0.0037512085075692412)
  %broadcast.1476 = f64[5]{0} broadcast(f64[] %constant.1140), dimensions={}
  %select.447 = f64[5]{0} select(pred[5]{0} %compare.216, f64[5]{0} %broadcast.1477, f64[5]{0} %broadcast.1476), metadata={op_name="jit(f)/jit(main)/jvp(jit(_normal))/jit(_normal_real)/erf_inv" source_file="/home/mathis/repos/backward_ica/src/stats/distributions.py" source_line=207}
  %constant.1139 = f64[] constant(1.0103004648645344)
  %broadcast.1475 = f64[5]{0} broadcast(f64[] %constant.1139), dimensions={}
  %select.446 = f64[5]{0} select(pred[5]{0} %compare.215, f64[5]{0} %select.447, f64[5]{0} %broadcast.1475), metadata={op_name="jit(f)/jit(main)/jvp(jit(_normal))/jit(_normal_real)/erf_inv" source_file="/home/mathis/repos/backward_ica/src/stats/distributions.py" source_line=207}
  %constant.1138 = f64[] constant(-2.9070369957882005e-08)
  %broadcast.1474 = f64[5]{0} broadcast(f64[] %constant.1138), dimensions={}
  %constant.1137 = f64[] constant(0.0024914420961078508)
  %broadcast.1473 = f64[5]{0} broadcast(f64[] %constant.1137), dimensions={}
  %select.445 = f64[5]{0} select(pred[5]{0} %compare.216, f64[5]{0} %broadcast.1474, f64[5]{0} %broadcast.1473), metadata={op_name="jit(f)/jit(main)/jvp(jit(_normal))/jit(_normal_real)/erf_inv" source_file="/home/mathis/repos/backward_ica/src/stats/distributions.py" source_line=207}
  %constant.1136 = f64[] constant(-0.00013871931833623122)
  %broadcast.1472 = f64[5]{0} broadcast(f64[] %constant.1136), dimensions={}
  %select.444 = f64[5]{0} select(pred[5]{0} %compare.215, f64[5]{0} %select.445, f64[5]{0} %broadcast.1472), metadata={op_name="jit(f)/jit(main)/jvp(jit(_normal))/jit(_normal_real)/erf_inv" source_file="/home/mathis/repos/backward_ica/src/stats/distributions.py" source_line=207}
  %constant.1135 = f64[] constant(-4.1126339803469837e-09)
  %broadcast.1471 = f64[5]{0} broadcast(f64[] %constant.1135), dimensions={}
  %constant.1134 = f64[] constant(-0.0016882755560235047)
  %broadcast.1470 = f64[5]{0} broadcast(f64[] %constant.1134), dimensions={}
  %select.443 = f64[5]{0} select(pred[5]{0} %compare.216, f64[5]{0} %broadcast.1471, f64[5]{0} %broadcast.1470), metadata={op_name="jit(f)/jit(main)/jvp(jit(_normal))/jit(_normal_real)/erf_inv" source_file="/home/mathis/repos/backward_ica/src/stats/distributions.py" source_line=207}
  %constant.1133 = f64[] constant(-0.00021503011930044477)
  %broadcast.1469 = f64[5]{0} broadcast(f64[] %constant.1133), dimensions={}
  %select.442 = f64[5]{0} select(pred[5]{0} %compare.215, f64[5]{0} %select.443, f64[5]{0} %broadcast.1469), metadata={op_name="jit(f)/jit(main)/jvp(jit(_normal))/jit(_normal_real)/erf_inv" source_file="/home/mathis/repos/backward_ica/src/stats/distributions.py" source_line=207}
  %constant.1132 = f64[] constant(1.0512122733215323e-09)
  %broadcast.1468 = f64[5]{0} broadcast(f64[] %constant.1132), dimensions={}
  %constant.1131 = f64[] constant(0.0009532893797373805)
  %broadcast.1467 = f64[5]{0} broadcast(f64[] %constant.1131), dimensions={}
  %select.441 = f64[5]{0} select(pred[5]{0} %compare.216, f64[5]{0} %broadcast.1468, f64[5]{0} %broadcast.1467), metadata={op_name="jit(f)/jit(main)/jvp(jit(_normal))/jit(_normal_real)/erf_inv" source_file="/home/mathis/repos/backward_ica/src/stats/distributions.py" source_line=207}
  %constant.1130 = f64[] constant(7.5995277030017761e-05)
  %broadcast.1466 = f64[5]{0} broadcast(f64[] %constant.1130), dimensions={}
  %select.440 = f64[5]{0} select(pred[5]{0} %compare.215, f64[5]{0} %select.441, f64[5]{0} %broadcast.1466), metadata={op_name="jit(f)/jit(main)/jvp(jit(_normal))/jit(_normal_real)/erf_inv" source_file="/home/mathis/repos/backward_ica/src/stats/distributions.py" source_line=207}
  %constant.1129 = f64[] constant(-5.4154120542946279e-11)
  %broadcast.1465 = f64[5]{0} broadcast(f64[] %constant.1129), dimensions={}
  %constant.1128 = f64[] constant(-0.00035503752036284748)
  %broadcast.1464 = f64[5]{0} broadcast(f64[] %constant.1128), dimensions={}
  %select.439 = f64[5]{0} select(pred[5]{0} %compare.216, f64[5]{0} %broadcast.1465, f64[5]{0} %broadcast.1464), metadata={op_name="jit(f)/jit(main)/jvp(jit(_normal))/jit(_normal_real)/erf_inv" source_file="/home/mathis/repos/backward_ica/src/stats/distributions.py" source_line=207}
  %constant.1127 = f64[] constant(-1.9681778105531671e-05)
  %broadcast.1463 = f64[5]{0} broadcast(f64[] %constant.1127), dimensions={}
  %select.438 = f64[5]{0} select(pred[5]{0} %compare.215, f64[5]{0} %select.439, f64[5]{0} %broadcast.1463), metadata={op_name="jit(f)/jit(main)/jvp(jit(_normal))/jit(_normal_real)/erf_inv" source_file="/home/mathis/repos/backward_ica/src/stats/distributions.py" source_line=207}
  %constant.1126 = f64[] constant(-1.2975133253453532e-11)
  %broadcast.1462 = f64[5]{0} broadcast(f64[] %constant.1126), dimensions={}
  %constant.1125 = f64[] constant(2.4031110387097894e-05)
  %broadcast.1461 = f64[5]{0} broadcast(f64[] %constant.1125), dimensions={}
  %select.437 = f64[5]{0} select(pred[5]{0} %compare.216, f64[5]{0} %broadcast.1462, f64[5]{0} %broadcast.1461), metadata={op_name="jit(f)/jit(main)/jvp(jit(_normal))/jit(_normal_real)/erf_inv" source_file="/home/mathis/repos/backward_ica/src/stats/distributions.py" source_line=207}
  %constant.1124 = f64[] constant(4.5260625972231537e-06)
  %broadcast.1460 = f64[5]{0} broadcast(f64[] %constant.1124), dimensions={}
  %select.436 = f64[5]{0} select(pred[5]{0} %compare.215, f64[5]{0} %select.437, f64[5]{0} %broadcast.1460), metadata={op_name="jit(f)/jit(main)/jvp(jit(_normal))/jit(_normal_real)/erf_inv" source_file="/home/mathis/repos/backward_ica/src/stats/distributions.py" source_line=207}
  %constant.1123 = f64[] constant(2.6335093153082323e-12)
  %broadcast.1459 = f64[5]{0} broadcast(f64[] %constant.1123), dimensions={}
  %constant.1122 = f64[] constant(6.8284851459573175e-05)
  %broadcast.1458 = f64[5]{0} broadcast(f64[] %constant.1122), dimensions={}
  %select.435 = f64[5]{0} select(pred[5]{0} %compare.216, f64[5]{0} %broadcast.1459, f64[5]{0} %broadcast.1458), metadata={op_name="jit(f)/jit(main)/jvp(jit(_normal))/jit(_normal_real)/erf_inv" source_file="/home/mathis/repos/backward_ica/src/stats/distributions.py" source_line=207}
  %constant.1121 = f64[] constant(-9.9298272942317e-07)
  %broadcast.1456 = f64[5]{0} broadcast(f64[] %constant.1121), dimensions={}
  %select.434 = f64[5]{0} select(pred[5]{0} %compare.215, f64[5]{0} %select.435, f64[5]{0} %broadcast.1456), metadata={op_name="jit(f)/jit(main)/jvp(jit(_normal))/jit(_normal_real)/erf_inv" source_file="/home/mathis/repos/backward_ica/src/stats/distributions.py" source_line=207}
  %constant.1120 = f64[] constant(-8.1519341976054722e-14)
  %broadcast.1455 = f64[5]{0} broadcast(f64[] %constant.1120), dimensions={}
  %constant.1119 = f64[] constant(-4.7318229009055734e-05)
  %broadcast.1454 = f64[5]{0} broadcast(f64[] %constant.1119), dimensions={}
  %select.433 = f64[5]{0} select(pred[5]{0} %compare.216, f64[5]{0} %broadcast.1455, f64[5]{0} %broadcast.1454), metadata={op_name="jit(f)/jit(main)/jvp(jit(_normal))/jit(_normal_real)/erf_inv" source_file="/home/mathis/repos/backward_ica/src/stats/distributions.py" source_line=207}
  %constant.1118 = f64[] constant(2.2900482228026655e-07)
  %broadcast.1453 = f64[5]{0} broadcast(f64[] %constant.1118), dimensions={}
  %select.432 = f64[5]{0} select(pred[5]{0} %compare.215, f64[5]{0} %select.433, f64[5]{0} %broadcast.1453), metadata={op_name="jit(f)/jit(main)/jvp(jit(_normal))/jit(_normal_real)/erf_inv" source_file="/home/mathis/repos/backward_ica/src/stats/distributions.py" source_line=207}
  %constant.1117 = f64[] constant(-4.0545662729752069e-14)
  %broadcast.1452 = f64[5]{0} broadcast(f64[] %constant.1117), dimensions={}
  %constant.1116 = f64[] constant(1.2475304481671779e-05)
  %broadcast.1451 = f64[5]{0} broadcast(f64[] %constant.1116), dimensions={}
  %select.431 = f64[5]{0} select(pred[5]{0} %compare.216, f64[5]{0} %broadcast.1452, f64[5]{0} %broadcast.1451), metadata={op_name="jit(f)/jit(main)/jvp(jit(_normal))/jit(_normal_real)/erf_inv" source_file="/home/mathis/repos/backward_ica/src/stats/distributions.py" source_line=207}
  %constant.1115 = f64[] constant(-6.7711997758452339e-08)
  %broadcast.1450 = f64[5]{0} broadcast(f64[] %constant.1115), dimensions={}
  %select.430 = f64[5]{0} select(pred[5]{0} %compare.215, f64[5]{0} %select.431, f64[5]{0} %broadcast.1450), metadata={op_name="jit(f)/jit(main)/jvp(jit(_normal))/jit(_normal_real)/erf_inv" source_file="/home/mathis/repos/backward_ica/src/stats/distributions.py" source_line=207}
  %constant.1114 = f64[] constant(6.6376381343583238e-15)
  %broadcast.1449 = f64[5]{0} broadcast(f64[] %constant.1114), dimensions={}
  %constant.1113 = f64[] constant(2.9234449089955446e-06)
  %broadcast.1447 = f64[5]{0} broadcast(f64[] %constant.1113), dimensions={}
  %select.429 = f64[5]{0} select(pred[5]{0} %compare.216, f64[5]{0} %broadcast.1449, f64[5]{0} %broadcast.1447), metadata={op_name="jit(f)/jit(main)/jvp(jit(_normal))/jit(_normal_real)/erf_inv" source_file="/home/mathis/repos/backward_ica/src/stats/distributions.py" source_line=207}
  %constant.1112 = f64[] constant(2.9147953450901081e-08)
  %broadcast.1446 = f64[5]{0} broadcast(f64[] %constant.1112), dimensions={}
  %select.428 = f64[5]{0} select(pred[5]{0} %compare.215, f64[5]{0} %select.429, f64[5]{0} %broadcast.1446), metadata={op_name="jit(f)/jit(main)/jvp(jit(_normal))/jit(_normal_real)/erf_inv" source_file="/home/mathis/repos/backward_ica/src/stats/distributions.py" source_line=207}
  %constant.1111 = f64[] constant(2.0972767875968562e-17)
  %broadcast.1445 = f64[5]{0} broadcast(f64[] %constant.1111), dimensions={}
  %constant.1110 = f64[] constant(-4.013867526981546e-06)
  %broadcast.1444 = f64[5]{0} broadcast(f64[] %constant.1110), dimensions={}
  %select.427 = f64[5]{0} select(pred[5]{0} %compare.216, f64[5]{0} %broadcast.1445, f64[5]{0} %broadcast.1444), metadata={op_name="jit(f)/jit(main)/jvp(jit(_normal))/jit(_normal_real)/erf_inv" source_file="/home/mathis/repos/backward_ica/src/stats/distributions.py" source_line=207}
  %constant.1109 = f64[] constant(-1.496002662714924e-08)
  %broadcast.1443 = f64[5]{0} broadcast(f64[] %constant.1109), dimensions={}
  %select.426 = f64[5]{0} select(pred[5]{0} %compare.215, f64[5]{0} %select.427, f64[5]{0} %broadcast.1443), metadata={op_name="jit(f)/jit(main)/jvp(jit(_normal))/jit(_normal_real)/erf_inv" source_file="/home/mathis/repos/backward_ica/src/stats/distributions.py" source_line=207}
  %constant.1108 = f64[] constant(-1.3331716628546209e-16)
  %broadcast.1441 = f64[5]{0} broadcast(f64[] %constant.1108), dimensions={}
  %constant.1107 = f64[] constant(1.5027403968909828e-06)
  %broadcast.1440 = f64[5]{0} broadcast(f64[] %constant.1107), dimensions={}
  %select.425 = f64[5]{0} select(pred[5]{0} %compare.216, f64[5]{0} %broadcast.1441, f64[5]{0} %broadcast.1440), metadata={op_name="jit(f)/jit(main)/jvp(jit(_normal))/jit(_normal_real)/erf_inv" source_file="/home/mathis/repos/backward_ica/src/stats/distributions.py" source_line=207}
  %constant.1106 = f64[] constant(7.61570120807834e-09)
  %broadcast.1439 = f64[5]{0} broadcast(f64[] %constant.1106), dimensions={}
  %select.423 = f64[5]{0} select(pred[5]{0} %compare.215, f64[5]{0} %select.425, f64[5]{0} %broadcast.1439), metadata={op_name="jit(f)/jit(main)/jvp(jit(_normal))/jit(_normal_real)/erf_inv" source_file="/home/mathis/repos/backward_ica/src/stats/distributions.py" source_line=207}
  %constant.1105 = f64[] constant(1.1157877678025181e-17)
  %broadcast.1438 = f64[5]{0} broadcast(f64[] %constant.1105), dimensions={}
  %constant.1104 = f64[] constant(1.8239629214389228e-08)
  %broadcast.1437 = f64[5]{0} broadcast(f64[] %constant.1104), dimensions={}
  %select.422 = f64[5]{0} select(pred[5]{0} %compare.216, f64[5]{0} %broadcast.1438, f64[5]{0} %broadcast.1437), metadata={op_name="jit(f)/jit(main)/jvp(jit(_normal))/jit(_normal_real)/erf_inv" source_file="/home/mathis/repos/backward_ica/src/stats/distributions.py" source_line=207}
  %constant.1103 = f64[] constant(-3.789465440126737e-09)
  %broadcast.1436 = f64[5]{0} broadcast(f64[] %constant.1103), dimensions={}
  %select.421 = f64[5]{0} select(pred[5]{0} %compare.215, f64[5]{0} %select.422, f64[5]{0} %broadcast.1436), metadata={op_name="jit(f)/jit(main)/jvp(jit(_normal))/jit(_normal_real)/erf_inv" source_file="/home/mathis/repos/backward_ica/src/stats/distributions.py" source_line=207}
  %constant.1102 = f64[] constant(1.28584807152564e-18)
  %broadcast.1435 = f64[5]{0} broadcast(f64[] %constant.1102), dimensions={}
  %constant.1098 = f64[] constant(-2.7517406297064545e-07)
  %broadcast.1434 = f64[5]{0} broadcast(f64[] %constant.1098), dimensions={}
  %select.420 = f64[5]{0} select(pred[5]{0} %compare.216, f64[5]{0} %broadcast.1435, f64[5]{0} %broadcast.1434), metadata={op_name="jit(f)/jit(main)/jvp(jit(_normal))/jit(_normal_real)/erf_inv" source_file="/home/mathis/repos/backward_ica/src/stats/distributions.py" source_line=207}
  %constant.1096 = f64[] constant(1.5076572693500548e-09)
  %broadcast.1433 = f64[5]{0} broadcast(f64[] %constant.1096), dimensions={}
  %select.419 = f64[5]{0} select(pred[5]{0} %compare.215, f64[5]{0} %select.420, f64[5]{0} %broadcast.1433), metadata={op_name="jit(f)/jit(main)/jvp(jit(_normal))/jit(_normal_real)/erf_inv" source_file="/home/mathis/repos/backward_ica/src/stats/distributions.py" source_line=207}
  %constant.1094 = f64[] constant(-1.6850591381820166e-19)
  %broadcast.1432 = f64[5]{0} broadcast(f64[] %constant.1094), dimensions={}
  %constant.1092 = f64[] constant(9.0756561938885391e-08)
  %broadcast.1431 = f64[5]{0} broadcast(f64[] %constant.1092), dimensions={}
  %select.418 = f64[5]{0} select(pred[5]{0} %compare.216, f64[5]{0} %broadcast.1432, f64[5]{0} %broadcast.1431), metadata={op_name="jit(f)/jit(main)/jvp(jit(_normal))/jit(_normal_real)/erf_inv" source_file="/home/mathis/repos/backward_ica/src/stats/distributions.py" source_line=207}
  %constant.1091 = f64[] constant(-2.5556418169965252e-10)
  %broadcast.1430 = f64[5]{0} broadcast(f64[] %constant.1091), dimensions={}
  %select.417 = f64[5]{0} select(pred[5]{0} %compare.215, f64[5]{0} %select.418, f64[5]{0} %broadcast.1430), metadata={op_name="jit(f)/jit(main)/jvp(jit(_normal))/jit(_normal_real)/erf_inv" source_file="/home/mathis/repos/backward_ica/src/stats/distributions.py" source_line=207}
  %constant.1090 = f64[] constant(-3.64441206401782e-21)
  %broadcast.1429 = f64[5]{0} broadcast(f64[] %constant.1090), dimensions={}
  %constant.1089 = f64[] constant(2.2137376921775787e-09)
  %broadcast.1428 = f64[5]{0} broadcast(f64[] %constant.1089), dimensions={}
  %select.416 = f64[5]{0} select(pred[5]{0} %compare.216, f64[5]{0} %broadcast.1429, f64[5]{0} %broadcast.1428), metadata={op_name="jit(f)/jit(main)/jvp(jit(_normal))/jit(_normal_real)/erf_inv" source_file="/home/mathis/repos/backward_ica/src/stats/distributions.py" source_line=207}
  %constant.1088 = f64[] constant(-2.7109920616438573e-11)
  %broadcast.1427 = f64[5]{0} broadcast(f64[] %constant.1088), dimensions={}
  %select.415 = f64[5]{0} select(pred[5]{0} %compare.215, f64[5]{0} %select.416, f64[5]{0} %broadcast.1427), metadata={op_name="jit(f)/jit(main)/jvp(jit(_normal))/jit(_normal_real)/erf_inv" source_file="/home/mathis/repos/backward_ica/src/stats/distributions.py" source_line=207}
  %constant.1087 = f64[] constant(-3.125)
  %broadcast.1426 = f64[5]{0} broadcast(f64[] %constant.1087), dimensions={}
  %add.324 = f64[5]{0} add(f64[5]{0} %negate.54, f64[5]{0} %broadcast.1426), metadata={op_name="jit(f)/jit(main)/jvp(jit(_normal))/jit(_normal_real)/erf_inv" source_file="/home/mathis/repos/backward_ica/src/stats/distributions.py" source_line=207}
  %param_1.139 = f64[5]{0} parameter(1)
  %constant.1086 = f64[] constant(3.25)
  %broadcast.1425 = f64[5]{0} broadcast(f64[] %constant.1086), dimensions={}
  %constant.1085 = f64[] constant(5)
  %broadcast.1424 = f64[5]{0} broadcast(f64[] %constant.1085), dimensions={}
  %select.414 = f64[5]{0} select(pred[5]{0} %compare.215, f64[5]{0} %broadcast.1425, f64[5]{0} %broadcast.1424), metadata={op_name="jit(f)/jit(main)/jvp(jit(_normal))/jit(_normal_real)/erf_inv" source_file="/home/mathis/repos/backward_ica/src/stats/distributions.py" source_line=207}
  %subtract.60 = f64[5]{0} subtract(f64[5]{0} %param_1.139, f64[5]{0} %select.414), metadata={op_name="jit(f)/jit(main)/jvp(jit(_normal))/jit(_normal_real)/erf_inv" source_file="/home/mathis/repos/backward_ica/src/stats/distributions.py" source_line=207}
  %select.413 = f64[5]{0} select(pred[5]{0} %compare.216, f64[5]{0} %add.324, f64[5]{0} %subtract.60), metadata={op_name="jit(f)/jit(main)/jvp(jit(_normal))/jit(_normal_real)/erf_inv" source_file="/home/mathis/repos/backward_ica/src/stats/distributions.py" source_line=207}
  %multiply.226 = f64[5]{0} multiply(f64[5]{0} %select.415, f64[5]{0} %select.413), metadata={op_name="jit(f)/jit(main)/jvp(jit(_normal))/jit(_normal_real)/erf_inv" source_file="/home/mathis/repos/backward_ica/src/stats/distributions.py" source_line=207}
  %add.323 = f64[5]{0} add(f64[5]{0} %select.417, f64[5]{0} %multiply.226), metadata={op_name="jit(f)/jit(main)/jvp(jit(_normal))/jit(_normal_real)/erf_inv" source_file="/home/mathis/repos/backward_ica/src/stats/distributions.py" source_line=207}
  %multiply.225 = f64[5]{0} multiply(f64[5]{0} %add.323, f64[5]{0} %select.413), metadata={op_name="jit(f)/jit(main)/jvp(jit(_normal))/jit(_normal_real)/erf_inv" source_file="/home/mathis/repos/backward_ica/src/stats/distributions.py" source_line=207}
  %add.322 = f64[5]{0} add(f64[5]{0} %select.419, f64[5]{0} %multiply.225), metadata={op_name="jit(f)/jit(main)/jvp(jit(_normal))/jit(_normal_real)/erf_inv" source_file="/home/mathis/repos/backward_ica/src/stats/distributions.py" source_line=207}
  %multiply.224 = f64[5]{0} multiply(f64[5]{0} %add.322, f64[5]{0} %select.413), metadata={op_name="jit(f)/jit(main)/jvp(jit(_normal))/jit(_normal_real)/erf_inv" source_file="/home/mathis/repos/backward_ica/src/stats/distributions.py" source_line=207}
  %add.321 = f64[5]{0} add(f64[5]{0} %select.421, f64[5]{0} %multiply.224), metadata={op_name="jit(f)/jit(main)/jvp(jit(_normal))/jit(_normal_real)/erf_inv" source_file="/home/mathis/repos/backward_ica/src/stats/distributions.py" source_line=207}
  %multiply.223 = f64[5]{0} multiply(f64[5]{0} %add.321, f64[5]{0} %select.413), metadata={op_name="jit(f)/jit(main)/jvp(jit(_normal))/jit(_normal_real)/erf_inv" source_file="/home/mathis/repos/backward_ica/src/stats/distributions.py" source_line=207}
  %add.320 = f64[5]{0} add(f64[5]{0} %select.423, f64[5]{0} %multiply.223), metadata={op_name="jit(f)/jit(main)/jvp(jit(_normal))/jit(_normal_real)/erf_inv" source_file="/home/mathis/repos/backward_ica/src/stats/distributions.py" source_line=207}
  %multiply.222 = f64[5]{0} multiply(f64[5]{0} %add.320, f64[5]{0} %select.413), metadata={op_name="jit(f)/jit(main)/jvp(jit(_normal))/jit(_normal_real)/erf_inv" source_file="/home/mathis/repos/backward_ica/src/stats/distributions.py" source_line=207}
  %add.319 = f64[5]{0} add(f64[5]{0} %select.426, f64[5]{0} %multiply.222), metadata={op_name="jit(f)/jit(main)/jvp(jit(_normal))/jit(_normal_real)/erf_inv" source_file="/home/mathis/repos/backward_ica/src/stats/distributions.py" source_line=207}
  %multiply.221 = f64[5]{0} multiply(f64[5]{0} %add.319, f64[5]{0} %select.413), metadata={op_name="jit(f)/jit(main)/jvp(jit(_normal))/jit(_normal_real)/erf_inv" source_file="/home/mathis/repos/backward_ica/src/stats/distributions.py" source_line=207}
  %add.318 = f64[5]{0} add(f64[5]{0} %select.428, f64[5]{0} %multiply.221), metadata={op_name="jit(f)/jit(main)/jvp(jit(_normal))/jit(_normal_real)/erf_inv" source_file="/home/mathis/repos/backward_ica/src/stats/distributions.py" source_line=207}
  %multiply.220 = f64[5]{0} multiply(f64[5]{0} %add.318, f64[5]{0} %select.413), metadata={op_name="jit(f)/jit(main)/jvp(jit(_normal))/jit(_normal_real)/erf_inv" source_file="/home/mathis/repos/backward_ica/src/stats/distributions.py" source_line=207}
  %add.317 = f64[5]{0} add(f64[5]{0} %select.430, f64[5]{0} %multiply.220), metadata={op_name="jit(f)/jit(main)/jvp(jit(_normal))/jit(_normal_real)/erf_inv" source_file="/home/mathis/repos/backward_ica/src/stats/distributions.py" source_line=207}
  %multiply.219 = f64[5]{0} multiply(f64[5]{0} %add.317, f64[5]{0} %select.413), metadata={op_name="jit(f)/jit(main)/jvp(jit(_normal))/jit(_normal_real)/erf_inv" source_file="/home/mathis/repos/backward_ica/src/stats/distributions.py" source_line=207}
  %add.316 = f64[5]{0} add(f64[5]{0} %select.432, f64[5]{0} %multiply.219), metadata={op_name="jit(f)/jit(main)/jvp(jit(_normal))/jit(_normal_real)/erf_inv" source_file="/home/mathis/repos/backward_ica/src/stats/distributions.py" source_line=207}
  %multiply.218 = f64[5]{0} multiply(f64[5]{0} %add.316, f64[5]{0} %select.413), metadata={op_name="jit(f)/jit(main)/jvp(jit(_normal))/jit(_normal_real)/erf_inv" source_file="/home/mathis/repos/backward_ica/src/stats/distributions.py" source_line=207}
  %add.315 = f64[5]{0} add(f64[5]{0} %select.434, f64[5]{0} %multiply.218), metadata={op_name="jit(f)/jit(main)/jvp(jit(_normal))/jit(_normal_real)/erf_inv" source_file="/home/mathis/repos/backward_ica/src/stats/distributions.py" source_line=207}
  %multiply.217 = f64[5]{0} multiply(f64[5]{0} %add.315, f64[5]{0} %select.413), metadata={op_name="jit(f)/jit(main)/jvp(jit(_normal))/jit(_normal_real)/erf_inv" source_file="/home/mathis/repos/backward_ica/src/stats/distributions.py" source_line=207}
  %add.314 = f64[5]{0} add(f64[5]{0} %select.436, f64[5]{0} %multiply.217), metadata={op_name="jit(f)/jit(main)/jvp(jit(_normal))/jit(_normal_real)/erf_inv" source_file="/home/mathis/repos/backward_ica/src/stats/distributions.py" source_line=207}
  %multiply.216 = f64[5]{0} multiply(f64[5]{0} %add.314, f64[5]{0} %select.413), metadata={op_name="jit(f)/jit(main)/jvp(jit(_normal))/jit(_normal_real)/erf_inv" source_file="/home/mathis/repos/backward_ica/src/stats/distributions.py" source_line=207}
  %add.313 = f64[5]{0} add(f64[5]{0} %select.438, f64[5]{0} %multiply.216), metadata={op_name="jit(f)/jit(main)/jvp(jit(_normal))/jit(_normal_real)/erf_inv" source_file="/home/mathis/repos/backward_ica/src/stats/distributions.py" source_line=207}
  %multiply.215 = f64[5]{0} multiply(f64[5]{0} %add.313, f64[5]{0} %select.413), metadata={op_name="jit(f)/jit(main)/jvp(jit(_normal))/jit(_normal_real)/erf_inv" source_file="/home/mathis/repos/backward_ica/src/stats/distributions.py" source_line=207}
  %add.312 = f64[5]{0} add(f64[5]{0} %select.440, f64[5]{0} %multiply.215), metadata={op_name="jit(f)/jit(main)/jvp(jit(_normal))/jit(_normal_real)/erf_inv" source_file="/home/mathis/repos/backward_ica/src/stats/distributions.py" source_line=207}
  %multiply.214 = f64[5]{0} multiply(f64[5]{0} %add.312, f64[5]{0} %select.413), metadata={op_name="jit(f)/jit(main)/jvp(jit(_normal))/jit(_normal_real)/erf_inv" source_file="/home/mathis/repos/backward_ica/src/stats/distributions.py" source_line=207}
  %add.311 = f64[5]{0} add(f64[5]{0} %select.442, f64[5]{0} %multiply.214), metadata={op_name="jit(f)/jit(main)/jvp(jit(_normal))/jit(_normal_real)/erf_inv" source_file="/home/mathis/repos/backward_ica/src/stats/distributions.py" source_line=207}
  %multiply.213 = f64[5]{0} multiply(f64[5]{0} %add.311, f64[5]{0} %select.413), metadata={op_name="jit(f)/jit(main)/jvp(jit(_normal))/jit(_normal_real)/erf_inv" source_file="/home/mathis/repos/backward_ica/src/stats/distributions.py" source_line=207}
  %add.310 = f64[5]{0} add(f64[5]{0} %select.444, f64[5]{0} %multiply.213), metadata={op_name="jit(f)/jit(main)/jvp(jit(_normal))/jit(_normal_real)/erf_inv" source_file="/home/mathis/repos/backward_ica/src/stats/distributions.py" source_line=207}
  %multiply.212 = f64[5]{0} multiply(f64[5]{0} %add.310, f64[5]{0} %select.413), metadata={op_name="jit(f)/jit(main)/jvp(jit(_normal))/jit(_normal_real)/erf_inv" source_file="/home/mathis/repos/backward_ica/src/stats/distributions.py" source_line=207}
  %add.309 = f64[5]{0} add(f64[5]{0} %select.446, f64[5]{0} %multiply.212), metadata={op_name="jit(f)/jit(main)/jvp(jit(_normal))/jit(_normal_real)/erf_inv" source_file="/home/mathis/repos/backward_ica/src/stats/distributions.py" source_line=207}
  %multiply.211 = f64[5]{0} multiply(f64[5]{0} %add.309, f64[5]{0} %select.413), metadata={op_name="jit(f)/jit(main)/jvp(jit(_normal))/jit(_normal_real)/erf_inv" source_file="/home/mathis/repos/backward_ica/src/stats/distributions.py" source_line=207}
  %add.308 = f64[5]{0} add(f64[5]{0} %select.449, f64[5]{0} %multiply.211), metadata={op_name="jit(f)/jit(main)/jvp(jit(_normal))/jit(_normal_real)/erf_inv" source_file="/home/mathis/repos/backward_ica/src/stats/distributions.py" source_line=207}
  %multiply.210 = f64[5]{0} multiply(f64[5]{0} %add.308, f64[5]{0} %select.413), metadata={op_name="jit(f)/jit(main)/jvp(jit(_normal))/jit(_normal_real)/erf_inv" source_file="/home/mathis/repos/backward_ica/src/stats/distributions.py" source_line=207}
  %add.307 = f64[5]{0} add(f64[5]{0} %select.451, f64[5]{0} %multiply.210), metadata={op_name="jit(f)/jit(main)/jvp(jit(_normal))/jit(_normal_real)/erf_inv" source_file="/home/mathis/repos/backward_ica/src/stats/distributions.py" source_line=207}
  %select.412 = f64[5]{0} select(pred[5]{0} %compare.215, f64[5]{0} %add.307, f64[5]{0} %add.308), metadata={op_name="jit(f)/jit(main)/jvp(jit(_normal))/jit(_normal_real)/erf_inv" source_file="/home/mathis/repos/backward_ica/src/stats/distributions.py" source_line=207}
  %multiply.209 = f64[5]{0} multiply(f64[5]{0} %select.412, f64[5]{0} %select.413), metadata={op_name="jit(f)/jit(main)/jvp(jit(_normal))/jit(_normal_real)/erf_inv" source_file="/home/mathis/repos/backward_ica/src/stats/distributions.py" source_line=207}
  %add.306 = f64[5]{0} add(f64[5]{0} %select.452, f64[5]{0} %multiply.209), metadata={op_name="jit(f)/jit(main)/jvp(jit(_normal))/jit(_normal_real)/erf_inv" source_file="/home/mathis/repos/backward_ica/src/stats/distributions.py" source_line=207}
  %select.411 = f64[5]{0} select(pred[5]{0} %compare.215, f64[5]{0} %add.306, f64[5]{0} %select.412), metadata={op_name="jit(f)/jit(main)/jvp(jit(_normal))/jit(_normal_real)/erf_inv" source_file="/home/mathis/repos/backward_ica/src/stats/distributions.py" source_line=207}
  %multiply.208 = f64[5]{0} multiply(f64[5]{0} %select.411, f64[5]{0} %select.413), metadata={op_name="jit(f)/jit(main)/jvp(jit(_normal))/jit(_normal_real)/erf_inv" source_file="/home/mathis/repos/backward_ica/src/stats/distributions.py" source_line=207}
  %constant.1084 = f64[] constant(-0.000740702534166267)
  %broadcast.1423 = f64[5]{0} broadcast(f64[] %constant.1084), dimensions={}
  %add.305 = f64[5]{0} add(f64[5]{0} %multiply.208, f64[5]{0} %broadcast.1423), metadata={op_name="jit(f)/jit(main)/jvp(jit(_normal))/jit(_normal_real)/erf_inv" source_file="/home/mathis/repos/backward_ica/src/stats/distributions.py" source_line=207}
  %select.410 = f64[5]{0} select(pred[5]{0} %compare.216, f64[5]{0} %add.305, f64[5]{0} %select.411), metadata={op_name="jit(f)/jit(main)/jvp(jit(_normal))/jit(_normal_real)/erf_inv" source_file="/home/mathis/repos/backward_ica/src/stats/distributions.py" source_line=207}
  %multiply.207 = f64[5]{0} multiply(f64[5]{0} %select.410, f64[5]{0} %select.413), metadata={op_name="jit(f)/jit(main)/jvp(jit(_normal))/jit(_normal_real)/erf_inv" source_file="/home/mathis/repos/backward_ica/src/stats/distributions.py" source_line=207}
  %constant.1083 = f64[] constant(-0.0060336708714301491)
  %broadcast.1422 = f64[5]{0} broadcast(f64[] %constant.1083), dimensions={}
  %add.304 = f64[5]{0} add(f64[5]{0} %multiply.207, f64[5]{0} %broadcast.1422), metadata={op_name="jit(f)/jit(main)/jvp(jit(_normal))/jit(_normal_real)/erf_inv" source_file="/home/mathis/repos/backward_ica/src/stats/distributions.py" source_line=207}
  %select.409 = f64[5]{0} select(pred[5]{0} %compare.216, f64[5]{0} %add.304, f64[5]{0} %select.410), metadata={op_name="jit(f)/jit(main)/jvp(jit(_normal))/jit(_normal_real)/erf_inv" source_file="/home/mathis/repos/backward_ica/src/stats/distributions.py" source_line=207}
  %multiply.206 = f64[5]{0} multiply(f64[5]{0} %select.409, f64[5]{0} %select.413), metadata={op_name="jit(f)/jit(main)/jvp(jit(_normal))/jit(_normal_real)/erf_inv" source_file="/home/mathis/repos/backward_ica/src/stats/distributions.py" source_line=207}
  %constant.1081 = f64[] constant(0.24015818242558962)
  %broadcast.1421 = f64[5]{0} broadcast(f64[] %constant.1081), dimensions={}
  %add.303 = f64[5]{0} add(f64[5]{0} %multiply.206, f64[5]{0} %broadcast.1421), metadata={op_name="jit(f)/jit(main)/jvp(jit(_normal))/jit(_normal_real)/erf_inv" source_file="/home/mathis/repos/backward_ica/src/stats/distributions.py" source_line=207}
  %select.407 = f64[5]{0} select(pred[5]{0} %compare.216, f64[5]{0} %add.303, f64[5]{0} %select.409), metadata={op_name="jit(f)/jit(main)/jvp(jit(_normal))/jit(_normal_real)/erf_inv" source_file="/home/mathis/repos/backward_ica/src/stats/distributions.py" source_line=207}
  %multiply.205 = f64[5]{0} multiply(f64[5]{0} %select.407, f64[5]{0} %select.413), metadata={op_name="jit(f)/jit(main)/jvp(jit(_normal))/jit(_normal_real)/erf_inv" source_file="/home/mathis/repos/backward_ica/src/stats/distributions.py" source_line=207}
  %constant.1080 = f64[] constant(1.6536545626831027)
  %broadcast.1420 = f64[5]{0} broadcast(f64[] %constant.1080), dimensions={}
  %add.302 = f64[5]{0} add(f64[5]{0} %multiply.205, f64[5]{0} %broadcast.1420), metadata={op_name="jit(f)/jit(main)/jvp(jit(_normal))/jit(_normal_real)/erf_inv" source_file="/home/mathis/repos/backward_ica/src/stats/distributions.py" source_line=207}
  %select.406 = f64[5]{0} select(pred[5]{0} %compare.216, f64[5]{0} %add.302, f64[5]{0} %select.407), metadata={op_name="jit(f)/jit(main)/jvp(jit(_normal))/jit(_normal_real)/erf_inv" source_file="/home/mathis/repos/backward_ica/src/stats/distributions.py" source_line=207}
  %multiply.204 = f64[5]{0} multiply(f64[5]{0} %select.406, f64[5]{0} %maximum.11), metadata={op_name="jit(f)/jit(main)/jvp(jit(_normal))/jit(_normal_real)/erf_inv" source_file="/home/mathis/repos/backward_ica/src/stats/distributions.py" source_line=207}
  %select.405 = f64[5]{0} select(pred[5]{0} %compare.217, f64[5]{0} %multiply.227, f64[5]{0} %multiply.204), metadata={op_name="jit(f)/jit(main)/jvp(jit(_normal))/jit(_normal_real)/erf_inv" source_file="/home/mathis/repos/backward_ica/src/stats/distributions.py" source_line=207}
  %constant.1079 = f64[] constant(1.4142135623730951)
  %broadcast.1419 = f64[5]{0} broadcast(f64[] %constant.1079), dimensions={}
  %multiply.203 = f64[5]{0} multiply(f64[5]{0} %select.405, f64[5]{0} %broadcast.1419), metadata={op_name="jit(f)/jit(main)/jvp(jit(_normal))/jit(_normal_real)/mul" source_file="/home/mathis/repos/backward_ica/src/stats/distributions.py" source_line=207}
  %broadcast.1418 = f64[5,5]{1,0} broadcast(f64[5]{0} %multiply.203), dimensions={1}, metadata={op_name="jit(f)/jit(main)/dot_general[dimension_numbers=(((), ()), ((), ())) precision=None preferred_element_type=None]" source_file="/home/mathis/repos/backward_ica/src/stats/distributions.py" source_line=207}
  ROOT %multiply.202 = f64[5,5]{1,0} multiply(f64[5,5]{1,0} %broadcast.1417, f64[5,5]{1,0} %broadcast.1418), metadata={op_name="jit(f)/jit(main)/dot_general[dimension_numbers=(((), ()), ((), ())) precision=None preferred_element_type=None]" source_file="/home/mathis/repos/backward_ica/src/stats/distributions.py" source_line=207}
}

%fused_computation.37 (param_0.106: f64[5], param_1.148: f64[5]) -> f64[5,5] {
  %param_0.106 = f64[5]{0} parameter(0)
  %broadcast.1499 = f64[5,5]{1,0} broadcast(f64[5]{0} %param_0.106), dimensions={0}, metadata={op_name="jit(f)/jit(main)/dot_general[dimension_numbers=(((), ()), ((), ())) precision=None preferred_element_type=None]" source_file="/home/mathis/repos/backward_ica/src/stats/distributions.py" source_line=156}
  %param_1.148 = f64[5]{0} parameter(1)
  %broadcast.1500 = f64[5,5]{1,0} broadcast(f64[5]{0} %param_1.148), dimensions={1}, metadata={op_name="jit(f)/jit(main)/dot_general[dimension_numbers=(((), ()), ((), ())) precision=None preferred_element_type=None]" source_file="/home/mathis/repos/backward_ica/src/stats/distributions.py" source_line=156}
  %multiply.229 = f64[5,5]{1,0} multiply(f64[5,5]{1,0} %broadcast.1499, f64[5,5]{1,0} %broadcast.1500), metadata={op_name="jit(f)/jit(main)/dot_general[dimension_numbers=(((), ()), ((), ())) precision=None preferred_element_type=None]" source_file="/home/mathis/repos/backward_ica/src/stats/distributions.py" source_line=156}
  ROOT %copy.285 = f64[5,5]{0,1} copy(f64[5,5]{1,0} %multiply.229), metadata={op_name="jit(f)/jit(main)/dot_general[dimension_numbers=(((), ()), ((), ())) precision=None preferred_element_type=None]" source_file="/home/mathis/repos/backward_ica/src/stats/distributions.py" source_line=156}
}

%fused_computation.38 (param_0.109: f64[5], param_1.151: f64[5]) -> f64[5,5] {
  %param_0.109 = f64[5]{0} parameter(0)
  %broadcast.1502 = f64[5,5]{1,0} broadcast(f64[5]{0} %param_0.109), dimensions={0}, metadata={op_name="jit(f)/jit(main)/dot_general[dimension_numbers=(((), ()), ((), ())) precision=None preferred_element_type=None]" source_file="/home/mathis/repos/backward_ica/src/stats/distributions.py" source_line=156}
  %param_1.151 = f64[5]{0} parameter(1)
  %broadcast.1503 = f64[5,5]{1,0} broadcast(f64[5]{0} %param_1.151), dimensions={1}, metadata={op_name="jit(f)/jit(main)/dot_general[dimension_numbers=(((), ()), ((), ())) precision=None preferred_element_type=None]" source_file="/home/mathis/repos/backward_ica/src/stats/distributions.py" source_line=156}
  ROOT %multiply.230 = f64[5,5]{1,0} multiply(f64[5,5]{1,0} %broadcast.1502, f64[5,5]{1,0} %broadcast.1503), metadata={op_name="jit(f)/jit(main)/dot_general[dimension_numbers=(((), ()), ((), ())) precision=None preferred_element_type=None]" source_file="/home/mathis/repos/backward_ica/src/stats/distributions.py" source_line=156}
}

%fused_computation.41 (param_0.116: f64[5], param_1.157: f64[5,5]) -> f64[5] {
  %param_0.116 = f64[5]{0} parameter(0)
  %param_1.157 = f64[5,5]{0,1} parameter(1)
  %copy.288 = f64[5,5]{1,0} copy(f64[5,5]{0,1} %param_1.157), metadata={op_name="jit(f)/jit(main)/jvp(jit(_cho_solve))/triangular_solve[left_side=True lower=True transpose_a=True conjugate_a=False unit_diagonal=False]" source_file="/home/mathis/repos/backward_ica/src/utils/misc.py" source_line=573}
  ROOT %dot.87 = f64[5]{0} dot(f64[5]{0} %param_0.116, f64[5,5]{1,0} %copy.288), lhs_contracting_dims={0}, rhs_contracting_dims={0}, metadata={op_name="jit(f)/jit(main)/dot_general[dimension_numbers=(((0,), (0,)), ((), ())) precision=None preferred_element_type=None]" source_file="/home/mathis/repos/backward_ica/src/stats/distributions.py" source_line=156}
}

%fused_computation.42 (param_0.117: f64[5], param_1.159: f64[5,5]) -> f64[5] {
  %param_0.117 = f64[5]{0} parameter(0)
  %param_1.159 = f64[5,5]{0,1} parameter(1)
  %copy.289 = f64[5,5]{1,0} copy(f64[5,5]{0,1} %param_1.159), metadata={op_name="jit(f)/jit(main)/jvp(jit(_cho_solve))/triangular_solve[left_side=True lower=True transpose_a=True conjugate_a=False unit_diagonal=False]" source_file="/home/mathis/repos/backward_ica/src/utils/misc.py" source_line=573}
  ROOT %dot.88 = f64[5]{0} dot(f64[5]{0} %param_0.117, f64[5,5]{1,0} %copy.289), lhs_contracting_dims={0}, rhs_contracting_dims={0}, metadata={op_name="jit(f)/jit(main)/dot_general[dimension_numbers=(((0,), (0,)), ((), ())) precision=None preferred_element_type=None]" source_file="/home/mathis/repos/backward_ica/src/stats/distributions.py" source_line=142}
}

%fused_computation.43 (param_0.120: f64[1,5]) -> f64[5] {
  %param_0.120 = f64[1,5]{0,1} parameter(0)
  %copy.290 = f64[1,5]{1,0} copy(f64[1,5]{0,1} %param_0.120), metadata={op_name="jit(f)/jit(main)/triangular_solve[left_side=False lower=True transpose_a=False conjugate_a=False unit_diagonal=False]" source_file="/home/mathis/repos/backward_ica/src/stats/distributions.py" source_line=211}
  %negate.55 = f64[1,5]{1,0} negate(f64[1,5]{1,0} %copy.290), metadata={op_name="jit(f)/jit(main)/neg" source_file="/home/mathis/repos/backward_ica/src/stats/distributions.py" source_line=211}
  ROOT %reshape.392 = f64[5]{0} reshape(f64[1,5]{1,0} %negate.55), metadata={op_name="jit(f)/jit(main)/neg" source_file="/home/mathis/repos/backward_ica/src/stats/distributions.py" source_line=211}
}

%fused_computation.44 (param_0.124: f64[1,5]) -> f64[1,5] {
  %constant.1168 = f64[] constant(-0.5)
  %broadcast.1506 = f64[1,5]{1,0} broadcast(f64[] %constant.1168), dimensions={}, metadata={op_name="jit(f)/jit(main)/transpose(jvp(...i,...i->...))/dot_general[dimension_numbers=(((), ()), ((), ())) precision=None preferred_element_type=None]" source_file="/home/mathis/repos/backward_ica/src/stats/distributions.py" source_line=211}
  %param_0.124 = f64[1,5]{0,1} parameter(0)
  %copy.292 = f64[1,5]{1,0} copy(f64[1,5]{0,1} %param_0.124), metadata={op_name="jit(f)/jit(main)/triangular_solve[left_side=False lower=True transpose_a=True conjugate_a=False unit_diagonal=False]" source_file="/home/mathis/repos/backward_ica/src/stats/distributions.py" source_line=211}
  %multiply.231 = f64[1,5]{1,0} multiply(f64[1,5]{1,0} %broadcast.1506, f64[1,5]{1,0} %copy.292), metadata={op_name="jit(f)/jit(main)/transpose(jvp(...i,...i->...))/dot_general[dimension_numbers=(((), ()), ((), ())) precision=None preferred_element_type=None]" source_file="/home/mathis/repos/backward_ica/src/stats/distributions.py" source_line=211}
  %add.327 = f64[1,5]{1,0} add(f64[1,5]{1,0} %multiply.231, f64[1,5]{1,0} %multiply.231), metadata={op_name="jit(f)/jit(main)/transpose(jvp(...i,...i->...))/add_any" source_file="/home/mathis/repos/backward_ica/src/stats/distributions.py" source_line=211}
  ROOT %copy.291 = f64[1,5]{0,1} copy(f64[1,5]{1,0} %add.327), metadata={op_name="jit(f)/jit(main)/transpose(jvp(...i,...i->...))/add_any" source_file="/home/mathis/repos/backward_ica/src/stats/distributions.py" source_line=211}
}

%fused_computation.46 (param_0.129: f64[5,5], param_1.170: f64[5,5], param_2.157: f64[5], param_3.126: f64[5]) -> f64[5,5] {
  %iota.543 = s32[5,5]{1,0} iota(), iota_dimension=0, metadata={op_name="jit(f)/jit(main)/jvp(jit(_diag))/iota[dtype=int32 shape=(5, 5) dimension=0]" source_file="/home/mathis/repos/backward_ica/src/variational/inference_nets.py" source_line=107}
  %iota.542 = s32[5,5]{1,0} iota(), iota_dimension=1, metadata={op_name="jit(f)/jit(main)/jvp(jit(_diag))/iota[dtype=int32 shape=(5, 5) dimension=1]" source_file="/home/mathis/repos/backward_ica/src/variational/inference_nets.py" source_line=107}
  %compare.225 = pred[5,5]{1,0} compare(s32[5,5]{1,0} %iota.543, s32[5,5]{1,0} %iota.542), direction=EQ, metadata={op_name="jit(f)/jit(main)/jvp(jit(_diag))/eq" source_file="/home/mathis/repos/backward_ica/src/variational/inference_nets.py" source_line=107}
  %param_3.126 = f64[5]{0} parameter(3)
  %broadcast.1512 = f64[5,5]{1,0} broadcast(f64[5]{0} %param_3.126), dimensions={0}, metadata={op_name="jit(f)/jit(main)/dot_general[dimension_numbers=(((), ()), ((), ())) precision=None preferred_element_type=None]" source_file="/home/mathis/repos/backward_ica/src/stats/kalman.py" source_line=15}
  %param_2.157 = f64[5]{0} parameter(2)
  %broadcast.1511 = f64[5,5]{1,0} broadcast(f64[5]{0} %param_2.157), dimensions={1}, metadata={op_name="jit(f)/jit(main)/dot_general[dimension_numbers=(((), ()), ((), ())) precision=None preferred_element_type=None]" source_file="/home/mathis/repos/backward_ica/src/stats/kalman.py" source_line=15}
  %multiply.232 = f64[5,5]{1,0} multiply(f64[5,5]{1,0} %broadcast.1512, f64[5,5]{1,0} %broadcast.1511), metadata={op_name="jit(f)/jit(main)/dot_general[dimension_numbers=(((), ()), ((), ())) precision=None preferred_element_type=None]" source_file="/home/mathis/repos/backward_ica/src/stats/kalman.py" source_line=15}
  %param_1.170 = f64[5,5]{1,0} parameter(1)
…
  %fusion.83 = f64[5,5]{1,0} fusion(f64[5]{0} %fusion.118, f64[5]{0} %fusion.87), kind=kLoop, calls=%fused_computation.83, metadata={op_name="jit(f)/jit(main)/dot_general[dimension_numbers=(((), ()), ((), ())) precision=None preferred_element_type=None]" source_file="/home/mathis/repos/backward_ica/src/stats/distributions.py" source_line=156}
  %dot.1 = f64[5,5]{1,0} dot(f64[5,5]{1,0} %fusion.83, f64[5,5]{1,0} %copy.87), lhs_contracting_dims={1}, rhs_contracting_dims={1}, operand_precision={highest,highest}, metadata={op_name="jit(f)/jit(main)/transpose(jvp(jit(_cho_solve)))/dot_general[dimension_numbers=(((1,), (1,)), ((), ())) precision=(<Precision.HIGHEST: 2>, <Precision.HIGHEST: 2>) preferred_element_type=None]" source_file="/home/mathis/repos/backward_ica/src/utils/misc.py" source_line=573}
  %copy.18 = f64[5,5]{0,1} copy(f64[5,5]{1,0} %dot.1), metadata={op_name="jit(f)/jit(main)/transpose(jvp(jit(_cho_solve)))/dot_general[dimension_numbers=(((1,), (1,)), ((), ())) precision=(<Precision.HIGHEST: 2>, <Precision.HIGHEST: 2>) preferred_element_type=None]" source_file="/home/mathis/repos/backward_ica/src/utils/misc.py" source_line=573}
  %custom-call.42 = f64[5,5]{0,1} custom-call(s32[] %constant.33, s32[] %constant.33, s32[] %constant.35, s32[] %constant.35, s32[] %constant.32, /*index=5*/s32[] %constant.32, s32[] %constant.33, f64[] %constant.26, f64[5,5]{0,1} %fusion.131, f64[5,5]{0,1} %copy.18), custom_call_target="blas_dtrsm", operand_layout_constraints={s32[], s32[], s32[], s32[], s32[], s32[], s32[], f64[], f64[5,5]{0,1}, f64[5,5]{0,1}}, output_to_operand_aliasing={{}: (9, {})}, api_version=API_VERSION_STATUS_RETURNING, metadata={op_name="jit(f)/jit(main)/transpose(jvp(jit(_cho_solve)))/triangular_solve[left_side=True lower=True transpose_a=False conjugate_a=False unit_diagonal=False]" source_file="/home/mathis/repos/backward_ica/src/utils/misc.py" source_line=573}
  %fusion.82 = f64[5,5]{0,1} fusion(f64[5]{0} %fusion.118, f64[5]{0} %fusion.87), kind=kLoop, calls=%fused_computation.82, metadata={op_name="jit(f)/jit(main)/dot_general[dimension_numbers=(((), ()), ((), ())) precision=None preferred_element_type=None]" source_file="/home/mathis/repos/backward_ica/src/stats/distributions.py" source_line=156}
  %custom-call.40 = f64[5,5]{0,1} custom-call(s32[] %constant.33, s32[] %constant.33, s32[] %constant.35, s32[] %constant.35, s32[] %constant.32, /*index=5*/s32[] %constant.32, s32[] %constant.33, f64[] %constant.26, f64[5,5]{0,1} %fusion.131, f64[5,5]{0,1} %fusion.82), custom_call_target="blas_dtrsm", operand_layout_constraints={s32[], s32[], s32[], s32[], s32[], s32[], s32[], f64[], f64[5,5]{0,1}, f64[5,5]{0,1}}, output_to_operand_aliasing={{}: (9, {})}, api_version=API_VERSION_STATUS_RETURNING, metadata={op_name="jit(f)/jit(main)/transpose(jvp(jit(_cho_solve)))/triangular_solve[left_side=True lower=True transpose_a=False conjugate_a=False unit_diagonal=False]" source_file="/home/mathis/repos/backward_ica/src/utils/misc.py" source_line=573}
  %copy.107 = f64[5,5]{1,0} copy(f64[5,5]{0,1} %custom-call.40), metadata={op_name="jit(f)/jit(main)/transpose(jvp(jit(_cho_solve)))/triangular_solve[left_side=True lower=True transpose_a=False conjugate_a=False unit_diagonal=False]" source_file="/home/mathis/repos/backward_ica/src/utils/misc.py" source_line=573}
  %dot.0 = f64[5,5]{1,0} dot(f64[5,5]{1,0} %copy.107, f64[5,5]{1,0} %copy.178), lhs_contracting_dims={1}, rhs_contracting_dims={1}, operand_precision={highest,highest}, metadata={op_name="jit(f)/jit(main)/transpose(jvp(jit(_cho_solve)))/dot_general[dimension_numbers=(((1,), (1,)), ((), ())) precision=(<Precision.HIGHEST: 2>, <Precision.HIGHEST: 2>) preferred_element_type=None]" source_file="/home/mathis/repos/backward_ica/src/utils/misc.py" source_line=573}
  %copy.17 = f64[5,5]{0,1} copy(f64[5,5]{1,0} %dot.0), metadata={op_name="jit(f)/jit(main)/transpose(jvp(jit(_cho_solve)))/dot_general[dimension_numbers=(((1,), (1,)), ((), ())) precision=(<Precision.HIGHEST: 2>, <Precision.HIGHEST: 2>) preferred_element_type=None]" source_file="/home/mathis/repos/backward_ica/src/utils/misc.py" source_line=573}
  %custom-call.41 = f64[5,5]{0,1} custom-call(s32[] %constant.33, s32[] %constant.33, s32[] %constant.33, s32[] %constant.35, s32[] %constant.32, /*index=5*/s32[] %constant.32, s32[] %constant.33, f64[] %constant.26, f64[5,5]{0,1} %fusion.131, f64[5,5]{0,1} %copy.17), custom_call_target="blas_dtrsm", operand_layout_constraints={s32[], s32[], s32[], s32[], s32[], s32[], s32[], f64[], f64[5,5]{0,1}, f64[5,5]{0,1}}, output_to_operand_aliasing={{}: (9, {})}, api_version=API_VERSION_STATUS_RETURNING, metadata={op_name="jit(f)/jit(main)/transpose(jvp(jit(_cho_solve)))/triangular_solve[left_side=True lower=True transpose_a=True conjugate_a=False unit_diagonal=False]" source_file="/home/mathis/repos/backward_ica/src/utils/misc.py" source_line=573}
  %fusion.50 = f64[5,5]{1,0} fusion(f64[5,5]{0,1} %custom-call.65, f64[5,5]{0,1} %custom-call.64, f64[5,5]{0,1} %custom-call.42, f64[5,5]{0,1} %custom-call.41), kind=kLoop, calls=%fused_computation.50, metadata={op_name="jit(f)/jit(main)/transpose(jvp(jit(cholesky)))/jit(tril)/select_n" source_file="/home/mathis/repos/backward_ica/src/utils/misc.py" source_line=566}
  %dot.61 = f64[5,5]{1,0} dot(f64[5,5]{1,0} %fusion.132, f64[5,5]{1,0} %fusion.50), lhs_contracting_dims={0}, rhs_contracting_dims={0}, operand_precision={highest,highest}, metadata={op_name="jit(f)/jit(main)/transpose(jvp(jit(cholesky)))/transpose[permutation=(1, 0)]" source_file="/home/mathis/repos/backward_ica/src/utils/misc.py" source_line=566}
  %fusion.49 = f64[5,5]{0,1} fusion(f64[5,5]{1,0} %dot.61), kind=kLoop, calls=%fused_computation.49, metadata={op_name="jit(f)/jit(main)/transpose(jvp(jit(cholesky)))/jit(tril)/select_n" source_file="/home/mathis/repos/backward_ica/src/utils/misc.py" source_line=566}
  %custom-call.66 = f64[5,5]{0,1} custom-call(s32[] %constant.33, s32[] %constant.33, s32[] %constant.33, s32[] %constant.35, s32[] %constant.32, /*index=5*/s32[] %constant.32, s32[] %constant.33, f64[] %constant.26, f64[5,5]{0,1} %copy.187, f64[5,5]{0,1} %fusion.49), custom_call_target="blas_dtrsm", operand_layout_constraints={s32[], s32[], s32[], s32[], s32[], s32[], s32[], f64[], f64[5,5]{0,1}, f64[5,5]{0,1}}, output_to_operand_aliasing={{}: (9, {})}, api_version=API_VERSION_STATUS_RETURNING, metadata={op_name="jit(f)/jit(main)/transpose(jvp(jit(cholesky)))/triangular_solve[left_side=True lower=True transpose_a=True conjugate_a=False unit_diagonal=False]" source_file="/home/mathis/repos/backward_ica/src/utils/misc.py" source_line=566}
  %fusion.48 = f64[5,5]{0,1} fusion(f64[5,5]{0,1} %custom-call.66), kind=kLoop, calls=%fused_computation.48, metadata={op_name="jit(f)/jit(main)/transpose(jvp(jit(cholesky)))/triangular_solve[left_side=True lower=True transpose_a=True conjugate_a=False unit_diagonal=False]" source_file="/home/mathis/repos/backward_ica/src/utils/misc.py" source_line=566}
  %custom-call.67 = f64[5,5]{0,1} custom-call(s32[] %constant.35, s32[] %constant.33, s32[] %constant.35, s32[] %constant.35, s32[] %constant.32, /*index=5*/s32[] %constant.32, s32[] %constant.33, f64[] %constant.26, f64[5,5]{0,1} %copy.187, f64[5,5]{0,1} %fusion.48), custom_call_target="blas_dtrsm", operand_layout_constraints={s32[], s32[], s32[], s32[], s32[], s32[], s32[], f64[], f64[5,5]{0,1}, f64[5,5]{0,1}}, output_to_operand_aliasing={{}: (9, {})}, api_version=API_VERSION_STATUS_RETURNING, metadata={op_name="jit(f)/jit(main)/transpose(jvp(jit(cholesky)))/triangular_solve[left_side=False lower=True transpose_a=False conjugate_a=False unit_diagonal=False]" source_file="/home/mathis/repos/backward_ica/src/utils/misc.py" source_line=566}
  %fusion.47 = f64[5,5]{1,0} fusion(f64[5,5]{0,1} %custom-call.67), kind=kLoop, calls=%fused_computation.47, metadata={op_name="jit(f)/jit(main)/transpose(jvp(jit(cholesky)))/add_any" source_file="/home/mathis/repos/backward_ica/src/utils/misc.py" source_line=566}
  %dot.1885 = f64[5,5]{1,0} dot(f64[5,5]{1,0} %fusion.47, f64[5,5]{1,0} %fusion.140), lhs_contracting_dims={1}, rhs_contracting_dims={0}, metadata={op_name="jit(f)/jit(main)/dot_general[dimension_numbers=(((1,), (1,)), ((), ())) precision=None preferred_element_type=None]" source_file="/home/mathis/repos/backward_ica/src/stats/kalman.py" source_line=16}
  %dot.1887 = f64[5,5]{1,0} dot(f64[5,5]{1,0} %dot.1885, f64[5,5]{1,0} %copy.70), lhs_contracting_dims={1}, rhs_contracting_dims={1}, metadata={op_name="jit(f)/jit(main)/dot_general[dimension_numbers=(((1,), (1,)), ((), ())) precision=None preferred_element_type=None]" source_file="/home/mathis/repos/backward_ica/src/stats/kalman.py" source_line=16}
  %dot.1884 = f64[5,5]{1,0} dot(f64[5,5]{1,0} %fusion.47, f64[5,5]{1,0} %dot.185), lhs_contracting_dims={0}, rhs_contracting_dims={0}, metadata={op_name="jit(f)/jit(main)/dot_general[dimension_numbers=(((0,), (0,)), ((), ())) precision=None preferred_element_type=None]" source_file="/home/mathis/repos/backward_ica/src/stats/kalman.py" source_line=16}
  %fusion.86 = f64[5]{0} fusion(f64[5]{0} %fusion.87, f64[5,5]{0,1} %custom-call.5), kind=kLoop, calls=%fused_computation.86, metadata={op_name="jit(f)/jit(main)/dot_general[dimension_numbers=(((0,), (0,)), ((), ())) precision=None preferred_element_type=None]" source_file="/home/mathis/repos/backward_ica/src/stats/distributions.py" source_line=156}
  %fusion.46 = f64[5,5]{1,0} fusion(f64[5,5]{1,0} %dot.1887, f64[5,5]{1,0} %dot.1884, f64[5]{0} %fusion.119, f64[5]{0} %fusion.86), kind=kLoop, calls=%fused_computation.46, metadata={op_name="jit(f)/jit(main)/transpose(jvp(jit(_diag)))/jit(_where)/select_n" source_file="/home/mathis/repos/backward_ica/src/variational/inference_nets.py" source_line=107}
  %reduce.6 = f64[5]{0} reduce(f64[5,5]{1,0} %fusion.46, f64[] %constant.11), dimensions={0}, to_apply=%region_7.1889, metadata={op_name="jit(f)/jit(main)/transpose(jvp(jit(_diag)))/jit(_where)/reduce_sum[axes=(0,)]" source_file="/home/mathis/repos/backward_ica/src/variational/inference_nets.py" source_line=107}
  %fusion.44 = f64[1,5]{0,1} fusion(f64[1,5]{0,1} %custom-call.3009), kind=kLoop, calls=%fused_computation.44, metadata={op_name="jit(f)/jit(main)/transpose(jvp(...i,...i->...))/add_any" source_file="/home/mathis/repos/backward_ica/src/stats/distributions.py" source_line=211}
  %custom-call.3051 = f64[1,5]{0,1} custom-call(s32[] %constant.35, s32[] %constant.33, s32[] %constant.35, s32[] %constant.35, s32[] %constant.33, /*index=5*/s32[] %constant.32, s32[] %constant.33, f64[] %constant.26, f64[5,5]{0,1} %fusion.95, f64[1,5]{0,1} %fusion.44), custom_call_target="blas_dtrsm", operand_layout_constraints={s32[], s32[], s32[], s32[], s32[], s32[], s32[], f64[], f64[5,5]{0,1}, f64[1,5]{0,1}}, output_to_operand_aliasing={{}: (9, {})}, api_version=API_VERSION_STATUS_RETURNING, metadata={op_name="jit(f)/jit(main)/triangular_solve[left_side=False lower=True transpose_a=False conjugate_a=False unit_diagonal=False]" source_file="/home/mathis/repos/backward_ica/src/stats/distributions.py" source_line=211}
  %fusion.43 = f64[5]{0} fusion(f64[1,5]{0,1} %custom-call.3051), kind=kLoop, calls=%fused_computation.43, metadata={op_name="jit(f)/jit(main)/neg" source_file="/home/mathis/repos/backward_ica/src/stats/distributions.py" source_line=211}
  %dot.3058 = f64[5]{0} dot(f64[5]{0} %fusion.43, f64[5,5]{1,0} %constant.38), lhs_contracting_dims={0}, rhs_contracting_dims={0}, metadata={op_name="jit(f)/jit(main)/dot_general[dimension_numbers=(((0,), (0,)), ((), ())) precision=None preferred_element_type=None]" source_file="/home/mathis/repos/backward_ica/src/stats/kernels.py" source_line=68}
  %fusion.25 = f64[5,5]{1,0} fusion(f64[5]{0} %dot.3058, f64[5]{0} %fusion.117), kind=kLoop, calls=%fused_computation.25, metadata={op_name="jit(f)/jit(main)/dot_general[dimension_numbers=(((), ()), ((), ())) precision=None preferred_element_type=None]" source_file="/home/mathis/repos/backward_ica/src/stats/distributions.py" source_line=142}
  %dot.23 = f64[5,5]{1,0} dot(f64[5,5]{1,0} %fusion.25, f64[5,5]{1,0} %copy.167), lhs_contracting_dims={1}, rhs_contracting_dims={1}, operand_precision={highest,highest}, metadata={op_name="jit(f)/jit(main)/transpose(jvp(jit(_cho_solve)))/dot_general[dimension_numbers=(((1,), (1,)), ((), ())) precision=(<Precision.HIGHEST: 2>, <Precision.HIGHEST: 2>) preferred_element_type=None]" source_file="/home/mathis/repos/backward_ica/src/utils/misc.py" source_line=573}
  %copy.57 = f64[5,5]{0,1} copy(f64[5,5]{1,0} %dot.23), metadata={op_name="jit(f)/jit(main)/transpose(jvp(jit(_cho_solve)))/dot_general[dimension_numbers=(((1,), (1,)), ((), ())) precision=(<Precision.HIGHEST: 2>, <Precision.HIGHEST: 2>) preferred_element_type=None]" source_file="/home/mathis/repos/backward_ica/src/utils/misc.py" source_line=573}
  %custom-call.78 = f64[5,5]{0,1} custom-call(s32[] %constant.33, s32[] %constant.33, s32[] %constant.35, s32[] %constant.35, s32[] %constant.32, /*index=5*/s32[] %constant.32, s32[] %constant.33, f64[] %constant.26, f64[5,5]{0,1} %copy.81, f64[5,5]{0,1} %copy.57), custom_call_target="blas_dtrsm", operand_layout_constraints={s32[], s32[], s32[], s32[], s32[], s32[], s32[], f64[], f64[5,5]{0,1}, f64[5,5]{0,1}}, output_to_operand_aliasing={{}: (9, {})}, api_version=API_VERSION_STATUS_RETURNING, metadata={op_name="jit(f)/jit(main)/transpose(jvp(jit(_cho_solve)))/triangular_solve[left_side=True lower=True transpose_a=False conjugate_a=False unit_diagonal=False]" source_file="/home/mathis/repos/backward_ica/src/utils/misc.py" source_line=573}
  %fusion.24 = f64[5,5]{0,1} fusion(f64[5]{0} %dot.3058, f64[5]{0} %fusion.117), kind=kLoop, calls=%fused_computation.24, metadata={op_name="jit(f)/jit(main)/dot_general[dimension_numbers=(((), ()), ((), ())) precision=None preferred_element_type=None]" source_file="/home/mathis/repos/backward_ica/src/stats/distributions.py" source_line=142}
  %custom-call.76 = f64[5,5]{0,1} custom-call(s32[] %constant.33, s32[] %constant.33, s32[] %constant.35, s32[] %constant.35, s32[] %constant.32, /*index=5*/s32[] %constant.32, s32[] %constant.33, f64[] %constant.26, f64[5,5]{0,1} %copy.81, f64[5,5]{0,1} %fusion.24), custom_call_target="blas_dtrsm", operand_layout_constraints={s32[], s32[], s32[], s32[], s32[], s32[], s32[], f64[], f64[5,5]{0,1}, f64[5,5]{0,1}}, output_to_operand_aliasing={{}: (9, {})}, api_version=API_VERSION_STATUS_RETURNING, metadata={op_name="jit(f)/jit(main)/transpose(jvp(jit(_cho_solve)))/triangular_solve[left_side=True lower=True transpose_a=False conjugate_a=False unit_diagonal=False]" source_file="/home/mathis/repos/backward_ica/src/utils/misc.py" source_line=573}
  %copy.219 = f64[5,5]{1,0} copy(f64[5,5]{0,1} %custom-call.76), metadata={op_name="jit(f)/jit(main)/transpose(jvp(jit(_cho_solve)))/triangular_solve[left_side=True lower=True transpose_a=False conjugate_a=False unit_diagonal=False]" source_file="/home/mathis/repos/backward_ica/src/utils/misc.py" source_line=573}
  %dot.22 = f64[5,5]{1,0} dot(f64[5,5]{1,0} %copy.219, f64[5,5]{1,0} %copy.164), lhs_contracting_dims={1}, rhs_contracting_dims={1}, operand_precision={highest,highest}, metadata={op_name="jit(f)/jit(main)/transpose(jvp(jit(_cho_solve)))/dot_general[dimension_numbers=(((1,), (1,)), ((), ())) precision=(<Precision.HIGHEST: 2>, <Precision.HIGHEST: 2>) preferred_element_type=None]" source_file="/home/mathis/repos/backward_ica/src/utils/misc.py" source_line=573}
  %copy.56 = f64[5,5]{0,1} copy(f64[5,5]{1,0} %dot.22), metadata={op_name="jit(f)/jit(main)/transpose(jvp(jit(_cho_solve)))/dot_general[dimension_numbers=(((1,), (1,)), ((), ())) precision=(<Precision.HIGHEST: 2>, <Precision.HIGHEST: 2>) preferred_element_type=None]" source_file="/home/mathis/repos/backward_ica/src/utils/misc.py" source_line=573}
  %custom-call.77 = f64[5,5]{0,1} custom-call(s32[] %constant.33, s32[] %constant.33, s32[] %constant.33, s32[] %constant.35, s32[] %constant.32, /*index=5*/s32[] %constant.32, s32[] %constant.33, f64[] %constant.26, f64[5,5]{0,1} %copy.81, f64[5,5]{0,1} %copy.56), custom_call_target="blas_dtrsm", operand_layout_constraints={s32[], s32[], s32[], s32[], s32[], s32[], s32[], f64[], f64[5,5]{0,1}, f64[5,5]{0,1}}, output_to_operand_aliasing={{}: (9, {})}, api_version=API_VERSION_STATUS_RETURNING, metadata={op_name="jit(f)/jit(main)/transpose(jvp(jit(_cho_solve)))/triangular_solve[left_side=True lower=True transpose_a=True conjugate_a=False unit_diagonal=False]" source_file="/home/mathis/repos/backward_ica/src/utils/misc.py" source_line=573}
  %fusion.23 = f64[5,5]{1,0} fusion(f64[5,5]{0,1} %custom-call.78, f64[5,5]{0,1} %custom-call.77), kind=kLoop, calls=%fused_computation.23, metadata={op_name="jit(f)/jit(main)/transpose(jvp(jit(cholesky)))/jit(tril)/select_n" source_file="/home/mathis/repos/backward_ica/src/utils/misc.py" source_line=566}
  %dot.68 = f64[5,5]{1,0} dot(f64[5,5]{1,0} %fusion.126, f64[5,5]{1,0} %fusion.23), lhs_contracting_dims={0}, rhs_contracting_dims={0}, operand_precision={highest,highest}, metadata={op_name="jit(f)/jit(main)/transpose(jvp(jit(cholesky)))/transpose[permutation=(1, 0)]" source_file="/home/mathis/repos/backward_ica/src/utils/misc.py" source_line=566}
  %fusion.22 = f64[5,5]{0,1} fusion(f64[5,5]{1,0} %dot.68), kind=kLoop, calls=%fused_computation.22, metadata={op_name="jit(f)/jit(main)/transpose(jvp(jit(cholesky)))/jit(tril)/select_n" source_file="/home/mathis/repos/backward_ica/src/utils/misc.py" source_line=566}
  %custom-call.79 = f64[5,5]{0,1} custom-call(s32[] %constant.33, s32[] %constant.33, s32[] %constant.33, s32[] %constant.35, s32[] %constant.32, /*index=5*/s32[] %constant.32, s32[] %constant.33, f64[] %constant.26, f64[5,5]{0,1} %copy.173, f64[5,5]{0,1} %fusion.22), custom_call_target="blas_dtrsm", operand_layout_constraints={s32[], s32[], s32[], s32[], s32[], s32[], s32[], f64[], f64[5,5]{0,1}, f64[5,5]{0,1}}, output_to_operand_aliasing={{}: (9, {})}, api_version=API_VERSION_STATUS_RETURNING, metadata={op_name="jit(f)/jit(main)/transpose(jvp(jit(cholesky)))/triangular_solve[left_side=True lower=True transpose_a=True conjugate_a=False unit_diagonal=False]" source_file="/home/mathis/repos/backward_ica/src/utils/misc.py" source_line=566}
  %fusion.21 = f64[5,5]{0,1} fusion(f64[5,5]{0,1} %custom-call.79), kind=kLoop, calls=%fused_computation.21, metadata={op_name="jit(f)/jit(main)/transpose(jvp(jit(cholesky)))/triangular_solve[left_side=True lower=True transpose_a=True conjugate_a=False unit_diagonal=False]" source_file="/home/mathis/repos/backward_ica/src/utils/misc.py" source_line=566}
  %custom-call.80 = f64[5,5]{0,1} custom-call(s32[] %constant.35, s32[] %constant.33, s32[] %constant.35, s32[] %constant.35, s32[] %constant.32, /*index=5*/s32[] %constant.32, s32[] %constant.33, f64[] %constant.26, f64[5,5]{0,1} %copy.173, f64[5,5]{0,1} %fusion.21), custom_call_target="blas_dtrsm", operand_layout_constraints={s32[], s32[], s32[], s32[], s32[], s32[], s32[], f64[], f64[5,5]{0,1}, f64[5,5]{0,1}}, output_to_operand_aliasing={{}: (9, {})}, api_version=API_VERSION_STATUS_RETURNING, metadata={op_name="jit(f)/jit(main)/transpose(jvp(jit(cholesky)))/triangular_solve[left_side=False lower=True transpose_a=False conjugate_a=False unit_diagonal=False]" source_file="/home/mathis/repos/backward_ica/src/utils/misc.py" source_line=566}
  %fusion.33 = f64[5,5]{1,0} fusion(f64[5]{0} %dot.3058, f64[5]{0} %fusion.105, f64[5]{0} %fusion.106, u32[5]{0} %get-tuple-element.33, u32[5]{0} %get-tuple-element.32), kind=kLoop, calls=%fused_computation.33, metadata={op_name="jit(f)/jit(main)/dot_general[dimension_numbers=(((), ()), ((), ())) precision=None preferred_element_type=None]" source_file="/home/mathis/repos/backward_ica/src/stats/distributions.py" source_line=207}
  %dot.19 = f64[5,5]{1,0} dot(f64[5,5]{1,0} %fusion.33, f64[5,5]{1,0} %copy.91), lhs_contracting_dims={1}, rhs_contracting_dims={1}, operand_precision={highest,highest}, metadata={op_name="jit(f)/jit(main)/transpose(jvp(jit(_solve_triangular)))/dot_general[dimension_numbers=(((1,), (1,)), ((), ())) precision=(<Precision.HIGHEST: 2>, <Precision.HIGHEST: 2>) preferred_element_type=None]" source_file="/home/mathis/repos/backward_ica/src/utils/misc.py" source_line=560}
  %copy.50 = f64[5,5]{0,1} copy(f64[5,5]{1,0} %dot.19), metadata={op_name="jit(f)/jit(main)/transpose(jvp(jit(_solve_triangular)))/dot_general[dimension_numbers=(((1,), (1,)), ((), ())) precision=(<Precision.HIGHEST: 2>, <Precision.HIGHEST: 2>) preferred_element_type=None]" source_file="/home/mathis/repos/backward_ica/src/utils/misc.py" source_line=560}
  %custom-call.71 = f64[5,5]{0,1} custom-call(s32[] %constant.33, s32[] %constant.33, s32[] %constant.33, s32[] %constant.35, s32[] %constant.32, /*index=5*/s32[] %constant.32, s32[] %constant.33, f64[] %constant.26, f64[5,5]{0,1} %fusion.113, f64[5,5]{0,1} %copy.50), custom_call_target="blas_dtrsm", operand_layout_constraints={s32[], s32[], s32[], s32[], s32[], s32[], s32[], f64[], f64[5,5]{0,1}, f64[5,5]{0,1}}, output_to_operand_aliasing={{}: (9, {})}, api_version=API_VERSION_STATUS_RETURNING, metadata={op_name="jit(f)/jit(main)/transpose(jvp(jit(_solve_triangular)))/triangular_solve[left_side=True lower=True transpose_a=True conjugate_a=False unit_diagonal=False]" source_file="/home/mathis/repos/backward_ica/src/utils/misc.py" source_line=560}
  %fusion.32 = f64[5,5]{1,0} fusion(f64[5,5]{0,1} %custom-call.71), kind=kLoop, calls=%fused_computation.32, metadata={op_name="jit(f)/jit(main)/transpose(jvp(jit(cholesky)))/jit(tril)/select_n" source_file="/home/mathis/repos/backward_ica/src/utils/misc.py" source_line=566}
  %dot.65 = f64[5,5]{1,0} dot(f64[5,5]{1,0} %fusion.114, f64[5,5]{1,0} %fusion.32), lhs_contracting_dims={0}, rhs_contracting_dims={0}, operand_precision={highest,highest}, metadata={op_name="jit(f)/jit(main)/transpose(jvp(jit(cholesky)))/transpose[permutation=(1, 0)]" source_file="/home/mathis/repos/backward_ica/src/utils/misc.py" source_line=566}
  %fusion.31 = f64[5,5]{0,1} fusion(f64[5,5]{1,0} %dot.65), kind=kLoop, calls=%fused_computation.31, metadata={op_name="jit(f)/jit(main)/transpose(jvp(jit(cholesky)))/jit(tril)/select_n" source_file="/home/mathis/repos/backward_ica/src/utils/misc.py" source_line=566}
  %custom-call.72 = f64[5,5]{0,1} custom-call(s32[] %constant.33, s32[] %constant.33, s32[] %constant.33, s32[] %constant.35, s32[] %constant.32, /*index=5*/s32[] %constant.32, s32[] %constant.33, f64[] %constant.26, f64[5,5]{0,1} %copy.134, f64[5,5]{0,1} %fusion.31), custom_call_target="blas_dtrsm", operand_layout_constraints={s32[], s32[], s32[], s32[], s32[], s32[], s32[], f64[], f64[5,5]{0,1}, f64[5,5]{0,1}}, output_to_operand_aliasing={{}: (9, {})}, api_version=API_VERSION_STATUS_RETURNING, metadata={op_name="jit(f)/jit(main)/transpose(jvp(jit(cholesky)))/triangular_solve[left_side=True lower=True transpose_a=True conjugate_a=False unit_diagonal=False]" source_file="/home/mathis/repos/backward_ica/src/utils/misc.py" source_line=566}
  %fusion.30 = f64[5,5]{0,1} fusion(f64[5,5]{0,1} %custom-call.72), kind=kLoop, calls=%fused_computation.30, metadata={op_name="jit(f)/jit(main)/transpose(jvp(jit(cholesky)))/triangular_solve[left_side=True lower=True transpose_a=True conjugate_a=False unit_diagonal=False]" source_file="/home/mathis/repos/backward_ica/src/utils/misc.py" source_line=566}
  %custom-call.73 = f64[5,5]{0,1} custom-call(s32[] %constant.35, s32[] %constant.33, s32[] %constant.35, s32[] %constant.35, s32[] %constant.32, /*index=5*/s32[] %constant.32, s32[] %constant.33, f64[] %constant.26, f64[5,5]{0,1} %copy.134, f64[5,5]{0,1} %fusion.30), custom_call_target="blas_dtrsm", operand_layout_constraints={s32[], s32[], s32[], s32[], s32[], s32[], s32[], f64[], f64[5,5]{0,1}, f64[5,5]{0,1}}, output_to_operand_aliasing={{}: (9, {})}, api_version=API_VERSION_STATUS_RETURNING, metadata={op_name="jit(f)/jit(main)/transpose(jvp(jit(cholesky)))/triangular_solve[left_side=False lower=True transpose_a=False conjugate_a=False unit_diagonal=False]" source_file="/home/mathis/repos/backward_ica/src/utils/misc.py" source_line=566}
  %fusion.29 = f64[5,5]{1,0} fusion(f64[5,5]{0,1} %custom-call.73), kind=kLoop, calls=%fused_computation.29, metadata={op_name="jit(f)/jit(main)/rev[dimensions=(0, 1)]" source_file="/home/mathis/repos/backward_ica/src/utils/misc.py" source_line=557}
  %dot.3119 = f64[5,5]{1,0} dot(f64[5,5]{1,0} %fusion.29, f64[5,5]{1,0} %fusion.125), lhs_contracting_dims={1}, rhs_contracting_dims={0}, metadata={op_name="jit(f)/jit(main)/dot_general[dimension_numbers=(((1,), (1,)), ((), ())) precision=None preferred_element_type=None]" source_file="/home/mathis/repos/backward_ica/src/utils/misc.py" source_line=563}
  %dot.3118 = f64[5,5]{1,0} dot(f64[5,5]{1,0} %fusion.29, f64[5,5]{1,0} %fusion.125), lhs_contracting_dims={0}, rhs_contracting_dims={0}, metadata={op_name="jit(f)/jit(main)/dot_general[dimension_numbers=(((0,), (0,)), ((), ())) precision=None preferred_element_type=None]" source_file="/home/mathis/repos/backward_ica/src/utils/misc.py" source_line=563}
  %fusion.28 = f64[5,5]{1,0} fusion(f64[5,5]{1,0} %dot.3119, f64[5,5]{1,0} %dot.3118), kind=kLoop, calls=%fused_computation.28, metadata={op_name="jit(f)/jit(main)/transpose(jvp(jit(cholesky)))/jit(tril)/select_n" source_file="/home/mathis/repos/backward_ica/src/utils/misc.py" source_line=566}
  %dot.66 = f64[5,5]{1,0} dot(f64[5,5]{1,0} %fusion.126, f64[5,5]{1,0} %fusion.28), lhs_contracting_dims={0}, rhs_contracting_dims={0}, operand_precision={highest,highest}, metadata={op_name="jit(f)/jit(main)/transpose(jvp(jit(cholesky)))/transpose[permutation=(1, 0)]" source_file="/home/mathis/repos/backward_ica/src/utils/misc.py" source_line=566}
  %fusion.27 = f64[5,5]{0,1} fusion(f64[5,5]{1,0} %dot.66), kind=kLoop, calls=%fused_computation.27, metadata={op_name="jit(f)/jit(main)/transpose(jvp(jit(cholesky)))/jit(tril)/select_n" source_file="/home/mathis/repos/backward_ica/src/utils/misc.py" source_line=566}
  %custom-call.74 = f64[5,5]{0,1} custom-call(s32[] %constant.33, s32[] %constant.33, s32[] %constant.33, s32[] %constant.35, s32[] %constant.32, /*index=5*/s32[] %constant.32, s32[] %constant.33, f64[] %constant.26, f64[5,5]{0,1} %copy.173, f64[5,5]{0,1} %fusion.27), custom_call_target="blas_dtrsm", operand_layout_constraints={s32[], s32[], s32[], s32[], s32[], s32[], s32[], f64[], f64[5,5]{0,1}, f64[5,5]{0,1}}, output_to_operand_aliasing={{}: (9, {})}, api_version=API_VERSION_STATUS_RETURNING, metadata={op_name="jit(f)/jit(main)/transpose(jvp(jit(cholesky)))/triangular_solve[left_side=True lower=True transpose_a=True conjugate_a=False unit_diagonal=False]" source_file="/home/mathis/repos/backward_ica/src/utils/misc.py" source_line=566}
  %fusion.26 = f64[5,5]{0,1} fusion(f64[5,5]{0,1} %custom-call.74), kind=kLoop, calls=%fused_computation.26, metadata={op_name="jit(f)/jit(main)/transpose(jvp(jit(cholesky)))/triangular_solve[left_side=True lower=True transpose_a=True conjugate_a=False unit_diagonal=False]" source_file="/home/mathis/repos/backward_ica/src/utils/misc.py" source_line=566}
  %custom-call.75 = f64[5,5]{0,1} custom-call(s32[] %constant.35, s32[] %constant.33, s32[] %constant.35, s32[] %constant.35, s32[] %constant.32, /*index=5*/s32[] %constant.32, s32[] %constant.33, f64[] %constant.26, f64[5,5]{0,1} %copy.173, f64[5,5]{0,1} %fusion.26), custom_call_target="blas_dtrsm", operand_layout_constraints={s32[], s32[], s32[], s32[], s32[], s32[], s32[], f64[], f64[5,5]{0,1}, f64[5,5]{0,1}}, output_to_operand_aliasing={{}: (9, {})}, api_version=API_VERSION_STATUS_RETURNING, metadata={op_name="jit(f)/jit(main)/transpose(jvp(jit(cholesky)))/triangular_solve[left_side=False lower=True transpose_a=False conjugate_a=False unit_diagonal=False]" source_file="/home/mathis/repos/backward_ica/src/utils/misc.py" source_line=566}
  %fusion.20 = f64[5,5]{1,0} fusion(f64[5,5]{0,1} %custom-call.80, f64[5,5]{0,1} %custom-call.75), kind=kLoop, calls=%fused_computation.20, metadata={op_name="jit(f)/jit(main)/mul" source_file="/home/mathis/repos/backward_ica/src/stats/distributions.py" source_line=149}
  %dot.26 = f64[5,5]{1,0} dot(f64[5,5]{1,0} %fusion.20, f64[5,5]{1,0} %copy.87), lhs_contracting_dims={1}, rhs_contracting_dims={1}, operand_precision={highest,highest}, metadata={op_name="jit(f)/jit(main)/transpose(jvp(jit(_cho_solve)))/dot_general[dimension_numbers=(((1,), (1,)), ((), ())) precision=(<Precision.HIGHEST: 2>, <Precision.HIGHEST: 2>) preferred_element_type=None]" source_file="/home/mathis/repos/backward_ica/src/utils/misc.py" source_line=573}
  %copy.62 = f64[5,5]{0,1} copy(f64[5,5]{1,0} %dot.26), metadata={op_name="jit(f)/jit(main)/transpose(jvp(jit(_cho_solve)))/dot_general[dimension_numbers=(((1,), (1,)), ((), ())) precision=(<Precision.HIGHEST: 2>, <Precision.HIGHEST: 2>) preferred_element_type=None]" source_file="/home/mathis/repos/backward_ica/src/utils/misc.py" source_line=573}
  %custom-call.83 = f64[5,5]{0,1} custom-call(s32[] %constant.33, s32[] %constant.33, s32[] %constant.35, s32[] %constant.35, s32[] %constant.32, /*index=5*/s32[] %constant.32, s32[] %constant.33, f64[] %constant.26, f64[5,5]{0,1} %fusion.131, f64[5,5]{0,1} %copy.62), custom_call_target="blas_dtrsm", operand_layout_constraints={s32[], s32[], s32[], s32[], s32[], s32[], s32[], f64[], f64[5,5]{0,1}, f64[5,5]{0,1}}, output_to_operand_aliasing={{}: (9, {})}, api_version=API_VERSION_STATUS_RETURNING, metadata={op_name="jit(f)/jit(main)/transpose(jvp(jit(_cho_solve)))/triangular_solve[left_side=True lower=True transpose_a=False conjugate_a=False unit_diagonal=False]" source_file="/home/mathis/repos/backward_ica/src/utils/misc.py" source_line=573}
  %copy.60 = f64[5,5]{0,1} copy(f64[5,5]{1,0} %fusion.20), metadata={op_name="jit(f)/jit(main)/mul" source_file="/home/mathis/repos/backward_ica/src/stats/distributions.py" source_line=149}
  %custom-call.81 = f64[5,5]{0,1} custom-call(s32[] %constant.33, s32[] %constant.33, s32[] %constant.35, s32[] %constant.35, s32[] %constant.32, /*index=5*/s32[] %constant.32, s32[] %constant.33, f64[] %constant.26, f64[5,5]{0,1} %fusion.131, f64[5,5]{0,1} %copy.60), custom_call_target="blas_dtrsm", operand_layout_constraints={s32[], s32[], s32[], s32[], s32[], s32[], s32[], f64[], f64[5,5]{0,1}, f64[5,5]{0,1}}, output_to_operand_aliasing={{}: (9, {})}, api_version=API_VERSION_STATUS_RETURNING, metadata={op_name="jit(f)/jit(main)/transpose(jvp(jit(_cho_solve)))/triangular_solve[left_side=True lower=True transpose_a=False conjugate_a=False unit_diagonal=False]" source_file="/home/mathis/repos/backward_ica/src/utils/misc.py" source_line=573}
  %copy.233 = f64[5,5]{1,0} copy(f64[5,5]{0,1} %custom-call.81), metadata={op_name="jit(f)/jit(main)/transpose(jvp(jit(_cho_solve)))/triangular_solve[left_side=True lower=True transpose_a=False conjugate_a=False unit_diagonal=False]" source_file="/home/mathis/repos/backward_ica/src/utils/misc.py" source_line=573}
  %dot.25 = f64[5,5]{1,0} dot(f64[5,5]{1,0} %copy.233, f64[5,5]{1,0} %copy.178), lhs_contracting_dims={1}, rhs_contracting_dims={1}, operand_precision={highest,highest}, metadata={op_name="jit(f)/jit(main)/transpose(jvp(jit(_cho_solve)))/dot_general[dimension_numbers=(((1,), (1,)), ((), ())) precision=(<Precision.HIGHEST: 2>, <Precision.HIGHEST: 2>) preferred_element_type=None]" source_file="/home/mathis/repos/backward_ica/src/utils/misc.py" source_line=573}
  %copy.61 = f64[5,5]{0,1} copy(f64[5,5]{1,0} %dot.25), metadata={op_name="jit(f)/jit(main)/transpose(jvp(jit(_cho_solve)))/dot_general[dimension_numbers=(((1,), (1,)), ((), ())) precision=(<Precision.HIGHEST: 2>, <Precision.HIGHEST: 2>) preferred_element_type=None]" source_file="/home/mathis/repos/backward_ica/src/utils/misc.py" source_line=573}
  %custom-call.82 = f64[5,5]{0,1} custom-call(s32[] %constant.33, s32[] %constant.33, s32[] %constant.33, s32[] %constant.35, s32[] %constant.32, /*index=5*/s32[] %constant.32, s32[] %constant.33, f64[] %constant.26, f64[5,5]{0,1} %fusion.131, f64[5,5]{0,1} %copy.61), custom_call_target="blas_dtrsm", operand_layout_constraints={s32[], s32[], s32[], s32[], s32[], s32[], s32[], f64[], f64[5,5]{0,1}, f64[5,5]{0,1}}, output_to_operand_aliasing={{}: (9, {})}, api_version=API_VERSION_STATUS_RETURNING, metadata={op_name="jit(f)/jit(main)/transpose(jvp(jit(_cho_solve)))/triangular_solve[left_side=True lower=True transpose_a=True conjugate_a=False unit_diagonal=False]" source_file="/home/mathis/repos/backward_ica/src/utils/misc.py" source_line=573}
  %fusion.42 = f64[5]{0} fusion(f64[5]{0} %dot.3058, f64[5,5]{0,1} %custom-call.8), kind=kLoop, calls=%fused_computation.42, metadata={op_name="jit(f)/jit(main)/dot_general[dimension_numbers=(((0,), (0,)), ((), ())) precision=None preferred_element_type=None]" source_file="/home/mathis/repos/backward_ica/src/stats/distributions.py" source_line=142}
  %fusion.38 = f64[5,5]{1,0} fusion(f64[5]{0} %fusion.42, f64[5]{0} %fusion.118), kind=kLoop, calls=%fused_computation.38, metadata={op_name="jit(f)/jit(main)/dot_general[dimension_numbers=(((), ()), ((), ())) precision=None preferred_element_type=None]" source_file="/home/mathis/repos/backward_ica/src/stats/distributions.py" source_line=156}
  %dot.18 = f64[5,5]{1,0} dot(f64[5,5]{1,0} %fusion.38, f64[5,5]{1,0} %copy.87), lhs_contracting_dims={1}, rhs_contracting_dims={1}, operand_precision={highest,highest}, metadata={op_name="jit(f)/jit(main)/transpose(jvp(jit(_cho_solve)))/dot_general[dimension_numbers=(((1,), (1,)), ((), ())) precision=(<Precision.HIGHEST: 2>, <Precision.HIGHEST: 2>) preferred_element_type=None]" source_file="/home/mathis/repos/backward_ica/src/utils/misc.py" source_line=573}
  %copy.49 = f64[5,5]{0,1} copy(f64[5,5]{1,0} %dot.18), metadata={op_name="jit(f)/jit(main)/transpose(jvp(jit(_cho_solve)))/dot_general[dimension_numbers=(((1,), (1,)), ((), ())) precision=(<Precision.HIGHEST: 2>, <Precision.HIGHEST: 2>) preferred_element_type=None]" source_file="/home/mathis/repos/backward_ica/src/utils/misc.py" source_line=573}
  %custom-call.70 = f64[5,5]{0,1} custom-call(s32[] %constant.33, s32[] %constant.33, s32[] %constant.35, s32[] %constant.35, s32[] %constant.32, /*index=5*/s32[] %constant.32, s32[] %constant.33, f64[] %constant.26, f64[5,5]{0,1} %fusion.131, f64[5,5]{0,1} %copy.49), custom_call_target="blas_dtrsm", operand_layout_constraints={s32[], s32[], s32[], s32[], s32[], s32[], s32[], f64[], f64[5,5]{0,1}, f64[5,5]{0,1}}, output_to_operand_aliasing={{}: (9, {})}, api_version=API_VERSION_STATUS_RETURNING, metadata={op_name="jit(f)/jit(main)/transpose(jvp(jit(_cho_solve)))/triangular_solve[left_side=True lower=True transpose_a=False conjugate_a=False unit_diagonal=False]" source_file="/home/mathis/repos/backward_ica/src/utils/misc.py" source_line=573}
  %fusion.37 = f64[5,5]{0,1} fusion(f64[5]{0} %fusion.42, f64[5]{0} %fusion.118), kind=kLoop, calls=%fused_computation.37, metadata={op_name="jit(f)/jit(main)/dot_general[dimension_numbers=(((), ()), ((), ())) precision=None preferred_element_type=None]" source_file="/home/mathis/repos/backward_ica/src/stats/distributions.py" source_line=156}
  %custom-call.68 = f64[5,5]{0,1} custom-call(s32[] %constant.33, s32[] %constant.33, s32[] %constant.35, s32[] %constant.35, s32[] %constant.32, /*index=5*/s32[] %constant.32, s32[] %constant.33, f64[] %constant.26, f64[5,5]{0,1} %fusion.131, f64[5,5]{0,1} %fusion.37), custom_call_target="blas_dtrsm", operand_layout_constraints={s32[], s32[], s32[], s32[], s32[], s32[], s32[], f64[], f64[5,5]{0,1}, f64[5,5]{0,1}}, output_to_operand_aliasing={{}: (9, {})}, api_version=API_VERSION_STATUS_RETURNING, metadata={op_name="jit(f)/jit(main)/transpose(jvp(jit(_cho_solve)))/triangular_solve[left_side=True lower=True transpose_a=False conjugate_a=False unit_diagonal=False]" source_file="/home/mathis/repos/backward_ica/src/utils/misc.py" source_line=573}
  %copy.197 = f64[5,5]{1,0} copy(f64[5,5]{0,1} %custom-call.68), metadata={op_name="jit(f)/jit(main)/transpose(jvp(jit(_cho_solve)))/triangular_solve[left_side=True lower=True transpose_a=False conjugate_a=False unit_diagonal=False]" source_file="/home/mathis/repos/backward_ica/src/utils/misc.py" source_line=573}
  %dot.17 = f64[5,5]{1,0} dot(f64[5,5]{1,0} %copy.197, f64[5,5]{1,0} %copy.178), lhs_contracting_dims={1}, rhs_contracting_dims={1}, operand_precision={highest,highest}, metadata={op_name="jit(f)/jit(main)/transpose(jvp(jit(_cho_solve)))/dot_general[dimension_numbers=(((1,), (1,)), ((), ())) precision=(<Precision.HIGHEST: 2>, <Precision.HIGHEST: 2>) preferred_element_type=None]" source_file="/home/mathis/repos/backward_ica/src/utils/misc.py" source_line=573}
  %copy.48 = f64[5,5]{0,1} copy(f64[5,5]{1,0} %dot.17), metadata={op_name="jit(f)/jit(main)/transpose(jvp(jit(_cho_solve)))/dot_general[dimension_numbers=(((1,), (1,)), ((), ())) precision=(<Precision.HIGHEST: 2>, <Precision.HIGHEST: 2>) preferred_element_type=None]" source_file="/home/mathis/repos/backward_ica/src/utils/misc.py" source_line=573}
  %custom-call.69 = f64[5,5]{0,1} custom-call(s32[] %constant.33, s32[] %constant.33, s32[] %constant.33, s32[] %constant.35, s32[] %constant.32, /*index=5*/s32[] %constant.32, s32[] %constant.33, f64[] %constant.26, f64[5,5]{0,1} %fusion.131, f64[5,5]{0,1} %copy.48), custom_call_target="blas_dtrsm", operand_layout_constraints={s32[], s32[], s32[], s32[], s32[], s32[], s32[], f64[], f64[5,5]{0,1}, f64[5,5]{0,1}}, output_to_operand_aliasing={{}: (9, {})}, api_version=API_VERSION_STATUS_RETURNING, metadata={op_name="jit(f)/jit(main)/transpose(jvp(jit(_cho_solve)))/triangular_solve[left_side=True lower=True transpose_a=True conjugate_a=False unit_diagonal=False]" source_file="/home/mathis/repos/backward_ica/src/utils/misc.py" source_line=573}
  %fusion.18 = f64[5,5]{1,0} fusion(f64[5,5]{0,1} %custom-call.83, f64[5,5]{0,1} %custom-call.82, f64[5,5]{0,1} %custom-call.70, f64[5,5]{0,1} %custom-call.69), kind=kLoop, calls=%fused_computation.18, metadata={op_name="jit(f)/jit(main)/transpose(jvp(jit(cholesky)))/jit(tril)/select_n" source_file="/home/mathis/repos/backward_ica/src/utils/misc.py" source_line=566}
  %dot.69 = f64[5,5]{1,0} dot(f64[5,5]{1,0} %fusion.132, f64[5,5]{1,0} %fusion.18), lhs_contracting_dims={0}, rhs_contracting_dims={0}, operand_precision={highest,highest}, metadata={op_name="jit(f)/jit(main)/transpose(jvp(jit(cholesky)))/transpose[permutation=(1, 0)]" source_file="/home/mathis/repos/backward_ica/src/utils/misc.py" source_line=566}
  %fusion.17 = f64[5,5]{0,1} fusion(f64[5,5]{1,0} %dot.69), kind=kLoop, calls=%fused_computation.17, metadata={op_name="jit(f)/jit(main)/transpose(jvp(jit(cholesky)))/jit(tril)/select_n" source_file="/home/mathis/repos/backward_ica/src/utils/misc.py" source_line=566}
  %custom-call.84 = f64[5,5]{0,1} custom-call(s32[] %constant.33, s32[] %constant.33, s32[] %constant.33, s32[] %constant.35, s32[] %constant.32, /*index=5*/s32[] %constant.32, s32[] %constant.33, f64[] %constant.26, f64[5,5]{0,1} %copy.187, f64[5,5]{0,1} %fusion.17), custom_call_target="blas_dtrsm", operand_layout_constraints={s32[], s32[], s32[], s32[], s32[], s32[], s32[], f64[], f64[5,5]{0,1}, f64[5,5]{0,1}}, output_to_operand_aliasing={{}: (9, {})}, api_version=API_VERSION_STATUS_RETURNING, metadata={op_name="jit(f)/jit(main)/transpose(jvp(jit(cholesky)))/triangular_solve[left_side=True lower=True transpose_a=True conjugate_a=False unit_diagonal=False]" source_file="/home/mathis/repos/backward_ica/src/utils/misc.py" source_line=566}
  %fusion.16 = f64[5,5]{0,1} fusion(f64[5,5]{0,1} %custom-call.84), kind=kLoop, calls=%fused_computation.16, metadata={op_name="jit(f)/jit(main)/transpose(jvp(jit(cholesky)))/triangular_solve[left_side=True lower=True transpose_a=True conjugate_a=False unit_diagonal=False]" source_file="/home/mathis/repos/backward_ica/src/utils/misc.py" source_line=566}
  %custom-call.85 = f64[5,5]{0,1} custom-call(s32[] %constant.35, s32[] %constant.33, s32[] %constant.35, s32[] %constant.35, s32[] %constant.32, /*index=5*/s32[] %constant.32, s32[] %constant.33, f64[] %constant.26, f64[5,5]{0,1} %copy.187, f64[5,5]{0,1} %fusion.16), custom_call_target="blas_dtrsm", operand_layout_constraints={s32[], s32[], s32[], s32[], s32[], s32[], s32[], f64[], f64[5,5]{0,1}, f64[5,5]{0,1}}, output_to_operand_aliasing={{}: (9, {})}, api_version=API_VERSION_STATUS_RETURNING, metadata={op_name="jit(f)/jit(main)/transpose(jvp(jit(cholesky)))/triangular_solve[left_side=False lower=True transpose_a=False conjugate_a=False unit_diagonal=False]" source_file="/home/mathis/repos/backward_ica/src/utils/misc.py" source_line=566}
  %fusion.15 = f64[5,5]{1,0} fusion(f64[5,5]{0,1} %custom-call.85), kind=kLoop, calls=%fused_computation.15, metadata={op_name="jit(f)/jit(main)/transpose(jvp(jit(cholesky)))/add_any" source_file="/home/mathis/repos/backward_ica/src/utils/misc.py" source_line=566}
  %dot.3363 = f64[5,5]{1,0} dot(f64[5,5]{1,0} %fusion.15, f64[5,5]{1,0} %fusion.140), lhs_contracting_dims={1}, rhs_contracting_dims={0}, metadata={op_name="jit(f)/jit(main)/dot_general[dimension_numbers=(((1,), (1,)), ((), ())) precision=None preferred_element_type=None]" source_file="/home/mathis/repos/backward_ica/src/stats/kalman.py" source_line=16}
  %dot.3365 = f64[5,5]{1,0} dot(f64[5,5]{1,0} %dot.3363, f64[5,5]{1,0} %copy.70), lhs_contracting_dims={1}, rhs_contracting_dims={1}, metadata={op_name="jit(f)/jit(main)/dot_general[dimension_numbers=(((1,), (1,)), ((), ())) precision=None preferred_element_type=None]" source_file="/home/mathis/repos/backward_ica/src/stats/kalman.py" source_line=16}
  %dot.3362 = f64[5,5]{1,0} dot(f64[5,5]{1,0} %fusion.15, f64[5,5]{1,0} %dot.185), lhs_contracting_dims={0}, rhs_contracting_dims={0}, metadata={op_name="jit(f)/jit(main)/dot_general[dimension_numbers=(((0,), (0,)), ((), ())) precision=None preferred_element_type=None]" source_file="/home/mathis/repos/backward_ica/src/stats/kalman.py" source_line=16}
  %fusion.41 = f64[5]{0} fusion(f64[5]{0} %fusion.42, f64[5,5]{0,1} %custom-call.5), kind=kLoop, calls=%fused_computation.41, metadata={op_name="jit(f)/jit(main)/dot_general[dimension_numbers=(((0,), (0,)), ((), ())) precision=None preferred_element_type=None]" source_file="/home/mathis/repos/backward_ica/src/stats/distributions.py" source_line=156}
  %fusion.14 = f64[5,5]{1,0} fusion(f64[5,5]{1,0} %dot.3365, f64[5,5]{1,0} %dot.3362, f64[5]{0} %fusion.41, f64[5]{0} %fusion.119), kind=kLoop, calls=%fused_computation.14, metadata={op_name="jit(f)/jit(main)/transpose(jvp(jit(_diag)))/jit(_where)/select_n" source_file="/home/mathis/repos/backward_ica/src/variational/inference_nets.py" source_line=107}
  %reduce.7 = f64[5]{0} reduce(f64[5,5]{1,0} %fusion.14, f64[] %constant.11), dimensions={0}, to_apply=%region_15.3367, metadata={op_name="jit(f)/jit(main)/transpose(jvp(jit(_diag)))/jit(_where)/reduce_sum[axes=(0,)]" source_file="/home/mathis/repos/backward_ica/src/variational/inference_nets.py" source_line=107}
  %add.3417 = f64[5]{0} add(f64[5]{0} %reduce.6, f64[5]{0} %reduce.7), metadata={op_name="jit(f)/jit(main)/add" source_file="/home/mathis/repos/backward_ica/test.py" source_line=86}
  %dot.1865 = f64[5,5]{1,0} dot(f64[5,5]{1,0} %fusion.47, f64[5,5]{1,0} %fusion.134), lhs_contracting_dims={1}, rhs_contracting_dims={0}, metadata={op_name="jit(f)/jit(main)/dot_general[dimension_numbers=(((1,), (1,)), ((), ())) precision=None preferred_element_type=None]" source_file="/home/mathis/repos/backward_ica/src/utils/misc.py" source_line=563}
  %dot.1864 = f64[5,5]{1,0} dot(f64[5,5]{1,0} %fusion.47, f64[5,5]{1,0} %fusion.134), lhs_contracting_dims={0}, rhs_contracting_dims={0}, metadata={op_name="jit(f)/jit(main)/dot_general[dimension_numbers=(((0,), (0,)), ((), ())) precision=None preferred_element_type=None]" source_file="/home/mathis/repos/backward_ica/src/utils/misc.py" source_line=563}
  %fusion.13 = f64[5,5]{1,0} fusion(f64[5,5]{1,0} %dot.1865, f64[5,5]{1,0} %dot.1864), kind=kLoop, calls=%fused_computation.13, metadata={op_name="jit(f)/jit(main)/transpose(jvp(jit(_diag)))/jit(_where)/select_n" source_file="/home/mathis/repos/backward_ica/src/variational/inference_nets.py" source_line=107}
  %reduce.8 = f64[5]{0} reduce(f64[5,5]{1,0} %fusion.13, f64[] %constant.11), dimensions={0}, to_apply=%region_6.1867, metadata={op_name="jit(f)/jit(main)/transpose(jvp(jit(_diag)))/jit(_where)/reduce_sum[axes=(0,)]" source_file="/home/mathis/repos/backward_ica/src/variational/inference_nets.py" source_line=107}
  %dot.3343 = f64[5,5]{1,0} dot(f64[5,5]{1,0} %fusion.15, f64[5,5]{1,0} %fusion.134), lhs_contracting_dims={1}, rhs_contracting_dims={0}, metadata={op_name="jit(f)/jit(main)/dot_general[dimension_numbers=(((1,), (1,)), ((), ())) precision=None preferred_element_type=None]" source_file="/home/mathis/repos/backward_ica/src/utils/misc.py" source_line=563}
  %dot.3342 = f64[5,5]{1,0} dot(f64[5,5]{1,0} %fusion.15, f64[5,5]{1,0} %fusion.134), lhs_contracting_dims={0}, rhs_contracting_dims={0}, metadata={op_name="jit(f)/jit(main)/dot_general[dimension_numbers=(((0,), (0,)), ((), ())) precision=None preferred_element_type=None]" source_file="/home/mathis/repos/backward_ica/src/utils/misc.py" source_line=563}
  %fusion.12 = f64[5,5]{1,0} fusion(f64[5,5]{1,0} %dot.3343, f64[5,5]{1,0} %dot.3342), kind=kLoop, calls=%fused_computation.12, metadata={op_name="jit(f)/jit(main)/transpose(jvp(jit(_diag)))/jit(_where)/select_n" source_file="/home/mathis/repos/backward_ica/src/variational/inference_nets.py" source_line=107}
  %reduce.9 = f64[5]{0} reduce(f64[5,5]{1,0} %fusion.12, f64[] %constant.11), dimensions={0}, to_apply=%region_14.3345, metadata={op_name="jit(f)/jit(main)/transpose(jvp(jit(_diag)))/jit(_where)/reduce_sum[axes=(0,)]" source_file="/home/mathis/repos/backward_ica/src/variational/inference_nets.py" source_line=107}
  %add.3418 = f64[5]{0} add(f64[5]{0} %reduce.8, f64[5]{0} %reduce.9), metadata={op_name="jit(f)/jit(main)/add" source_file="/home/mathis/repos/backward_ica/test.py" source_line=86}
  %fusion.8 = f64[5,5]{1,0} fusion(f64[5,5]{1,0} %fusion.20), kind=kLoop, calls=%fused_computation.8, metadata={op_name="jit(f)/jit(main)/transpose(jvp(jit(_diag)))/jit(_where)/select_n" source_file="/home/mathis/repos/backward_ica/src/variational/inference_nets.py" source_line=107}
  %reduce.11 = f64[5]{0} reduce(f64[5,5]{1,0} %fusion.8, f64[] %constant.11), dimensions={0}, to_apply=%region_16.3385, metadata={op_name="jit(f)/jit(main)/transpose(jvp(jit(_diag)))/jit(_where)/reduce_sum[axes=(0,)]" source_file="/home/mathis/repos/backward_ica/src/variational/inference_nets.py" source_line=107}
  %fusion.10 = f64[5]{0} fusion(f64[5]{0} %fusion.141, f64[10]{0} %fusion.142), kind=kLoop, calls=%fused_computation.10, metadata={op_name="jit(f)/jit(main)/jvp(jit(softplus))/exp" source_file="/home/mathis/repos/backward_ica/src/variational/inference_nets.py" source_line=107}
  %fusion.7 = f64[10]{0} fusion(f64[5]{0} %reduce.11, f64[5]{0} %fusion.10, f64[5]{0} %fusion.42), kind=kLoop, calls=%fused_computation.7, metadata={op_name="jit(f)/jit(main)/add_any" source_file="/home/mathis/repos/backward_ica/src/variational/inference_nets.py" source_line=106}
  %dot.3411 = f64[100]{0} dot(f64[10]{0} %fusion.7, f64[100,10]{1,0} %Arg_5.6), lhs_contracting_dims={0}, rhs_contracting_dims={1}, metadata={op_name="jit(f)/jit(main)/transpose(jvp(mlp))/linear_1/dot_general[dimension_numbers=(((0,), (1,)), ((), ())) precision=None preferred_element_type=None]" source_file="/home/mathis/venvs/jax_gpu/lib/python3.10/site-packages/haiku/_src/basic.py" source_line=178}
  %fusion.11 = f64[5,5]{1,0} fusion(f64[5,5]{1,0} %fusion.52), kind=kLoop, calls=%fused_computation.11, metadata={op_name="jit(f)/jit(main)/transpose(jvp(jit(_diag)))/jit(_where)/select_n" source_file="/home/mathis/repos/backward_ica/src/variational/inference_nets.py" source_line=107}
  %reduce.10 = f64[5]{0} reduce(f64[5,5]{1,0} %fusion.11, f64[] %constant.11), dimensions={0}, to_apply=%region_8.1907, metadata={op_name="jit(f)/jit(main)/transpose(jvp(jit(_diag)))/jit(_where)/reduce_sum[axes=(0,)]" source_file="/home/mathis/repos/backward_ica/src/variational/inference_nets.py" source_line=107}
  %fusion.9 = f64[10]{0} fusion(f64[5]{0} %reduce.10, f64[5]{0} %fusion.10, f64[5]{0} %fusion.87), kind=kLoop, calls=%fused_computation.9, metadata={op_name="jit(f)/jit(main)/add_any" source_file="/home/mathis/repos/backward_ica/src/variational/inference_nets.py" source_line=106}
  %dot.1933 = f64[100]{0} dot(f64[10]{0} %fusion.9, f64[100,10]{1,0} %Arg_5.6), lhs_contracting_dims={0}, rhs_contracting_dims={1}, metadata={op_name="jit(f)/jit(main)/transpose(jvp(mlp))/linear_1/dot_general[dimension_numbers=(((0,), (1,)), ((), ())) precision=None preferred_element_type=None]" source_file="/home/mathis/venvs/jax_gpu/lib/python3.10/site-packages/haiku/_src/basic.py" source_line=178}
  %fusion.6 = f64[100]{0} fusion(f64[100]{0} %tanh.260, f64[100]{0} %dot.3411, f64[100]{0} %dot.1933), kind=kLoop, calls=%fused_computation.6, metadata={op_name="jit(f)/jit(main)/add" source_file="/home/mathis/repos/backward_ica/test.py" source_line=86}
  %fusion.5 = f64[5,100]{0,1} fusion(f64[5]{0} %Arg_6.7, f64[100]{0} %tanh.260, f64[100]{0} %dot.3411, f64[100]{0} %dot.1933), kind=kLoop, calls=%fused_computation.5, metadata={op_name="jit(f)/jit(main)/add" source_file="/home/mathis/repos/backward_ica/test.py" source_line=86}
  %copy.247 = f64[5,100]{1,0} copy(f64[5,100]{0,1} %fusion.5)
  %add.3421 = f64[10]{0} add(f64[10]{0} %fusion.9, f64[10]{0} %fusion.7), metadata={op_name="jit(f)/jit(main)/add" source_file="/home/mathis/repos/backward_ica/test.py" source_line=86}
  %fusion.4 = f64[100,10]{0,1} fusion(f64[10]{0} %fusion.7, f64[100]{0} %tanh.260, f64[10]{0} %fusion.9), kind=kLoop, calls=%fused_computation.4, metadata={op_name="jit(f)/jit(main)/add" source_file="/home/mathis/repos/backward_ica/test.py" source_line=86}
  %copy.248 = f64[100,10]{1,0} copy(f64[100,10]{0,1} %fusion.4)
  ROOT %tuple.94 = (f64[], f64[], f64[5]{0}, f64[5]{0}, f64[5]{0}, /*index=5*/f64[5]{0}, f64[100]{0}, f64[5,100]{1,0}, f64[10]{0}, f64[100,10]{1,0}) tuple(f64[] %fusion.98, f64[] %fusion.92, f64[5]{0} %broadcast.465, f64[5]{0} %copy.517, f64[5]{0} %add.3417, /*index=5*/f64[5]{0} %add.3418, f64[100]{0} %fusion.6, f64[5,100]{1,0} %copy.247, f64[10]{0} %add.3421, f64[100,10]{1,0} %copy.248)
}

