HloModule jit__update, entry_computation_layout={(f64[5]{0}, f64[5,5]{1,0}, f64[100]{0}, f64[100]{0}, f64[5,5]{1,0}, /*index=5*/f64[5]{0}, f64[5,5]{1,0}, f64[5,5]{1,0}, f64[5]{0}, f64[5,5]{1,0}, /*index=10*/f64[100,5]{1,0}, u32[2]{0}, f64[5]{0}, f64[5]{0}, f64[100]{0}, /*index=15*/f64[5,100]{1,0}, f64[10]{0}, f64[100,10]{1,0}, f64[1,5]{1,0})->(f64[5]{0}, f64[5,5]{1,0}, f64[100,5]{1,0}, f64[100,5]{1,0}, f64[100,5]{1,0}, /*index=5*/f64[100,5]{1,0}, f64[100,100]{1,0}, f64[100,5,100]{2,1,0}, f64[100,10]{1,0}, f64[100,100,10]{2,1,0}, /*index=10*/f64[100,5]{1,0}, f64[100,5]{1,0}, f64[100,5]{1,0}, f64[100,5]{1,0}, f64[100,100]{1,0}, /*index=15*/f64[100,5,100]{2,1,0}, f64[100,10]{1,0}, f64[100,100,10]{2,1,0}, f64[100]{0}, f64[100]{0}, /*index=20*/f64[100,5]{1,0}, f64[5]{0}, f64[5,5]{1,0}, f64[5,5]{1,0}, f64[5]{0}, /*index=25*/f64[5,5]{1,0})}, allow_spmd_sharding_propagation_to_output={true,true,true,true,true,true,true,true,true,true,true,true,true,true,true,true,true,true,true,true,true,true,true,true,true,true}

%region_4.1842 (Arg_0.1843: f64[], Arg_1.1844: f64[]) -> f64[] {
  %Arg_0.1843 = f64[] parameter(0)
  %Arg_1.1844 = f64[] parameter(1)
  ROOT %add.1845 = f64[] add(f64[] %Arg_0.1843, f64[] %Arg_1.1844), metadata={op_name="jit(_update)/jit(main)/reduce_sum[axes=(1,)]" source_file="/home/mathis/repos/backward_ica/src/stats/distributions.py" source_line=88}
}

%region_5.1854 (Arg_0.1855: f64[], Arg_1.1856: f64[]) -> f64[] {
  %Arg_0.1855 = f64[] parameter(0)
  %Arg_1.1856 = f64[] parameter(1)
  ROOT %add.1857 = f64[] add(f64[] %Arg_0.1855, f64[] %Arg_1.1856), metadata={op_name="jit(_update)/jit(main)/reduce_sum[axes=(1,)]" source_file="/home/mathis/repos/backward_ica/src/utils/misc.py" source_line=77}
}

%region_6.1862 (Arg_0.1863: f64[], Arg_1.1864: f64[]) -> f64[] {
  %Arg_0.1863 = f64[] parameter(0)
  %Arg_1.1864 = f64[] parameter(1)
  ROOT %add.1865 = f64[] add(f64[] %Arg_0.1863, f64[] %Arg_1.1864), metadata={op_name="jit(_update)/jit(main)/reduce_sum[axes=(1,)]" source_file="/home/mathis/repos/backward_ica/src/variational/inference_nets.py" source_line=107}
}

%region_16.4197 (Arg_0.4198: f64[], Arg_1.4199: f64[]) -> f64[] {
  %Arg_0.4198 = f64[] parameter(0)
  %Arg_1.4199 = f64[] parameter(1)
  ROOT %add.4200 = f64[] add(f64[] %Arg_0.4198, f64[] %Arg_1.4199), metadata={op_name="jit(_update)/jit(main)/reduce_sum[axes=(2,)]" source_file="/home/mathis/repos/backward_ica/src/stats/distributions.py" source_line=88}
}

%region_17.4209 (Arg_0.4210: f64[], Arg_1.4211: f64[]) -> f64[] {
  %Arg_0.4210 = f64[] parameter(0)
  %Arg_1.4211 = f64[] parameter(1)
  ROOT %add.4212 = f64[] add(f64[] %Arg_0.4210, f64[] %Arg_1.4211), metadata={op_name="jit(_update)/jit(main)/reduce_sum[axes=(2,)]" source_file="/home/mathis/repos/backward_ica/src/utils/misc.py" source_line=77}
}

%region_18.4217 (Arg_0.4218: f64[], Arg_1.4219: f64[]) -> f64[] {
  %Arg_0.4218 = f64[] parameter(0)
  %Arg_1.4219 = f64[] parameter(1)
  ROOT %add.4220 = f64[] add(f64[] %Arg_0.4218, f64[] %Arg_1.4219), metadata={op_name="jit(_update)/jit(main)/reduce_sum[axes=(2,)]" source_file="/home/mathis/repos/backward_ica/src/variational/inference_nets.py" source_line=107}
}

%region_23.5425 (Arg_0.5426: f64[], Arg_1.5427: f64[]) -> f64[] {
  %Arg_0.5426 = f64[] parameter(0)
  %Arg_1.5427 = f64[] parameter(1)
  ROOT %add.5428 = f64[] add(f64[] %Arg_0.5426, f64[] %Arg_1.5427), metadata={op_name="jit(_update)/jit(main)/reduce_sum[axes=(2,)]" source_file="/home/mathis/repos/backward_ica/src/variational/inference_nets.py" source_line=107}
}

%region_24.5615 (Arg_0.5616: f64[], Arg_1.5617: f64[]) -> f64[] {
  %Arg_0.5616 = f64[] parameter(0)
  %Arg_1.5617 = f64[] parameter(1)
  ROOT %add.5618 = f64[] add(f64[] %Arg_0.5616, f64[] %Arg_1.5617), metadata={op_name="jit(_update)/jit(main)/reduce_sum[axes=(2,)]" source_file="/home/mathis/repos/backward_ica/src/stats/distributions.py" source_line=88}
}

%region_25.5630 (Arg_0.5631: f64[], Arg_1.5632: f64[]) -> f64[] {
  %Arg_0.5631 = f64[] parameter(0)
  %Arg_1.5632 = f64[] parameter(1)
  ROOT %add.5633 = f64[] add(f64[] %Arg_0.5631, f64[] %Arg_1.5632), metadata={op_name="jit(_update)/jit(main)/reduce_sum[axes=(2,)]" source_file="/home/mathis/repos/backward_ica/src/utils/misc.py" source_line=77}
}

%region_26.5729 (Arg_0.5730: f64[], Arg_1.5731: f64[]) -> f64[] {
  %Arg_0.5730 = f64[] parameter(0)
  %Arg_1.5731 = f64[] parameter(1)
  ROOT %add.5732 = f64[] add(f64[] %Arg_0.5730, f64[] %Arg_1.5731), metadata={op_name="jit(_update)/jit(main)/reduce_sum[axes=(1,)]" source_file="/home/mathis/repos/backward_ica/src/online_smoothing.py" source_line=835}
}

%region_28.5741 (Arg_0.5742: f64[], Arg_1.5743: f64[]) -> f64[] {
  %Arg_0.5742 = f64[] parameter(0)
  %Arg_1.5743 = f64[] parameter(1)
  ROOT %add.5744 = f64[] add(f64[] %Arg_0.5742, f64[] %Arg_1.5743), metadata={op_name="jit(_update)/jit(main)/reduce_sum[axes=(1,)]" source_file="/home/mathis/repos/backward_ica/src/online_smoothing.py" source_line=835}
}

%region_29.5747 (Arg_0.5748: f64[], Arg_1.5749: f64[]) -> f64[] {
  %Arg_0.5748 = f64[] parameter(0)
  %Arg_1.5749 = f64[] parameter(1)
  ROOT %add.5750 = f64[] add(f64[] %Arg_0.5748, f64[] %Arg_1.5749), metadata={op_name="jit(_update)/jit(main)/reduce_sum[axes=(1,)]" source_file="/home/mathis/repos/backward_ica/src/online_smoothing.py" source_line=835}
}

%region_30.5753 (Arg_0.5754: f64[], Arg_1.5755: f64[]) -> f64[] {
  %Arg_0.5754 = f64[] parameter(0)
  %Arg_1.5755 = f64[] parameter(1)
  ROOT %add.5756 = f64[] add(f64[] %Arg_0.5754, f64[] %Arg_1.5755), metadata={op_name="jit(_update)/jit(main)/reduce_sum[axes=(1,)]" source_file="/home/mathis/repos/backward_ica/src/online_smoothing.py" source_line=835}
}

%region_32.5765 (Arg_0.5766: f64[], Arg_1.5767: f64[]) -> f64[] {
  %Arg_0.5766 = f64[] parameter(0)
  %Arg_1.5767 = f64[] parameter(1)
  ROOT %add.5768 = f64[] add(f64[] %Arg_0.5766, f64[] %Arg_1.5767), metadata={op_name="jit(_update)/jit(main)/reduce_sum[axes=(1,)]" source_file="/home/mathis/repos/backward_ica/src/online_smoothing.py" source_line=835}
}

%and.reduce_sub_computation.3 (lhs.3: pred[], rhs.3: pred[]) -> pred[] {
  %lhs.3 = pred[] parameter(0)
  %rhs.3 = pred[] parameter(1)
  ROOT %and.6 = pred[] and(pred[] %lhs.3, pred[] %rhs.3)
}

%fused_computation (param_0: f64[5,5], param_1.3: f64[5], param_2.4: s32[], param_3.6: s32[2], param_4.8: s32[5,2]) -> f64[5,5] {
  %param_0 = f64[5,5]{1,0} parameter(0)
  %constant.470 = s32[] constant(0)
  %broadcast.863 = s32[2]{0} broadcast(s32[] %constant.470), dimensions={}
  %param_3.6 = s32[2]{0} parameter(3)
  %compare.53 = pred[2]{0} compare(s32[2]{0} %broadcast.863, s32[2]{0} %param_3.6), direction=LE
  %constant.469 = s32[] constant(4)
  %broadcast.861 = s32[2]{0} broadcast(s32[] %constant.469), dimensions={}
  %compare.52 = pred[2]{0} compare(s32[2]{0} %broadcast.861, s32[2]{0} %param_3.6), direction=GE
  %and.22 = pred[2]{0} and(pred[2]{0} %compare.53, pred[2]{0} %compare.52)
  %constant.468 = pred[] constant(true)
  %reduce.14 = pred[] reduce(pred[2]{0} %and.22, pred[] %constant.468), dimensions={0}, to_apply=%and.reduce_sub_computation.3
  %reshape.2013 = pred[1,1]{1,0} reshape(pred[] %reduce.14)
  %param_4.8 = s32[5,2]{1,0} parameter(4)
  %param_2.4 = s32[] parameter(2)
  %dynamic-slice.22 = s32[1,2]{1,0} dynamic-slice(s32[5,2]{1,0} %param_4.8, s32[] %param_2.4, s32[] %constant.470), dynamic_slice_sizes={1,2}
  %slice.99 = s32[1,1]{1,0} slice(s32[1,2]{1,0} %dynamic-slice.22), slice={[0:1], [0:1]}
  %reshape.2012 = s32[] reshape(s32[1,1]{1,0} %slice.99)
  %reshape.2014 = s32[2]{0} reshape(s32[1,2]{1,0} %dynamic-slice.22)
  %slice.98 = s32[1]{0} slice(s32[2]{0} %reshape.2014), slice={[1:2]}
  %reshape.2011 = s32[] reshape(s32[1]{0} %slice.98)
  %dynamic-slice.21 = f64[1,1]{1,0} dynamic-slice(f64[5,5]{1,0} %param_0, s32[] %reshape.2012, s32[] %reshape.2011), dynamic_slice_sizes={1,1}
  %param_1.3 = f64[5]{0} parameter(1)
  %dynamic-slice.20 = f64[1]{0} dynamic-slice(f64[5]{0} %param_1.3, s32[] %param_2.4), dynamic_slice_sizes={1}
  %reshape.2010 = f64[1,1]{1,0} reshape(f64[1]{0} %dynamic-slice.20)
  %add.90 = f64[1,1]{1,0} add(f64[1,1]{1,0} %dynamic-slice.21, f64[1,1]{1,0} %reshape.2010), metadata={op_name="/add" source_file="/home/mathis/repos/backward_ica/src/stats/distributions.py" source_line=211}
  %select.63 = f64[1,1]{1,0} select(pred[1,1]{1,0} %reshape.2013, f64[1,1]{1,0} %add.90, f64[1,1]{1,0} %dynamic-slice.21)
  ROOT %dynamic-update-slice.6 = f64[5,5]{1,0} dynamic-update-slice(f64[5,5]{1,0} %param_0, f64[1,1]{1,0} %select.63, s32[] %reshape.2012, s32[] %reshape.2011)
}

%fused_computation.1 (param_0.3: s32[5,2], param_1.8: s32[]) -> s32[2] {
  %param_0.3 = s32[5,2]{1,0} parameter(0)
  %param_1.8 = s32[] parameter(1)
  %constant.471 = s32[] constant(0)
  %dynamic-slice.23 = s32[1,2]{1,0} dynamic-slice(s32[5,2]{1,0} %param_0.3, s32[] %param_1.8, s32[] %constant.471), dynamic_slice_sizes={1,2}
  %slice.101 = s32[1,1]{1,0} slice(s32[1,2]{1,0} %dynamic-slice.23), slice={[0:1], [0:1]}
  %reshape.2016 = s32[1]{0} reshape(s32[1,1]{1,0} %slice.101)
  %reshape.2015 = s32[2]{0} reshape(s32[1,2]{1,0} %dynamic-slice.23)
  %slice.100 = s32[1]{0} slice(s32[2]{0} %reshape.2015), slice={[1:2]}
  ROOT %concatenate.16 = s32[2]{0} concatenate(s32[1]{0} %reshape.2016, s32[1]{0} %slice.100), dimensions={0}
}

%while_body.3 (param.6: (s32[], f64[5,5], s32[5,2], f64[5])) -> (s32[], f64[5,5], s32[5,2], f64[5]) {
  %param.6 = (s32[], f64[5,5]{1,0}, s32[5,2]{1,0}, f64[5]{0}) parameter(0)
  %get-tuple-element.94 = s32[] get-tuple-element((s32[], f64[5,5]{1,0}, s32[5,2]{1,0}, f64[5]{0}) %param.6), index=0
  %copy.1464 = s32[] copy(s32[] %get-tuple-element.94)
  %constant.71 = s32[] constant(1)
  %add.21 = s32[] add(s32[] %copy.1464, s32[] %constant.71)
  %get-tuple-element.95 = f64[5,5]{1,0} get-tuple-element((s32[], f64[5,5]{1,0}, s32[5,2]{1,0}, f64[5]{0}) %param.6), index=1
  %get-tuple-element.101 = f64[5]{0} get-tuple-element((s32[], f64[5,5]{1,0}, s32[5,2]{1,0}, f64[5]{0}) %param.6), index=3
  %get-tuple-element.100 = s32[5,2]{1,0} get-tuple-element((s32[], f64[5,5]{1,0}, s32[5,2]{1,0}, f64[5]{0}) %param.6), index=2
  %fusion.1 = s32[2]{0} fusion(s32[5,2]{1,0} %get-tuple-element.100, s32[] %copy.1464), kind=kLoop, calls=%fused_computation.1
  %fusion = f64[5,5]{1,0} fusion(f64[5,5]{1,0} %get-tuple-element.95, f64[5]{0} %get-tuple-element.101, s32[] %copy.1464, s32[2]{0} %fusion.1, s32[5,2]{1,0} %get-tuple-element.100), kind=kLoop, calls=%fused_computation
  ROOT %tuple.25 = (s32[], f64[5,5]{1,0}, s32[5,2]{1,0}, f64[5]{0}) tuple(s32[] %add.21, f64[5,5]{1,0} %fusion, s32[5,2]{1,0} %get-tuple-element.100, f64[5]{0} %get-tuple-element.101)
}

%while_cond.3 (param.7: (s32[], f64[5,5], s32[5,2], f64[5])) -> pred[] {
  %param.7 = (s32[], f64[5,5]{1,0}, s32[5,2]{1,0}, f64[5]{0}) parameter(0)
  %get-tuple-element.28 = s32[] get-tuple-element((s32[], f64[5,5]{1,0}, s32[5,2]{1,0}, f64[5]{0}) %param.7), index=0
  %constant.87 = s32[] constant(5)
  ROOT %compare.11 = pred[] compare(s32[] %get-tuple-element.28, s32[] %constant.87), direction=LT
}

%and.reduce_sub_computation.5 (lhs.5: pred[], rhs.5: pred[]) -> pred[] {
  %lhs.5 = pred[] parameter(0)
  %rhs.5 = pred[] parameter(1)
  ROOT %and.10 = pred[] and(pred[] %lhs.5, pred[] %rhs.5)
}

%fused_computation.2 (param_0.4: f64[5,5], param_1.12: f64[5], param_2.10: s32[], param_3.13: s32[2], param_4.17: s32[5,2]) -> f64[5,5] {
  %param_0.4 = f64[5,5]{1,0} parameter(0)
  %constant.474 = s32[] constant(0)
  %broadcast.866 = s32[2]{0} broadcast(s32[] %constant.474), dimensions={}
  %param_3.13 = s32[2]{0} parameter(3)
  %compare.55 = pred[2]{0} compare(s32[2]{0} %broadcast.866, s32[2]{0} %param_3.13), direction=LE
  %constant.473 = s32[] constant(4)
  %broadcast.865 = s32[2]{0} broadcast(s32[] %constant.473), dimensions={}
  %compare.54 = pred[2]{0} compare(s32[2]{0} %broadcast.865, s32[2]{0} %param_3.13), direction=GE
  %and.23 = pred[2]{0} and(pred[2]{0} %compare.55, pred[2]{0} %compare.54)
  %constant.472 = pred[] constant(true)
  %reduce.15 = pred[] reduce(pred[2]{0} %and.23, pred[] %constant.472), dimensions={0}, to_apply=%and.reduce_sub_computation.5
  %reshape.2020 = pred[1,1]{1,0} reshape(pred[] %reduce.15)
  %param_4.17 = s32[5,2]{1,0} parameter(4)
  %param_2.10 = s32[] parameter(2)
  %dynamic-slice.26 = s32[1,2]{1,0} dynamic-slice(s32[5,2]{1,0} %param_4.17, s32[] %param_2.10, s32[] %constant.474), dynamic_slice_sizes={1,2}
  %slice.103 = s32[1,1]{1,0} slice(s32[1,2]{1,0} %dynamic-slice.26), slice={[0:1], [0:1]}
  %reshape.2019 = s32[] reshape(s32[1,1]{1,0} %slice.103)
  %reshape.2021 = s32[2]{0} reshape(s32[1,2]{1,0} %dynamic-slice.26)
  %slice.102 = s32[1]{0} slice(s32[2]{0} %reshape.2021), slice={[1:2]}
  %reshape.2018 = s32[] reshape(s32[1]{0} %slice.102)
  %dynamic-slice.25 = f64[1,1]{1,0} dynamic-slice(f64[5,5]{1,0} %param_0.4, s32[] %reshape.2019, s32[] %reshape.2018), dynamic_slice_sizes={1,1}
  %param_1.12 = f64[5]{0} parameter(1)
  %dynamic-slice.24 = f64[1]{0} dynamic-slice(f64[5]{0} %param_1.12, s32[] %param_2.10), dynamic_slice_sizes={1}
  %reshape.2017 = f64[1,1]{1,0} reshape(f64[1]{0} %dynamic-slice.24)
  %add.91 = f64[1,1]{1,0} add(f64[1,1]{1,0} %dynamic-slice.25, f64[1,1]{1,0} %reshape.2017), metadata={op_name="/add" source_file="/home/mathis/repos/backward_ica/src/stats/distributions.py" source_line=211}
  %select.64 = f64[1,1]{1,0} select(pred[1,1]{1,0} %reshape.2020, f64[1,1]{1,0} %add.91, f64[1,1]{1,0} %dynamic-slice.25)
  ROOT %dynamic-update-slice.7 = f64[5,5]{1,0} dynamic-update-slice(f64[5,5]{1,0} %param_0.4, f64[1,1]{1,0} %select.64, s32[] %reshape.2019, s32[] %reshape.2018)
}

%fused_computation.3 (param_0.7: s32[5,2], param_1.17: s32[]) -> s32[2] {
  %param_0.7 = s32[5,2]{1,0} parameter(0)
  %param_1.17 = s32[] parameter(1)
  %constant.475 = s32[] constant(0)
  %dynamic-slice.27 = s32[1,2]{1,0} dynamic-slice(s32[5,2]{1,0} %param_0.7, s32[] %param_1.17, s32[] %constant.475), dynamic_slice_sizes={1,2}
  %slice.105 = s32[1,1]{1,0} slice(s32[1,2]{1,0} %dynamic-slice.27), slice={[0:1], [0:1]}
  %reshape.2023 = s32[1]{0} reshape(s32[1,1]{1,0} %slice.105)
  %reshape.2022 = s32[2]{0} reshape(s32[1,2]{1,0} %dynamic-slice.27)
  %slice.104 = s32[1]{0} slice(s32[2]{0} %reshape.2022), slice={[1:2]}
  ROOT %concatenate.17 = s32[2]{0} concatenate(s32[1]{0} %reshape.2023, s32[1]{0} %slice.104), dimensions={0}
}

%while_body.5 (param.10: (s32[], f64[5,5], s32[5,2], f64[5])) -> (s32[], f64[5,5], s32[5,2], f64[5]) {
  %param.10 = (s32[], f64[5,5]{1,0}, s32[5,2]{1,0}, f64[5]{0}) parameter(0)
  %get-tuple-element.106 = s32[] get-tuple-element((s32[], f64[5,5]{1,0}, s32[5,2]{1,0}, f64[5]{0}) %param.10), index=0
  %copy.1499 = s32[] copy(s32[] %get-tuple-element.106)
  %constant.125 = s32[] constant(1)
  %add.23 = s32[] add(s32[] %copy.1499, s32[] %constant.125)
  %get-tuple-element.107 = f64[5,5]{1,0} get-tuple-element((s32[], f64[5,5]{1,0}, s32[5,2]{1,0}, f64[5]{0}) %param.10), index=1
  %get-tuple-element.113 = f64[5]{0} get-tuple-element((s32[], f64[5,5]{1,0}, s32[5,2]{1,0}, f64[5]{0}) %param.10), index=3
  %get-tuple-element.112 = s32[5,2]{1,0} get-tuple-element((s32[], f64[5,5]{1,0}, s32[5,2]{1,0}, f64[5]{0}) %param.10), index=2
  %fusion.3 = s32[2]{0} fusion(s32[5,2]{1,0} %get-tuple-element.112, s32[] %copy.1499), kind=kLoop, calls=%fused_computation.3
  %fusion.2 = f64[5,5]{1,0} fusion(f64[5,5]{1,0} %get-tuple-element.107, f64[5]{0} %get-tuple-element.113, s32[] %copy.1499, s32[2]{0} %fusion.3, s32[5,2]{1,0} %get-tuple-element.112), kind=kLoop, calls=%fused_computation.2
  ROOT %tuple.28 = (s32[], f64[5,5]{1,0}, s32[5,2]{1,0}, f64[5]{0}) tuple(s32[] %add.23, f64[5,5]{1,0} %fusion.2, s32[5,2]{1,0} %get-tuple-element.112, f64[5]{0} %get-tuple-element.113)
}

%while_cond.5 (param.11: (s32[], f64[5,5], s32[5,2], f64[5])) -> pred[] {
  %param.11 = (s32[], f64[5,5]{1,0}, s32[5,2]{1,0}, f64[5]{0}) parameter(0)
  %get-tuple-element.44 = s32[] get-tuple-element((s32[], f64[5,5]{1,0}, s32[5,2]{1,0}, f64[5]{0}) %param.11), index=0
  %constant.141 = s32[] constant(5)
  ROOT %compare.17 = pred[] compare(s32[] %get-tuple-element.44, s32[] %constant.141), direction=LT
}

%region_8.2589 (Arg_0.2590: f64[], Arg_1.2591: f64[]) -> f64[] {
  %Arg_0.2590 = f64[] parameter(0)
  %Arg_1.2591 = f64[] parameter(1)
  ROOT %maximum.2592 = f64[] maximum(f64[] %Arg_0.2590, f64[] %Arg_1.2591), metadata={op_name="jit(_update)/jit(main)/reduce_max[axes=(1,)]" source_file="/home/mathis/repos/backward_ica/src/utils/misc.py" source_line=621}
}

%region_9.2600 (Arg_0.2601: f64[], Arg_1.2602: f64[]) -> f64[] {
  %Arg_0.2601 = f64[] parameter(0)
  %Arg_1.2602 = f64[] parameter(1)
  ROOT %add.2603 = f64[] add(f64[] %Arg_0.2601, f64[] %Arg_1.2602), metadata={op_name="jit(_update)/jit(main)/reduce_sum[axes=(1,)]" source_file="/home/mathis/repos/backward_ica/src/utils/misc.py" source_line=622}
}

%region_31.5759 (Arg_0.5760: f64[], Arg_1.5761: f64[]) -> f64[] {
  %Arg_0.5760 = f64[] parameter(0)
  %Arg_1.5761 = f64[] parameter(1)
  ROOT %add.5762 = f64[] add(f64[] %Arg_0.5760, f64[] %Arg_1.5761), metadata={op_name="jit(_update)/jit(main)/reduce_sum[axes=(1,)]" source_file="/home/mathis/repos/backward_ica/src/online_smoothing.py" source_line=835}
}

%fused_computation.4 (param_0.9: f64[], param_1.22: f64[100]) -> f64[100] {
  %param_1.22 = f64[100]{0} parameter(1)
  %constant.477 = f64[] constant(-0.5)
  %broadcast.871 = f64[100]{0} broadcast(f64[] %constant.477), dimensions={}, metadata={op_name="jit(_update)/jit(main)/mul" source_file="/home/mathis/repos/backward_ica/src/stats/distributions.py" source_line=211}
  %multiply.171 = f64[100]{0} multiply(f64[100]{0} %param_1.22, f64[100]{0} %broadcast.871), metadata={op_name="jit(_update)/jit(main)/mul" source_file="/home/mathis/repos/backward_ica/src/stats/distributions.py" source_line=211}
  %constant.476 = f64[] constant(-4.5946926660233629)
  %broadcast.869 = f64[100]{0} broadcast(f64[] %constant.476), dimensions={}
  %add.92 = f64[100]{0} add(f64[100]{0} %multiply.171, f64[100]{0} %broadcast.869), metadata={op_name="jit(_update)/jit(main)/sub" source_file="/home/mathis/repos/backward_ica/src/stats/distributions.py" source_line=211}
  %param_0.9 = f64[] parameter(0)
  %broadcast.867 = f64[100]{0} broadcast(f64[] %param_0.9), dimensions={}, metadata={op_name="jit(_update)/jit(main)/sub" source_file="/home/mathis/repos/backward_ica/src/stats/distributions.py" source_line=211}
  ROOT %subtract.7 = f64[100]{0} subtract(f64[100]{0} %add.92, f64[100]{0} %broadcast.867), metadata={op_name="jit(_update)/jit(main)/sub" source_file="/home/mathis/repos/backward_ica/src/stats/distributions.py" source_line=211}
}

%region_0.1487 (Arg_0.1488: f64[], Arg_1.1489: f64[]) -> f64[] {
  %Arg_0.1488 = f64[] parameter(0)
  %Arg_1.1489 = f64[] parameter(1)
  ROOT %add.1490 = f64[] add(f64[] %Arg_0.1488, f64[] %Arg_1.1489), metadata={op_name="jit(_update)/jit(main)/reduce_sum[axes=(0,)]" source_file="/home/mathis/repos/backward_ica/src/stats/distributions.py" source_line=211}
}

%fused_computation.5 (param_0.12: f64[5]) -> f64[] {
  %param_0.12 = f64[5]{0} parameter(0)
  %log.0 = f64[5]{0} log(f64[5]{0} %param_0.12), metadata={op_name="jit(_update)/jit(main)/log" source_file="/home/mathis/repos/backward_ica/src/stats/distributions.py" source_line=211}
  %constant.478 = f64[] constant(0)
  ROOT %reduce.16 = f64[] reduce(f64[5]{0} %log.0, f64[] %constant.478), dimensions={0}, to_apply=%region_0.1487, metadata={op_name="jit(_update)/jit(main)/reduce_sum[axes=(0,)]" source_file="/home/mathis/repos/backward_ica/src/stats/distributions.py" source_line=211}
}

%fused_computation.7 (param_0.21: f64[100,100], param_1.33: f64[1,5]) -> f64[100,5,100] {
  %param_0.21 = f64[100,100]{1,0} parameter(0)
  %reshape.2027 = f64[10000]{0} reshape(f64[100,100]{1,0} %param_0.21)
  %broadcast.875 = f64[10000,5]{1,0} broadcast(f64[10000]{0} %reshape.2027), dimensions={0}, metadata={op_name="jit(_update)/jit(main)/vmap(transpose(jvp(mlp)))/linear_0/dot_general[dimension_numbers=(((), ()), ((), ())) precision=None preferred_element_type=None]" source_file="/home/mathis/venvs/jax_gpu/lib/python3.10/site-packages/haiku/_src/basic.py" source_line=178}
  %param_1.33 = f64[1,5]{1,0} parameter(1)
  %reshape.2028 = f64[5]{0} reshape(f64[1,5]{1,0} %param_1.33), metadata={op_name="jit(_update)/jit(main)/squeeze[dimensions=(0,)]" source_file="/home/mathis/repos/backward_ica/src/online_smoothing.py" source_line=677}
  %broadcast.874 = f64[10000,5]{1,0} broadcast(f64[5]{0} %reshape.2028), dimensions={1}, metadata={op_name="jit(_update)/jit(main)/vmap(transpose(jvp(mlp)))/linear_0/dot_general[dimension_numbers=(((), ()), ((), ())) precision=None preferred_element_type=None]" source_file="/home/mathis/venvs/jax_gpu/lib/python3.10/site-packages/haiku/_src/basic.py" source_line=178}
  %multiply.173 = f64[10000,5]{1,0} multiply(f64[10000,5]{1,0} %broadcast.875, f64[10000,5]{1,0} %broadcast.874), metadata={op_name="jit(_update)/jit(main)/vmap(transpose(jvp(mlp)))/linear_0/dot_general[dimension_numbers=(((), ()), ((), ())) precision=None preferred_element_type=None]" source_file="/home/mathis/venvs/jax_gpu/lib/python3.10/site-packages/haiku/_src/basic.py" source_line=178}
  %reshape.2026 = f64[100,100,5]{2,1,0} reshape(f64[10000,5]{1,0} %multiply.173), metadata={op_name="jit(_update)/jit(main)/vmap(transpose(jvp(mlp)))/linear_0/dot_general[dimension_numbers=(((), ()), ((), ())) precision=None preferred_element_type=None]" source_file="/home/mathis/venvs/jax_gpu/lib/python3.10/site-packages/haiku/_src/basic.py" source_line=178}
  ROOT %transpose.506 = f64[100,5,100]{1,2,0} transpose(f64[100,100,5]{2,1,0} %reshape.2026), dimensions={0,2,1}, metadata={op_name="jit(_update)/jit(main)/vmap(transpose(jvp(mlp)))/linear_0/transpose[permutation=(0, 2, 1)]" source_file="/home/mathis/venvs/jax_gpu/lib/python3.10/site-packages/haiku/_src/basic.py" source_line=178}
}

%fused_computation.8 (param_0.23: f64[100], param_1.37: f64[100,100]) -> f64[100,100] {
  %param_1.37 = f64[100,100]{1,0} parameter(1)
  %constant.479 = f64[] constant(1)
  %broadcast.878 = f64[100]{0} broadcast(f64[] %constant.479), dimensions={}, metadata={op_name="jit(_update)/jit(main)/vmap(jvp(mlp))/sub" source_file="/home/mathis/venvs/jax_gpu/lib/python3.10/site-packages/haiku/_src/nets/mlp.py" source_line=118}
  %param_0.23 = f64[100]{0} parameter(0)
  %subtract.8 = f64[100]{0} subtract(f64[100]{0} %broadcast.878, f64[100]{0} %param_0.23), metadata={op_name="jit(_update)/jit(main)/vmap(vmap(jvp(mlp)))/sub" source_file="/home/mathis/venvs/jax_gpu/lib/python3.10/site-packages/haiku/_src/nets/mlp.py" source_line=118}
  %broadcast.877 = f64[100,100]{1,0} broadcast(f64[100]{0} %subtract.8), dimensions={1}, metadata={op_name="jit(_update)/jit(main)/vmap(transpose(jvp(mlp)))/mul" source_file="/home/mathis/venvs/jax_gpu/lib/python3.10/site-packages/haiku/_src/nets/mlp.py" source_line=118}
  %multiply.175 = f64[100,100]{1,0} multiply(f64[100,100]{1,0} %param_1.37, f64[100,100]{1,0} %broadcast.877), metadata={op_name="jit(_update)/jit(main)/vmap(transpose(jvp(mlp)))/mul" source_file="/home/mathis/venvs/jax_gpu/lib/python3.10/site-packages/haiku/_src/nets/mlp.py" source_line=118}
  %broadcast.876 = f64[100,100]{1,0} broadcast(f64[100]{0} %param_0.23), dimensions={1}, metadata={op_name="jit(_update)/jit(main)/vmap(transpose(jvp(mlp)))/mul" source_file="/home/mathis/venvs/jax_gpu/lib/python3.10/site-packages/haiku/_src/nets/mlp.py" source_line=118}
  %multiply.174 = f64[100,100]{1,0} multiply(f64[100,100]{1,0} %multiply.175, f64[100,100]{1,0} %broadcast.876), metadata={op_name="jit(_update)/jit(main)/vmap(transpose(jvp(mlp)))/mul" source_file="/home/mathis/venvs/jax_gpu/lib/python3.10/site-packages/haiku/_src/nets/mlp.py" source_line=118}
  ROOT %add.93 = f64[100,100]{1,0} add(f64[100,100]{1,0} %multiply.175, f64[100,100]{1,0} %multiply.174), metadata={op_name="jit(_update)/jit(main)/vmap(transpose(jvp(mlp)))/add_any" source_file="/home/mathis/venvs/jax_gpu/lib/python3.10/site-packages/haiku/_src/nets/mlp.py" source_line=118}
}

%fused_computation.9 (param_0.26: f64[100,5], param_1.42: f64[5], param_2.24: f64[100,5]) -> f64[100,10] {
  %param_2.24 = f64[100,5]{1,0} parameter(2)
  %constant.480 = f64[] constant(0)
  %pad.22 = f64[100,10]{1,0} pad(f64[100,5]{1,0} %param_2.24, f64[] %constant.480), padding=0_0x0_5, metadata={op_name="jit(_update)/jit(main)/pad[padding_config=((0, 0, 0), (0, 5, 0))]" source_file="/home/mathis/repos/backward_ica/src/variational/inference_nets.py" source_line=106}
  %param_0.26 = f64[100,5]{1,0} parameter(0)
  %param_1.42 = f64[5]{0} parameter(1)
  %broadcast.879 = f64[100,5]{1,0} broadcast(f64[5]{0} %param_1.42), dimensions={1}, metadata={op_name="jit(_update)/jit(main)/mul" source_file="/home/mathis/repos/backward_ica/src/variational/inference_nets.py" source_line=107}
  %multiply.176 = f64[100,5]{1,0} multiply(f64[100,5]{1,0} %param_0.26, f64[100,5]{1,0} %broadcast.879), metadata={op_name="jit(_update)/jit(main)/mul" source_file="/home/mathis/repos/backward_ica/src/variational/inference_nets.py" source_line=107}
  %pad.21 = f64[100,10]{1,0} pad(f64[100,5]{1,0} %multiply.176, f64[] %constant.480), padding=0_0x5_0, metadata={op_name="jit(_update)/jit(main)/pad[padding_config=((0, 0, 0), (5, 0, 0))]" source_file="/home/mathis/repos/backward_ica/src/variational/inference_nets.py" source_line=106}
  ROOT %add.94 = f64[100,10]{1,0} add(f64[100,10]{1,0} %pad.22, f64[100,10]{1,0} %pad.21), metadata={op_name="jit(_update)/jit(main)/add_any" source_file="/home/mathis/repos/backward_ica/src/variational/inference_nets.py" source_line=106}
}

%fused_computation.10 (param_0.29: f64[500,5], param_1.47: f64[500,5], param_2.31: f64[500,5], param_3.27: f64[500,5]) -> f64[100,5,5] {
  %iota.344 = s32[5,5]{1,0} iota(), iota_dimension=0, metadata={op_name="jit(_update)/jit(main)/iota[dtype=int32 shape=(5, 5) dimension=0]" source_file="/home/mathis/repos/backward_ica/src/utils/misc.py" source_line=77}
  %iota.343 = s32[5,5]{1,0} iota(), iota_dimension=1, metadata={op_name="jit(_update)/jit(main)/iota[dtype=int32 shape=(5, 5) dimension=1]" source_file="/home/mathis/repos/backward_ica/src/utils/misc.py" source_line=77}
  %compare.56 = pred[5,5]{1,0} compare(s32[5,5]{1,0} %iota.344, s32[5,5]{1,0} %iota.343), direction=EQ, metadata={op_name="jit(_update)/jit(main)/eq" source_file="/home/mathis/repos/backward_ica/src/utils/misc.py" source_line=77}
  %broadcast.884 = pred[100,5,5]{2,1,0} broadcast(pred[5,5]{1,0} %compare.56), dimensions={1,2}, metadata={op_name="jit(_update)/jit(main)/broadcast_in_dim[shape=(100, 5, 5) broadcast_dimensions=(1, 2)]" source_file="/home/mathis/repos/backward_ica/src/utils/misc.py" source_line=77}
  %param_3.27 = f64[500,5]{0,1} parameter(3)
  %copy.716 = f64[500,5]{1,0} copy(f64[500,5]{0,1} %param_3.27), metadata={op_name="jit(_update)/jit(main)/triangular_solve[left_side=False lower=True transpose_a=False conjugate_a=False unit_diagonal=False]" source_file="/home/mathis/repos/backward_ica/src/utils/misc.py" source_line=566}
  %constant.481 = f64[] constant(0.5)
  %broadcast.881 = f64[500,5]{1,0} broadcast(f64[] %constant.481), dimensions={}, metadata={op_name="jit(_update)/jit(main)/div" source_file="/home/mathis/repos/backward_ica/src/utils/misc.py" source_line=566}
  %multiply.181 = f64[500,5]{1,0} multiply(f64[500,5]{1,0} %copy.716, f64[500,5]{1,0} %broadcast.881), metadata={op_name="jit(_update)/jit(main)/div" source_file="/home/mathis/repos/backward_ica/src/utils/misc.py" source_line=566}
  %reshape.2032 = f64[5,100,5]{2,1,0} reshape(f64[500,5]{1,0} %multiply.181), metadata={op_name="jit(_update)/jit(main)/div" source_file="/home/mathis/repos/backward_ica/src/utils/misc.py" source_line=566}
  %transpose.514 = f64[100,5,5]{2,0,1} transpose(f64[5,100,5]{2,1,0} %reshape.2032), dimensions={1,0,2}, metadata={op_name="jit(_update)/jit(main)/transpose[permutation=(1, 0, 2)]" source_file="/home/mathis/repos/backward_ica/src/utils/misc.py" source_line=566}
  %copy.715 = f64[100,5,5]{2,1,0} copy(f64[100,5,5]{2,0,1} %transpose.514), metadata={op_name="jit(_update)/jit(main)/transpose[permutation=(1, 0, 2)]" source_file="/home/mathis/repos/backward_ica/src/utils/misc.py" source_line=566}
  %transpose.513 = f64[100,5,5]{1,0,2} transpose(f64[5,100,5]{2,1,0} %reshape.2032), dimensions={1,2,0}, metadata={op_name="jit(_update)/jit(main)/transpose[permutation=(1, 2, 0)]" source_file="/home/mathis/repos/backward_ica/src/utils/misc.py" source_line=566}
  %copy.714 = f64[100,5,5]{2,1,0} copy(f64[100,5,5]{1,0,2} %transpose.513), metadata={op_name="jit(_update)/jit(main)/transpose[permutation=(1, 2, 0)]" source_file="/home/mathis/repos/backward_ica/src/utils/misc.py" source_line=566}
  %add.101 = f64[100,5,5]{2,1,0} add(f64[100,5,5]{2,1,0} %copy.715, f64[100,5,5]{2,1,0} %copy.714), metadata={op_name="jit(_update)/jit(main)/add_any" source_file="/home/mathis/repos/backward_ica/src/utils/misc.py" source_line=566}
  %param_2.31 = f64[500,5]{0,1} parameter(2)
  %copy.713 = f64[500,5]{1,0} copy(f64[500,5]{0,1} %param_2.31), metadata={op_name="jit(_update)/jit(main)/triangular_solve[left_side=False lower=True transpose_a=False conjugate_a=False unit_diagonal=False]" source_file="/home/mathis/repos/backward_ica/src/utils/misc.py" source_line=566}
  %multiply.180 = f64[500,5]{1,0} multiply(f64[500,5]{1,0} %copy.713, f64[500,5]{1,0} %broadcast.881), metadata={op_name="jit(_update)/jit(main)/div" source_file="/home/mathis/repos/backward_ica/src/utils/misc.py" source_line=566}
  %reshape.2031 = f64[5,100,5]{2,1,0} reshape(f64[500,5]{1,0} %multiply.180), metadata={op_name="jit(_update)/jit(main)/div" source_file="/home/mathis/repos/backward_ica/src/utils/misc.py" source_line=566}
  %transpose.512 = f64[100,5,5]{2,0,1} transpose(f64[5,100,5]{2,1,0} %reshape.2031), dimensions={1,0,2}, metadata={op_name="jit(_update)/jit(main)/transpose[permutation=(1, 0, 2)]" source_file="/home/mathis/repos/backward_ica/src/utils/misc.py" source_line=566}
  %copy.712 = f64[100,5,5]{2,1,0} copy(f64[100,5,5]{2,0,1} %transpose.512), metadata={op_name="jit(_update)/jit(main)/transpose[permutation=(1, 0, 2)]" source_file="/home/mathis/repos/backward_ica/src/utils/misc.py" source_line=566}
  %transpose.511 = f64[100,5,5]{1,0,2} transpose(f64[5,100,5]{2,1,0} %reshape.2031), dimensions={1,2,0}, metadata={op_name="jit(_update)/jit(main)/transpose[permutation=(1, 2, 0)]" source_file="/home/mathis/repos/backward_ica/src/utils/misc.py" source_line=566}
  %copy.711 = f64[100,5,5]{2,1,0} copy(f64[100,5,5]{1,0,2} %transpose.511), metadata={op_name="jit(_update)/jit(main)/transpose[permutation=(1, 2, 0)]" source_file="/home/mathis/repos/backward_ica/src/utils/misc.py" source_line=566}
  %add.100 = f64[100,5,5]{2,1,0} add(f64[100,5,5]{2,1,0} %copy.712, f64[100,5,5]{2,1,0} %copy.711), metadata={op_name="jit(_update)/jit(main)/add_any" source_file="/home/mathis/repos/backward_ica/src/utils/misc.py" source_line=566}
  %add.99 = f64[100,5,5]{2,1,0} add(f64[100,5,5]{2,1,0} %add.101, f64[100,5,5]{2,1,0} %add.100), metadata={op_name="jit(_update)/jit(main)/mul" source_file="/home/mathis/repos/backward_ica/src/stats/distributions.py" source_line=149}
  %param_1.47 = f64[500,5]{0,1} parameter(1)
  %copy.710 = f64[500,5]{1,0} copy(f64[500,5]{0,1} %param_1.47), metadata={op_name="jit(_update)/jit(main)/triangular_solve[left_side=False lower=True transpose_a=False conjugate_a=False unit_diagonal=False]" source_file="/home/mathis/repos/backward_ica/src/utils/misc.py" source_line=566}
  %multiply.179 = f64[500,5]{1,0} multiply(f64[500,5]{1,0} %copy.710, f64[500,5]{1,0} %broadcast.881), metadata={op_name="jit(_update)/jit(main)/div" source_file="/home/mathis/repos/backward_ica/src/utils/misc.py" source_line=566}
  %reshape.2030 = f64[5,100,5]{2,1,0} reshape(f64[500,5]{1,0} %multiply.179), metadata={op_name="jit(_update)/jit(main)/div" source_file="/home/mathis/repos/backward_ica/src/utils/misc.py" source_line=566}
  %transpose.510 = f64[100,5,5]{2,0,1} transpose(f64[5,100,5]{2,1,0} %reshape.2030), dimensions={1,0,2}, metadata={op_name="jit(_update)/jit(main)/transpose[permutation=(1, 0, 2)]" source_file="/home/mathis/repos/backward_ica/src/utils/misc.py" source_line=566}
  %copy.709 = f64[100,5,5]{2,1,0} copy(f64[100,5,5]{2,0,1} %transpose.510), metadata={op_name="jit(_update)/jit(main)/transpose[permutation=(1, 0, 2)]" source_file="/home/mathis/repos/backward_ica/src/utils/misc.py" source_line=566}
  %transpose.509 = f64[100,5,5]{1,0,2} transpose(f64[5,100,5]{2,1,0} %reshape.2030), dimensions={1,2,0}, metadata={op_name="jit(_update)/jit(main)/transpose[permutation=(1, 2, 0)]" source_file="/home/mathis/repos/backward_ica/src/utils/misc.py" source_line=566}
  %copy.708 = f64[100,5,5]{2,1,0} copy(f64[100,5,5]{1,0,2} %transpose.509), metadata={op_name="jit(_update)/jit(main)/transpose[permutation=(1, 2, 0)]" source_file="/home/mathis/repos/backward_ica/src/utils/misc.py" source_line=566}
  %add.98 = f64[100,5,5]{2,1,0} add(f64[100,5,5]{2,1,0} %copy.709, f64[100,5,5]{2,1,0} %copy.708), metadata={op_name="jit(_update)/jit(main)/add_any" source_file="/home/mathis/repos/backward_ica/src/utils/misc.py" source_line=566}
  %add.97 = f64[100,5,5]{2,1,0} add(f64[100,5,5]{2,1,0} %add.99, f64[100,5,5]{2,1,0} %add.98), metadata={op_name="jit(_update)/jit(main)/add_any" source_file="/home/mathis/repos/backward_ica/src/stats/distributions.py" source_line=149}
  %param_0.29 = f64[500,5]{0,1} parameter(0)
  %copy.707 = f64[500,5]{1,0} copy(f64[500,5]{0,1} %param_0.29), metadata={op_name="jit(_update)/jit(main)/triangular_solve[left_side=False lower=True transpose_a=False conjugate_a=False unit_diagonal=False]" source_file="/home/mathis/repos/backward_ica/src/utils/misc.py" source_line=566}
  %multiply.178 = f64[500,5]{1,0} multiply(f64[500,5]{1,0} %copy.707, f64[500,5]{1,0} %broadcast.881), metadata={op_name="jit(_update)/jit(main)/div" source_file="/home/mathis/repos/backward_ica/src/utils/misc.py" source_line=566}
  %reshape.2029 = f64[5,100,5]{2,1,0} reshape(f64[500,5]{1,0} %multiply.178), metadata={op_name="jit(_update)/jit(main)/div" source_file="/home/mathis/repos/backward_ica/src/utils/misc.py" source_line=566}
  %transpose.508 = f64[100,5,5]{2,0,1} transpose(f64[5,100,5]{2,1,0} %reshape.2029), dimensions={1,0,2}, metadata={op_name="jit(_update)/jit(main)/transpose[permutation=(1, 0, 2)]" source_file="/home/mathis/repos/backward_ica/src/utils/misc.py" source_line=566}
  %copy.706 = f64[100,5,5]{2,1,0} copy(f64[100,5,5]{2,0,1} %transpose.508), metadata={op_name="jit(_update)/jit(main)/transpose[permutation=(1, 0, 2)]" source_file="/home/mathis/repos/backward_ica/src/utils/misc.py" source_line=566}
  %transpose.507 = f64[100,5,5]{1,0,2} transpose(f64[5,100,5]{2,1,0} %reshape.2029), dimensions={1,2,0}, metadata={op_name="jit(_update)/jit(main)/transpose[permutation=(1, 2, 0)]" source_file="/home/mathis/repos/backward_ica/src/utils/misc.py" source_line=566}
  %copy.705 = f64[100,5,5]{2,1,0} copy(f64[100,5,5]{1,0,2} %transpose.507), metadata={op_name="jit(_update)/jit(main)/transpose[permutation=(1, 2, 0)]" source_file="/home/mathis/repos/backward_ica/src/utils/misc.py" source_line=566}
  %add.96 = f64[100,5,5]{2,1,0} add(f64[100,5,5]{2,1,0} %copy.706, f64[100,5,5]{2,1,0} %copy.705), metadata={op_name="jit(_update)/jit(main)/add_any" source_file="/home/mathis/repos/backward_ica/src/utils/misc.py" source_line=566}
  %add.95 = f64[100,5,5]{2,1,0} add(f64[100,5,5]{2,1,0} %add.97, f64[100,5,5]{2,1,0} %add.96), metadata={op_name="jit(_update)/jit(main)/add_any" source_file="/home/mathis/repos/backward_ica/src/stats/distributions.py" source_line=149}
  %constant.482 = f64[] constant(-2)
  %broadcast.880 = f64[100,5,5]{2,1,0} broadcast(f64[] %constant.482), dimensions={}, metadata={op_name="jit(_update)/jit(main)/mul" source_file="/home/mathis/repos/backward_ica/src/stats/distributions.py" source_line=149}
  %multiply.177 = f64[100,5,5]{2,1,0} multiply(f64[100,5,5]{2,1,0} %add.95, f64[100,5,5]{2,1,0} %broadcast.880), metadata={op_name="jit(_update)/jit(main)/add_any" source_file="/home/mathis/repos/backward_ica/src/stats/distributions.py" source_line=149}
  %negate.121 = f64[100,5,5]{2,1,0} negate(f64[100,5,5]{2,1,0} %multiply.177), metadata={op_name="jit(_update)/jit(main)/neg" source_file="/home/mathis/repos/backward_ica/src/variational/inference_nets.py" source_line=107}
  %constant.483 = f64[] constant(0)
  %broadcast.882 = f64[100,5,5]{2,1,0} broadcast(f64[] %constant.483), dimensions={}, metadata={op_name="jit(_update)/jit(main)/broadcast_in_dim[shape=(100, 5, 5) broadcast_dimensions=(1, 2)]" source_file="/home/mathis/repos/backward_ica/src/utils/misc.py" source_line=573}
  ROOT %select.65 = f64[100,5,5]{2,1,0} select(pred[100,5,5]{2,1,0} %broadcast.884, f64[100,5,5]{2,1,0} %negate.121, f64[100,5,5]{2,1,0} %broadcast.882), metadata={op_name="jit(_update)/jit(main)/select_n" source_file="/home/mathis/repos/backward_ica/src/variational/inference_nets.py" source_line=107}
}

%fused_computation.11 (param_0.31: f64[500,5], param_1.51: f64[500,5]) -> f64[100,5,5] {
  %iota.346 = s32[5,5]{1,0} iota(), iota_dimension=0, metadata={op_name="jit(_update)/jit(main)/iota[dtype=int32 shape=(5, 5) dimension=0]" source_file="/home/mathis/repos/backward_ica/src/utils/misc.py" source_line=77}
  %iota.345 = s32[5,5]{1,0} iota(), iota_dimension=1, metadata={op_name="jit(_update)/jit(main)/iota[dtype=int32 shape=(5, 5) dimension=1]" source_file="/home/mathis/repos/backward_ica/src/utils/misc.py" source_line=77}
  %compare.57 = pred[5,5]{1,0} compare(s32[5,5]{1,0} %iota.346, s32[5,5]{1,0} %iota.345), direction=EQ, metadata={op_name="jit(_update)/jit(main)/eq" source_file="/home/mathis/repos/backward_ica/src/utils/misc.py" source_line=77}
  %broadcast.887 = pred[100,5,5]{2,1,0} broadcast(pred[5,5]{1,0} %compare.57), dimensions={1,2}, metadata={op_name="jit(_update)/jit(main)/broadcast_in_dim[shape=(100, 5, 5) broadcast_dimensions=(1, 2)]" source_file="/home/mathis/repos/backward_ica/src/utils/misc.py" source_line=77}
  %param_0.31 = f64[500,5]{1,0} parameter(0)
  %param_1.51 = f64[500,5]{1,0} parameter(1)
  %add.102 = f64[500,5]{1,0} add(f64[500,5]{1,0} %param_0.31, f64[500,5]{1,0} %param_1.51), metadata={op_name="jit(_update)/jit(main)/add_any" source_file="/home/mathis/repos/backward_ica/src/utils/misc.py" source_line=563}
  %reshape.2033 = f64[100,5,5]{2,1,0} reshape(f64[500,5]{1,0} %add.102), metadata={op_name="jit(_update)/jit(main)/add_any" source_file="/home/mathis/repos/backward_ica/src/utils/misc.py" source_line=563}
  %constant.484 = f64[] constant(0)
  %broadcast.886 = f64[100,5,5]{2,1,0} broadcast(f64[] %constant.484), dimensions={}, metadata={op_name="jit(_update)/jit(main)/broadcast_in_dim[shape=(100, 5, 5) broadcast_dimensions=(1, 2)]" source_file="/home/mathis/repos/backward_ica/src/utils/misc.py" source_line=573}
  ROOT %select.66 = f64[100,5,5]{2,1,0} select(pred[100,5,5]{2,1,0} %broadcast.887, f64[100,5,5]{2,1,0} %reshape.2033, f64[100,5,5]{2,1,0} %broadcast.886), metadata={op_name="jit(_update)/jit(main)/select_n" source_file="/home/mathis/repos/backward_ica/src/stats/distributions.py" source_line=88}
}

%fused_computation.12 (param_0.33: f64[500,5], param_1.55: f64[500,5], param_2.46: f64[5], param_3.37: f64[100,5]) -> f64[100,5,5] {
  %iota.348 = s32[5,5]{1,0} iota(), iota_dimension=0, metadata={op_name="jit(_update)/jit(main)/iota[dtype=int32 shape=(5, 5) dimension=0]" source_file="/home/mathis/repos/backward_ica/src/utils/misc.py" source_line=77}
  %iota.347 = s32[5,5]{1,0} iota(), iota_dimension=1, metadata={op_name="jit(_update)/jit(main)/iota[dtype=int32 shape=(5, 5) dimension=1]" source_file="/home/mathis/repos/backward_ica/src/utils/misc.py" source_line=77}
  %compare.58 = pred[5,5]{1,0} compare(s32[5,5]{1,0} %iota.348, s32[5,5]{1,0} %iota.347), direction=EQ, metadata={op_name="jit(_update)/jit(main)/eq" source_file="/home/mathis/repos/backward_ica/src/utils/misc.py" source_line=77}
  %broadcast.893 = pred[100,5,5]{2,1,0} broadcast(pred[5,5]{1,0} %compare.58), dimensions={1,2}, metadata={op_name="jit(_update)/jit(main)/broadcast_in_dim[shape=(100, 5, 5) broadcast_dimensions=(1, 2)]" source_file="/home/mathis/repos/backward_ica/src/utils/misc.py" source_line=77}
  %param_3.37 = f64[100,5]{1,0} parameter(3)
  %reshape.2035 = f64[500]{0} reshape(f64[100,5]{1,0} %param_3.37)
  %broadcast.892 = f64[500,5]{1,0} broadcast(f64[500]{0} %reshape.2035), dimensions={0}, metadata={op_name="jit(_update)/jit(main)/dot_general[dimension_numbers=(((), ()), ((), ())) precision=None preferred_element_type=None]" source_file="/home/mathis/repos/backward_ica/src/stats/kalman.py" source_line=15}
  %param_2.46 = f64[5]{0} parameter(2)
  %broadcast.891 = f64[500,5]{1,0} broadcast(f64[5]{0} %param_2.46), dimensions={1}, metadata={op_name="jit(_update)/jit(main)/dot_general[dimension_numbers=(((), ()), ((), ())) precision=None preferred_element_type=None]" source_file="/home/mathis/repos/backward_ica/src/stats/kalman.py" source_line=15}
  %multiply.182 = f64[500,5]{1,0} multiply(f64[500,5]{1,0} %broadcast.892, f64[500,5]{1,0} %broadcast.891), metadata={op_name="jit(_update)/jit(main)/dot_general[dimension_numbers=(((), ()), ((), ())) precision=None preferred_element_type=None]" source_file="/home/mathis/repos/backward_ica/src/stats/kalman.py" source_line=15}
  %param_1.55 = f64[500,5]{1,0} parameter(1)
  %add.104 = f64[500,5]{1,0} add(f64[500,5]{1,0} %multiply.182, f64[500,5]{1,0} %param_1.55), metadata={op_name="jit(_update)/jit(main)/add_any" source_file="/home/mathis/repos/backward_ica/src/stats/kalman.py" source_line=16}
  %param_0.33 = f64[500,5]{1,0} parameter(0)
  %add.103 = f64[500,5]{1,0} add(f64[500,5]{1,0} %add.104, f64[500,5]{1,0} %param_0.33), metadata={op_name="jit(_update)/jit(main)/add_any" source_file="/home/mathis/repos/backward_ica/src/stats/kalman.py" source_line=16}
  %reshape.2034 = f64[100,5,5]{2,1,0} reshape(f64[500,5]{1,0} %add.103), metadata={op_name="jit(_update)/jit(main)/add_any" source_file="/home/mathis/repos/backward_ica/src/stats/kalman.py" source_line=16}
  %constant.485 = f64[] constant(0)
  %broadcast.889 = f64[100,5,5]{2,1,0} broadcast(f64[] %constant.485), dimensions={}, metadata={op_name="jit(_update)/jit(main)/broadcast_in_dim[shape=(100, 5, 5) broadcast_dimensions=(1, 2)]" source_file="/home/mathis/repos/backward_ica/src/utils/misc.py" source_line=573}
  ROOT %select.67 = f64[100,5,5]{2,1,0} select(pred[100,5,5]{2,1,0} %broadcast.893, f64[100,5,5]{2,1,0} %reshape.2034, f64[100,5,5]{2,1,0} %broadcast.889), metadata={op_name="jit(_update)/jit(main)/select_n" source_file="/home/mathis/repos/backward_ica/src/utils/misc.py" source_line=77}
}

%fused_computation.13 (param_0.40: f64[500,5]) -> f64[500,5] {
  %param_0.40 = f64[500,5]{0,1} parameter(0)
  %copy.719 = f64[500,5]{1,0} copy(f64[500,5]{0,1} %param_0.40), metadata={op_name="jit(_update)/jit(main)/triangular_solve[left_side=False lower=True transpose_a=False conjugate_a=False unit_diagonal=False]" source_file="/home/mathis/repos/backward_ica/src/utils/misc.py" source_line=566}
  %constant.486 = f64[] constant(0.5)
  %broadcast.895 = f64[500,5]{1,0} broadcast(f64[] %constant.486), dimensions={}, metadata={op_name="jit(_update)/jit(main)/div" source_file="/home/mathis/repos/backward_ica/src/utils/misc.py" source_line=566}
  %multiply.183 = f64[500,5]{1,0} multiply(f64[500,5]{1,0} %copy.719, f64[500,5]{1,0} %broadcast.895), metadata={op_name="jit(_update)/jit(main)/div" source_file="/home/mathis/repos/backward_ica/src/utils/misc.py" source_line=566}
  %reshape.2039 = f64[5,100,5]{2,1,0} reshape(f64[500,5]{1,0} %multiply.183), metadata={op_name="jit(_update)/jit(main)/div" source_file="/home/mathis/repos/backward_ica/src/utils/misc.py" source_line=566}
  %transpose.516 = f64[100,5,5]{2,0,1} transpose(f64[5,100,5]{2,1,0} %reshape.2039), dimensions={1,0,2}, metadata={op_name="jit(_update)/jit(main)/transpose[permutation=(1, 0, 2)]" source_file="/home/mathis/repos/backward_ica/src/utils/misc.py" source_line=566}
  %copy.718 = f64[100,5,5]{2,1,0} copy(f64[100,5,5]{2,0,1} %transpose.516), metadata={op_name="jit(_update)/jit(main)/transpose[permutation=(1, 0, 2)]" source_file="/home/mathis/repos/backward_ica/src/utils/misc.py" source_line=566}
  %transpose.515 = f64[100,5,5]{1,0,2} transpose(f64[5,100,5]{2,1,0} %reshape.2039), dimensions={1,2,0}, metadata={op_name="jit(_update)/jit(main)/transpose[permutation=(1, 2, 0)]" source_file="/home/mathis/repos/backward_ica/src/utils/misc.py" source_line=566}
  %copy.717 = f64[100,5,5]{2,1,0} copy(f64[100,5,5]{1,0,2} %transpose.515), metadata={op_name="jit(_update)/jit(main)/transpose[permutation=(1, 2, 0)]" source_file="/home/mathis/repos/backward_ica/src/utils/misc.py" source_line=566}
  %add.105 = f64[100,5,5]{2,1,0} add(f64[100,5,5]{2,1,0} %copy.718, f64[100,5,5]{2,1,0} %copy.717), metadata={op_name="jit(_update)/jit(main)/add_any" source_file="/home/mathis/repos/backward_ica/src/utils/misc.py" source_line=566}
  ROOT %reshape.2037 = f64[500,5]{1,0} reshape(f64[100,5,5]{2,1,0} %add.105), metadata={op_name="jit(_update)/jit(main)/add_any" source_file="/home/mathis/repos/backward_ica/src/utils/misc.py" source_line=566}
}

%fused_computation.14 (param_0.49: f64[500,5]) -> f64[500,5] {
  %param_0.49 = f64[500,5]{0,1} parameter(0)
  %copy.723 = f64[500,5]{1,0} copy(f64[500,5]{0,1} %param_0.49), metadata={op_name="jit(_update)/jit(main)/triangular_solve[left_side=False lower=True transpose_a=False conjugate_a=False unit_diagonal=False]" source_file="/home/mathis/repos/backward_ica/src/utils/misc.py" source_line=566}
  %constant.487 = f64[] constant(0.5)
  %broadcast.897 = f64[500,5]{1,0} broadcast(f64[] %constant.487), dimensions={}, metadata={op_name="jit(_update)/jit(main)/div" source_file="/home/mathis/repos/backward_ica/src/utils/misc.py" source_line=566}
  %multiply.184 = f64[500,5]{1,0} multiply(f64[500,5]{1,0} %copy.723, f64[500,5]{1,0} %broadcast.897), metadata={op_name="jit(_update)/jit(main)/div" source_file="/home/mathis/repos/backward_ica/src/utils/misc.py" source_line=566}
  %reshape.2041 = f64[5,100,5]{2,1,0} reshape(f64[500,5]{1,0} %multiply.184), metadata={op_name="jit(_update)/jit(main)/div" source_file="/home/mathis/repos/backward_ica/src/utils/misc.py" source_line=566}
  %transpose.519 = f64[100,5,5]{2,0,1} transpose(f64[5,100,5]{2,1,0} %reshape.2041), dimensions={1,0,2}, metadata={op_name="jit(_update)/jit(main)/transpose[permutation=(1, 0, 2)]" source_file="/home/mathis/repos/backward_ica/src/utils/misc.py" source_line=566}
  %copy.722 = f64[100,5,5]{2,1,0} copy(f64[100,5,5]{2,0,1} %transpose.519), metadata={op_name="jit(_update)/jit(main)/transpose[permutation=(1, 0, 2)]" source_file="/home/mathis/repos/backward_ica/src/utils/misc.py" source_line=566}
  %transpose.518 = f64[100,5,5]{1,0,2} transpose(f64[5,100,5]{2,1,0} %reshape.2041), dimensions={1,2,0}, metadata={op_name="jit(_update)/jit(main)/transpose[permutation=(1, 2, 0)]" source_file="/home/mathis/repos/backward_ica/src/utils/misc.py" source_line=566}
  %copy.721 = f64[100,5,5]{2,1,0} copy(f64[100,5,5]{1,0,2} %transpose.518), metadata={op_name="jit(_update)/jit(main)/transpose[permutation=(1, 2, 0)]" source_file="/home/mathis/repos/backward_ica/src/utils/misc.py" source_line=566}
  %add.106 = f64[100,5,5]{2,1,0} add(f64[100,5,5]{2,1,0} %copy.722, f64[100,5,5]{2,1,0} %copy.721), metadata={op_name="jit(_update)/jit(main)/add_any" source_file="/home/mathis/repos/backward_ica/src/utils/misc.py" source_line=566}
  %transpose.517 = f64[100,5,5]{1,2,0} transpose(f64[100,5,5]{2,1,0} %add.106), dimensions={0,2,1}, metadata={op_name="jit(_update)/jit(main)/add_any" source_file="/home/mathis/repos/backward_ica/src/utils/misc.py" source_line=566}
  %copy.720 = f64[100,5,5]{2,1,0} copy(f64[100,5,5]{1,2,0} %transpose.517), metadata={op_name="jit(_update)/jit(main)/add_any" source_file="/home/mathis/repos/backward_ica/src/utils/misc.py" source_line=566}
  ROOT %reshape.2040 = f64[500,5]{1,0} reshape(f64[100,5,5]{2,1,0} %copy.720), metadata={op_name="jit(_update)/jit(main)/add_any" source_file="/home/mathis/repos/backward_ica/src/utils/misc.py" source_line=566}
}

%fused_computation.15 (param_0.55: f64[5,500]) -> f64[500,5] {
  %param_0.55 = f64[5,500]{0,1} parameter(0)
  %copy.726 = f64[5,500]{1,0} copy(f64[5,500]{0,1} %param_0.55), metadata={op_name="jit(_update)/jit(main)/triangular_solve[left_side=True lower=True transpose_a=True conjugate_a=False unit_diagonal=False]" source_file="/home/mathis/repos/backward_ica/src/utils/misc.py" source_line=566}
  %reshape.2043 = f64[5,5,100]{2,1,0} reshape(f64[5,500]{1,0} %copy.726), metadata={op_name="jit(_update)/jit(main)/reshape[new_sizes=(5, 5, 100) dimensions=None]" source_file="/home/mathis/repos/backward_ica/src/utils/misc.py" source_line=566}
  %transpose.520 = f64[5,100,5]{1,2,0} transpose(f64[5,5,100]{2,1,0} %reshape.2043), dimensions={0,2,1}, metadata={op_name="jit(_update)/jit(main)/transpose[permutation=(0, 2, 1)]" source_file="/home/mathis/repos/backward_ica/src/utils/misc.py" source_line=566}
  %copy.725 = f64[5,100,5]{2,1,0} copy(f64[5,100,5]{1,2,0} %transpose.520), metadata={op_name="jit(_update)/jit(main)/transpose[permutation=(0, 2, 1)]" source_file="/home/mathis/repos/backward_ica/src/utils/misc.py" source_line=566}
  %reshape.2042 = f64[500,5]{1,0} reshape(f64[5,100,5]{2,1,0} %copy.725), metadata={op_name="jit(_update)/jit(main)/reshape[new_sizes=(500, 5) dimensions=None]" source_file="/home/mathis/repos/backward_ica/src/utils/misc.py" source_line=566}
  ROOT %copy.724 = f64[500,5]{0,1} copy(f64[500,5]{1,0} %reshape.2042), metadata={op_name="jit(_update)/jit(main)/reshape[new_sizes=(500, 5) dimensions=None]" source_file="/home/mathis/repos/backward_ica/src/utils/misc.py" source_line=566}
}

%fused_computation.16 (param_0.61: f64[500,5]) -> f64[5,500] {
  %iota.352 = s32[5,5]{1,0} iota(), iota_dimension=0, metadata={op_name="jit(_update)/jit(main)/iota[dtype=int32 shape=(5, 5) dimension=0]" source_file="/home/mathis/repos/backward_ica/src/utils/misc.py" source_line=566}
  %iota.351 = s32[5,5]{1,0} iota(), iota_dimension=1, metadata={op_name="jit(_update)/jit(main)/iota[dtype=int32 shape=(5, 5) dimension=1]" source_file="/home/mathis/repos/backward_ica/src/utils/misc.py" source_line=566}
  %compare.60 = pred[5,5]{1,0} compare(s32[5,5]{1,0} %iota.352, s32[5,5]{1,0} %iota.351), direction=GE, metadata={op_name="jit(_update)/jit(main)/ge" source_file="/home/mathis/repos/backward_ica/src/utils/misc.py" source_line=566}
  %broadcast.902 = pred[100,5,5]{2,1,0} broadcast(pred[5,5]{1,0} %compare.60), dimensions={1,2}, metadata={op_name="jit(_update)/jit(main)/broadcast_in_dim[shape=(100, 5, 5) broadcast_dimensions=(1, 2)]" source_file="/home/mathis/repos/backward_ica/src/utils/misc.py" source_line=566}
  %param_0.61 = f64[500,5]{1,0} parameter(0)
  %reshape.2045 = f64[100,5,5]{2,1,0} reshape(f64[500,5]{1,0} %param_0.61), metadata={op_name="jit(_update)/jit(main)/dot_general[dimension_numbers=(((1,), (0,)), ((), ())) precision=(<Precision.HIGHEST: 2>, <Precision.HIGHEST: 2>) preferred_element_type=None]" source_file="/home/mathis/repos/backward_ica/src/utils/misc.py" source_line=566}
  %transpose.522 = f64[100,5,5]{1,2,0} transpose(f64[100,5,5]{2,1,0} %reshape.2045), dimensions={0,2,1}, metadata={op_name="jit(_update)/jit(main)/transpose[permutation=(0, 2, 1)]" source_file="/home/mathis/repos/backward_ica/src/utils/misc.py" source_line=566}
  %copy.729 = f64[100,5,5]{2,1,0} copy(f64[100,5,5]{1,2,0} %transpose.522), metadata={op_name="jit(_update)/jit(main)/transpose[permutation=(0, 2, 1)]" source_file="/home/mathis/repos/backward_ica/src/utils/misc.py" source_line=566}
  %iota.350 = s32[5,5]{1,0} iota(), iota_dimension=0, metadata={op_name="jit(_update)/jit(main)/iota[dtype=int32 shape=(5, 5) dimension=0]" source_file="/home/mathis/repos/backward_ica/src/utils/misc.py" source_line=77}
  %iota.349 = s32[5,5]{1,0} iota(), iota_dimension=1, metadata={op_name="jit(_update)/jit(main)/iota[dtype=int32 shape=(5, 5) dimension=1]" source_file="/home/mathis/repos/backward_ica/src/utils/misc.py" source_line=77}
  %compare.59 = pred[5,5]{1,0} compare(s32[5,5]{1,0} %iota.350, s32[5,5]{1,0} %iota.349), direction=EQ, metadata={op_name="jit(_update)/jit(main)/eq" source_file="/home/mathis/repos/backward_ica/src/utils/misc.py" source_line=77}
  %convert.0 = f64[5,5]{1,0} convert(pred[5,5]{1,0} %compare.59), metadata={op_name="jit(_update)/jit(main)/convert_element_type[new_dtype=float64 weak_type=False]" source_file="/home/mathis/repos/backward_ica/src/utils/misc.py" source_line=571}
  %constant.489 = f64[] constant(1)
  %broadcast.903 = f64[5,5]{1,0} broadcast(f64[] %constant.489), dimensions={}
  %add.107 = f64[5,5]{1,0} add(f64[5,5]{1,0} %convert.0, f64[5,5]{1,0} %broadcast.903), metadata={op_name="jit(_update)/jit(main)/add" source_file="/home/mathis/repos/backward_ica/src/utils/misc.py" source_line=557}
  %broadcast.898 = f64[100,5,5]{2,1,0} broadcast(f64[5,5]{1,0} %add.107), dimensions={1,2}, metadata={op_name="jit(_update)/jit(main)/div" source_file="/home/mathis/repos/backward_ica/src/utils/misc.py" source_line=566}
  %divide.0 = f64[100,5,5]{2,1,0} divide(f64[100,5,5]{2,1,0} %copy.729, f64[100,5,5]{2,1,0} %broadcast.898), metadata={op_name="jit(_update)/jit(main)/div" source_file="/home/mathis/repos/backward_ica/src/utils/misc.py" source_line=566}
  %constant.488 = f64[] constant(0)
  %broadcast.900 = f64[100,5,5]{2,1,0} broadcast(f64[] %constant.488), dimensions={}, metadata={op_name="jit(_update)/jit(main)/broadcast_in_dim[shape=(100, 5, 5) broadcast_dimensions=(1, 2)]" source_file="/home/mathis/repos/backward_ica/src/utils/misc.py" source_line=573}
  %select.68 = f64[100,5,5]{2,1,0} select(pred[100,5,5]{2,1,0} %broadcast.902, f64[100,5,5]{2,1,0} %divide.0, f64[100,5,5]{2,1,0} %broadcast.900), metadata={op_name="jit(_update)/jit(main)/select_n" source_file="/home/mathis/repos/backward_ica/src/utils/misc.py" source_line=566}
  %transpose.521 = f64[5,5,100]{1,0,2} transpose(f64[100,5,5]{2,1,0} %select.68), dimensions={1,2,0}, metadata={op_name="jit(_update)/jit(main)/transpose[permutation=(1, 2, 0)]" source_file="/home/mathis/repos/backward_ica/src/utils/misc.py" source_line=566}
  %copy.728 = f64[5,5,100]{2,1,0} copy(f64[5,5,100]{1,0,2} %transpose.521), metadata={op_name="jit(_update)/jit(main)/transpose[permutation=(1, 2, 0)]" source_file="/home/mathis/repos/backward_ica/src/utils/misc.py" source_line=566}
  %reshape.2044 = f64[5,500]{1,0} reshape(f64[5,5,100]{2,1,0} %copy.728), metadata={op_name="jit(_update)/jit(main)/reshape[new_sizes=(5, 500) dimensions=None]" source_file="/home/mathis/repos/backward_ica/src/utils/misc.py" source_line=566}
  ROOT %copy.727 = f64[5,500]{0,1} copy(f64[5,500]{1,0} %reshape.2044), metadata={op_name="jit(_update)/jit(main)/reshape[new_sizes=(5, 500) dimensions=None]" source_file="/home/mathis/repos/backward_ica/src/utils/misc.py" source_line=566}
}

%fused_computation.17 (param_0.66: f64[5,500], param_1.80: f64[5,500], param_2.62: f64[5,500], param_3.63: f64[5,500]) -> f64[500,5] {
  %iota.354 = s32[5,5]{1,0} iota(), iota_dimension=0, metadata={op_name="jit(_update)/jit(main)/iota[dtype=int32 shape=(5, 5) dimension=0]" source_file="/home/mathis/repos/backward_ica/src/utils/misc.py" source_line=566}
  %iota.353 = s32[5,5]{1,0} iota(), iota_dimension=1, metadata={op_name="jit(_update)/jit(main)/iota[dtype=int32 shape=(5, 5) dimension=1]" source_file="/home/mathis/repos/backward_ica/src/utils/misc.py" source_line=566}
  %compare.61 = pred[5,5]{1,0} compare(s32[5,5]{1,0} %iota.354, s32[5,5]{1,0} %iota.353), direction=GE, metadata={op_name="jit(_update)/jit(main)/ge" source_file="/home/mathis/repos/backward_ica/src/utils/misc.py" source_line=566}
  %broadcast.909 = pred[100,5,5]{2,1,0} broadcast(pred[5,5]{1,0} %compare.61), dimensions={1,2}, metadata={op_name="jit(_update)/jit(main)/broadcast_in_dim[shape=(100, 5, 5) broadcast_dimensions=(1, 2)]" source_file="/home/mathis/repos/backward_ica/src/utils/misc.py" source_line=566}
  %broadcast.907 = pred[5,5,100]{2,1,0} broadcast(pred[5,5]{1,0} %compare.61), dimensions={0,1}, metadata={op_name="jit(_update)/jit(main)/broadcast_in_dim[shape=(100, 5, 5) broadcast_dimensions=(1, 2)]" source_file="/home/mathis/repos/backward_ica/src/utils/misc.py" source_line=573}
  %param_3.63 = f64[5,500]{0,1} parameter(3)
  %copy.738 = f64[5,500]{1,0} copy(f64[5,500]{0,1} %param_3.63), metadata={op_name="jit(_update)/jit(main)/triangular_solve[left_side=True lower=True transpose_a=True conjugate_a=False unit_diagonal=False]" source_file="/home/mathis/repos/backward_ica/src/utils/misc.py" source_line=573}
  %negate.125 = f64[5,500]{1,0} negate(f64[5,500]{1,0} %copy.738), metadata={op_name="jit(_update)/jit(main)/neg" source_file="/home/mathis/repos/backward_ica/src/utils/misc.py" source_line=573}
  %reshape.2050 = f64[5,5,100]{2,1,0} reshape(f64[5,500]{1,0} %negate.125), metadata={op_name="jit(_update)/jit(main)/neg" source_file="/home/mathis/repos/backward_ica/src/utils/misc.py" source_line=573}
  %constant.490 = f64[] constant(0)
  %broadcast.905 = f64[5,5,100]{2,1,0} broadcast(f64[] %constant.490), dimensions={}, metadata={op_name="jit(_update)/jit(main)/broadcast_in_dim[shape=(100, 5, 5) broadcast_dimensions=(1, 2)]" source_file="/home/mathis/repos/backward_ica/src/utils/misc.py" source_line=573}
  %select.73 = f64[5,5,100]{2,1,0} select(pred[5,5,100]{2,1,0} %broadcast.907, f64[5,5,100]{2,1,0} %reshape.2050, f64[5,5,100]{2,1,0} %broadcast.905), metadata={op_name="jit(_update)/jit(main)/select_n" source_file="/home/mathis/repos/backward_ica/src/utils/misc.py" source_line=573}
  %transpose.527 = f64[100,5,5]{0,2,1} transpose(f64[5,5,100]{2,1,0} %select.73), dimensions={2,0,1}, metadata={op_name="jit(_update)/jit(main)/select_n" source_file="/home/mathis/repos/backward_ica/src/utils/misc.py" source_line=573}
  %copy.737 = f64[100,5,5]{2,1,0} copy(f64[100,5,5]{0,2,1} %transpose.527), metadata={op_name="jit(_update)/jit(main)/select_n" source_file="/home/mathis/repos/backward_ica/src/utils/misc.py" source_line=573}
  %param_2.62 = f64[5,500]{0,1} parameter(2)
  %copy.736 = f64[5,500]{1,0} copy(f64[5,500]{0,1} %param_2.62), metadata={op_name="jit(_update)/jit(main)/triangular_solve[left_side=True lower=True transpose_a=False conjugate_a=False unit_diagonal=False]" source_file="/home/mathis/repos/backward_ica/src/utils/misc.py" source_line=573}
  %negate.124 = f64[5,500]{1,0} negate(f64[5,500]{1,0} %copy.736), metadata={op_name="jit(_update)/jit(main)/neg" source_file="/home/mathis/repos/backward_ica/src/utils/misc.py" source_line=573}
  %reshape.2049 = f64[5,5,100]{2,1,0} reshape(f64[5,500]{1,0} %negate.124), metadata={op_name="jit(_update)/jit(main)/neg" source_file="/home/mathis/repos/backward_ica/src/utils/misc.py" source_line=573}
  %transpose.526 = f64[100,5,5]{0,1,2} transpose(f64[5,5,100]{2,1,0} %reshape.2049), dimensions={2,1,0}, metadata={op_name="jit(_update)/jit(main)/neg" source_file="/home/mathis/repos/backward_ica/src/utils/misc.py" source_line=573}
  %copy.735 = f64[100,5,5]{2,1,0} copy(f64[100,5,5]{0,1,2} %transpose.526), metadata={op_name="jit(_update)/jit(main)/neg" source_file="/home/mathis/repos/backward_ica/src/utils/misc.py" source_line=573}
  %broadcast.904 = f64[100,5,5]{2,1,0} broadcast(f64[] %constant.490), dimensions={}, metadata={op_name="jit(_update)/jit(main)/broadcast_in_dim[shape=(100, 5, 5) broadcast_dimensions=(1, 2)]" source_file="/home/mathis/repos/backward_ica/src/utils/misc.py" source_line=573}
  %select.72 = f64[100,5,5]{2,1,0} select(pred[100,5,5]{2,1,0} %broadcast.909, f64[100,5,5]{2,1,0} %copy.735, f64[100,5,5]{2,1,0} %broadcast.904), metadata={op_name="jit(_update)/jit(main)/select_n" source_file="/home/mathis/repos/backward_ica/src/utils/misc.py" source_line=573}
  %add.110 = f64[100,5,5]{2,1,0} add(f64[100,5,5]{2,1,0} %copy.737, f64[100,5,5]{2,1,0} %select.72), metadata={op_name="jit(_update)/jit(main)/add_any" source_file="/home/mathis/repos/backward_ica/src/utils/misc.py" source_line=573}
  %param_1.80 = f64[5,500]{0,1} parameter(1)
  %copy.734 = f64[5,500]{1,0} copy(f64[5,500]{0,1} %param_1.80), metadata={op_name="jit(_update)/jit(main)/triangular_solve[left_side=True lower=True transpose_a=True conjugate_a=False unit_diagonal=False]" source_file="/home/mathis/repos/backward_ica/src/utils/misc.py" source_line=573}
  %negate.123 = f64[5,500]{1,0} negate(f64[5,500]{1,0} %copy.734), metadata={op_name="jit(_update)/jit(main)/neg" source_file="/home/mathis/repos/backward_ica/src/utils/misc.py" source_line=573}
  %reshape.2048 = f64[5,5,100]{2,1,0} reshape(f64[5,500]{1,0} %negate.123), metadata={op_name="jit(_update)/jit(main)/neg" source_file="/home/mathis/repos/backward_ica/src/utils/misc.py" source_line=573}
  %select.71 = f64[5,5,100]{2,1,0} select(pred[5,5,100]{2,1,0} %broadcast.907, f64[5,5,100]{2,1,0} %reshape.2048, f64[5,5,100]{2,1,0} %broadcast.905), metadata={op_name="jit(_update)/jit(main)/select_n" source_file="/home/mathis/repos/backward_ica/src/utils/misc.py" source_line=573}
  %transpose.525 = f64[100,5,5]{0,2,1} transpose(f64[5,5,100]{2,1,0} %select.71), dimensions={2,0,1}, metadata={op_name="jit(_update)/jit(main)/select_n" source_file="/home/mathis/repos/backward_ica/src/utils/misc.py" source_line=573}
  %copy.733 = f64[100,5,5]{2,1,0} copy(f64[100,5,5]{0,2,1} %transpose.525), metadata={op_name="jit(_update)/jit(main)/select_n" source_file="/home/mathis/repos/backward_ica/src/utils/misc.py" source_line=573}
  %add.109 = f64[100,5,5]{2,1,0} add(f64[100,5,5]{2,1,0} %add.110, f64[100,5,5]{2,1,0} %copy.733), metadata={op_name="jit(_update)/jit(main)/add_any" source_file="/home/mathis/repos/backward_ica/src/utils/misc.py" source_line=573}
  %param_0.66 = f64[5,500]{0,1} parameter(0)
  %copy.732 = f64[5,500]{1,0} copy(f64[5,500]{0,1} %param_0.66), metadata={op_name="jit(_update)/jit(main)/triangular_solve[left_side=True lower=True transpose_a=False conjugate_a=False unit_diagonal=False]" source_file="/home/mathis/repos/backward_ica/src/utils/misc.py" source_line=573}
  %negate.122 = f64[5,500]{1,0} negate(f64[5,500]{1,0} %copy.732), metadata={op_name="jit(_update)/jit(main)/neg" source_file="/home/mathis/repos/backward_ica/src/utils/misc.py" source_line=573}
  %reshape.2047 = f64[5,5,100]{2,1,0} reshape(f64[5,500]{1,0} %negate.122), metadata={op_name="jit(_update)/jit(main)/neg" source_file="/home/mathis/repos/backward_ica/src/utils/misc.py" source_line=573}
  %transpose.524 = f64[100,5,5]{0,1,2} transpose(f64[5,5,100]{2,1,0} %reshape.2047), dimensions={2,1,0}, metadata={op_name="jit(_update)/jit(main)/neg" source_file="/home/mathis/repos/backward_ica/src/utils/misc.py" source_line=573}
  %copy.731 = f64[100,5,5]{2,1,0} copy(f64[100,5,5]{0,1,2} %transpose.524), metadata={op_name="jit(_update)/jit(main)/neg" source_file="/home/mathis/repos/backward_ica/src/utils/misc.py" source_line=573}
  %select.70 = f64[100,5,5]{2,1,0} select(pred[100,5,5]{2,1,0} %broadcast.909, f64[100,5,5]{2,1,0} %copy.731, f64[100,5,5]{2,1,0} %broadcast.904), metadata={op_name="jit(_update)/jit(main)/select_n" source_file="/home/mathis/repos/backward_ica/src/utils/misc.py" source_line=573}
  %add.108 = f64[100,5,5]{2,1,0} add(f64[100,5,5]{2,1,0} %add.109, f64[100,5,5]{2,1,0} %select.70), metadata={op_name="jit(_update)/jit(main)/add_any" source_file="/home/mathis/repos/backward_ica/src/utils/misc.py" source_line=573}
  %select.69 = f64[100,5,5]{2,1,0} select(pred[100,5,5]{2,1,0} %broadcast.909, f64[100,5,5]{2,1,0} %add.108, f64[100,5,5]{2,1,0} %broadcast.904), metadata={op_name="jit(_update)/jit(main)/select_n" source_file="/home/mathis/repos/backward_ica/src/utils/misc.py" source_line=566}
  %transpose.523 = f64[100,5,5]{1,2,0} transpose(f64[100,5,5]{2,1,0} %select.69), dimensions={0,2,1}, metadata={op_name="jit(_update)/jit(main)/select_n" source_file="/home/mathis/repos/backward_ica/src/utils/misc.py" source_line=566}
  %copy.730 = f64[100,5,5]{2,1,0} copy(f64[100,5,5]{1,2,0} %transpose.523), metadata={op_name="jit(_update)/jit(main)/select_n" source_file="/home/mathis/repos/backward_ica/src/utils/misc.py" source_line=566}
  ROOT %reshape.2046 = f64[500,5]{1,0} reshape(f64[100,5,5]{2,1,0} %copy.730), metadata={op_name="jit(_update)/jit(main)/select_n" source_file="/home/mathis/repos/backward_ica/src/utils/misc.py" source_line=566}
}

%fused_computation.18 (param_0.71: f64[500,5]) -> f64[5,500] {
  %param_0.71 = f64[500,5]{1,0} parameter(0)
  %reshape.2052 = f64[100,5,5]{2,1,0} reshape(f64[500,5]{1,0} %param_0.71), metadata={op_name="jit(_update)/jit(main)/dot_general[dimension_numbers=(((2,), (1,)), ((), ())) precision=(<Precision.HIGHEST: 2>, <Precision.HIGHEST: 2>) preferred_element_type=None]" source_file="/home/mathis/repos/backward_ica/src/utils/misc.py" source_line=573}
  %transpose.528 = f64[5,5,100]{1,0,2} transpose(f64[100,5,5]{2,1,0} %reshape.2052), dimensions={1,2,0}, metadata={op_name="jit(_update)/jit(main)/transpose[permutation=(1, 2, 0)]" source_file="/home/mathis/repos/backward_ica/src/utils/misc.py" source_line=573}
  %copy.740 = f64[5,5,100]{2,1,0} copy(f64[5,5,100]{1,0,2} %transpose.528), metadata={op_name="jit(_update)/jit(main)/transpose[permutation=(1, 2, 0)]" source_file="/home/mathis/repos/backward_ica/src/utils/misc.py" source_line=573}
  %reshape.2051 = f64[5,500]{1,0} reshape(f64[5,5,100]{2,1,0} %copy.740), metadata={op_name="jit(_update)/jit(main)/reshape[new_sizes=(5, 500) dimensions=None]" source_file="/home/mathis/repos/backward_ica/src/utils/misc.py" source_line=573}
  ROOT %copy.739 = f64[5,500]{0,1} copy(f64[5,500]{1,0} %reshape.2051), metadata={op_name="jit(_update)/jit(main)/reshape[new_sizes=(5, 500) dimensions=None]" source_file="/home/mathis/repos/backward_ica/src/utils/misc.py" source_line=573}
}

%fused_computation.19 (param_0.75: f64[500,5], param_1.88: f64[500,5], param_2.71: f64[500,5], param_3.74: f64[500,5]) -> f64[500,5] {
  %param_3.74 = f64[500,5]{0,1} parameter(3)
  %copy.752 = f64[500,5]{1,0} copy(f64[500,5]{0,1} %param_3.74), metadata={op_name="jit(_update)/jit(main)/triangular_solve[left_side=False lower=True transpose_a=False conjugate_a=False unit_diagonal=False]" source_file="/home/mathis/repos/backward_ica/src/utils/misc.py" source_line=566}
  %constant.491 = f64[] constant(0.5)
  %broadcast.910 = f64[500,5]{1,0} broadcast(f64[] %constant.491), dimensions={}, metadata={op_name="jit(_update)/jit(main)/div" source_file="/home/mathis/repos/backward_ica/src/utils/misc.py" source_line=566}
  %multiply.188 = f64[500,5]{1,0} multiply(f64[500,5]{1,0} %copy.752, f64[500,5]{1,0} %broadcast.910), metadata={op_name="jit(_update)/jit(main)/div" source_file="/home/mathis/repos/backward_ica/src/utils/misc.py" source_line=566}
  %reshape.2057 = f64[5,100,5]{2,1,0} reshape(f64[500,5]{1,0} %multiply.188), metadata={op_name="jit(_update)/jit(main)/div" source_file="/home/mathis/repos/backward_ica/src/utils/misc.py" source_line=566}
  %transpose.536 = f64[100,5,5]{2,0,1} transpose(f64[5,100,5]{2,1,0} %reshape.2057), dimensions={1,0,2}, metadata={op_name="jit(_update)/jit(main)/transpose[permutation=(1, 0, 2)]" source_file="/home/mathis/repos/backward_ica/src/utils/misc.py" source_line=566}
  %copy.751 = f64[100,5,5]{2,1,0} copy(f64[100,5,5]{2,0,1} %transpose.536), metadata={op_name="jit(_update)/jit(main)/transpose[permutation=(1, 0, 2)]" source_file="/home/mathis/repos/backward_ica/src/utils/misc.py" source_line=566}
  %transpose.535 = f64[100,5,5]{1,0,2} transpose(f64[5,100,5]{2,1,0} %reshape.2057), dimensions={1,2,0}, metadata={op_name="jit(_update)/jit(main)/transpose[permutation=(1, 2, 0)]" source_file="/home/mathis/repos/backward_ica/src/utils/misc.py" source_line=566}
  %copy.750 = f64[100,5,5]{2,1,0} copy(f64[100,5,5]{1,0,2} %transpose.535), metadata={op_name="jit(_update)/jit(main)/transpose[permutation=(1, 2, 0)]" source_file="/home/mathis/repos/backward_ica/src/utils/misc.py" source_line=566}
  %add.117 = f64[100,5,5]{2,1,0} add(f64[100,5,5]{2,1,0} %copy.751, f64[100,5,5]{2,1,0} %copy.750), metadata={op_name="jit(_update)/jit(main)/add_any" source_file="/home/mathis/repos/backward_ica/src/utils/misc.py" source_line=566}
  %param_2.71 = f64[500,5]{0,1} parameter(2)
  %copy.749 = f64[500,5]{1,0} copy(f64[500,5]{0,1} %param_2.71), metadata={op_name="jit(_update)/jit(main)/triangular_solve[left_side=False lower=True transpose_a=False conjugate_a=False unit_diagonal=False]" source_file="/home/mathis/repos/backward_ica/src/utils/misc.py" source_line=566}
  %multiply.187 = f64[500,5]{1,0} multiply(f64[500,5]{1,0} %copy.749, f64[500,5]{1,0} %broadcast.910), metadata={op_name="jit(_update)/jit(main)/div" source_file="/home/mathis/repos/backward_ica/src/utils/misc.py" source_line=566}
  %reshape.2056 = f64[5,100,5]{2,1,0} reshape(f64[500,5]{1,0} %multiply.187), metadata={op_name="jit(_update)/jit(main)/div" source_file="/home/mathis/repos/backward_ica/src/utils/misc.py" source_line=566}
  %transpose.534 = f64[100,5,5]{2,0,1} transpose(f64[5,100,5]{2,1,0} %reshape.2056), dimensions={1,0,2}, metadata={op_name="jit(_update)/jit(main)/transpose[permutation=(1, 0, 2)]" source_file="/home/mathis/repos/backward_ica/src/utils/misc.py" source_line=566}
  %copy.748 = f64[100,5,5]{2,1,0} copy(f64[100,5,5]{2,0,1} %transpose.534), metadata={op_name="jit(_update)/jit(main)/transpose[permutation=(1, 0, 2)]" source_file="/home/mathis/repos/backward_ica/src/utils/misc.py" source_line=566}
  %transpose.533 = f64[100,5,5]{1,0,2} transpose(f64[5,100,5]{2,1,0} %reshape.2056), dimensions={1,2,0}, metadata={op_name="jit(_update)/jit(main)/transpose[permutation=(1, 2, 0)]" source_file="/home/mathis/repos/backward_ica/src/utils/misc.py" source_line=566}
  %copy.747 = f64[100,5,5]{2,1,0} copy(f64[100,5,5]{1,0,2} %transpose.533), metadata={op_name="jit(_update)/jit(main)/transpose[permutation=(1, 2, 0)]" source_file="/home/mathis/repos/backward_ica/src/utils/misc.py" source_line=566}
  %add.116 = f64[100,5,5]{2,1,0} add(f64[100,5,5]{2,1,0} %copy.748, f64[100,5,5]{2,1,0} %copy.747), metadata={op_name="jit(_update)/jit(main)/add_any" source_file="/home/mathis/repos/backward_ica/src/utils/misc.py" source_line=566}
  %add.115 = f64[100,5,5]{2,1,0} add(f64[100,5,5]{2,1,0} %add.117, f64[100,5,5]{2,1,0} %add.116), metadata={op_name="jit(_update)/jit(main)/mul" source_file="/home/mathis/repos/backward_ica/src/stats/distributions.py" source_line=149}
  %param_1.88 = f64[500,5]{0,1} parameter(1)
  %copy.746 = f64[500,5]{1,0} copy(f64[500,5]{0,1} %param_1.88), metadata={op_name="jit(_update)/jit(main)/triangular_solve[left_side=False lower=True transpose_a=False conjugate_a=False unit_diagonal=False]" source_file="/home/mathis/repos/backward_ica/src/utils/misc.py" source_line=566}
  %multiply.186 = f64[500,5]{1,0} multiply(f64[500,5]{1,0} %copy.746, f64[500,5]{1,0} %broadcast.910), metadata={op_name="jit(_update)/jit(main)/div" source_file="/home/mathis/repos/backward_ica/src/utils/misc.py" source_line=566}
  %reshape.2055 = f64[5,100,5]{2,1,0} reshape(f64[500,5]{1,0} %multiply.186), metadata={op_name="jit(_update)/jit(main)/div" source_file="/home/mathis/repos/backward_ica/src/utils/misc.py" source_line=566}
  %transpose.532 = f64[100,5,5]{2,0,1} transpose(f64[5,100,5]{2,1,0} %reshape.2055), dimensions={1,0,2}, metadata={op_name="jit(_update)/jit(main)/transpose[permutation=(1, 0, 2)]" source_file="/home/mathis/repos/backward_ica/src/utils/misc.py" source_line=566}
  %copy.745 = f64[100,5,5]{2,1,0} copy(f64[100,5,5]{2,0,1} %transpose.532), metadata={op_name="jit(_update)/jit(main)/transpose[permutation=(1, 0, 2)]" source_file="/home/mathis/repos/backward_ica/src/utils/misc.py" source_line=566}
  %transpose.531 = f64[100,5,5]{1,0,2} transpose(f64[5,100,5]{2,1,0} %reshape.2055), dimensions={1,2,0}, metadata={op_name="jit(_update)/jit(main)/transpose[permutation=(1, 2, 0)]" source_file="/home/mathis/repos/backward_ica/src/utils/misc.py" source_line=566}
  %copy.744 = f64[100,5,5]{2,1,0} copy(f64[100,5,5]{1,0,2} %transpose.531), metadata={op_name="jit(_update)/jit(main)/transpose[permutation=(1, 2, 0)]" source_file="/home/mathis/repos/backward_ica/src/utils/misc.py" source_line=566}
  %add.114 = f64[100,5,5]{2,1,0} add(f64[100,5,5]{2,1,0} %copy.745, f64[100,5,5]{2,1,0} %copy.744), metadata={op_name="jit(_update)/jit(main)/add_any" source_file="/home/mathis/repos/backward_ica/src/utils/misc.py" source_line=566}
  %add.113 = f64[100,5,5]{2,1,0} add(f64[100,5,5]{2,1,0} %add.115, f64[100,5,5]{2,1,0} %add.114), metadata={op_name="jit(_update)/jit(main)/add_any" source_file="/home/mathis/repos/backward_ica/src/stats/distributions.py" source_line=149}
  %param_0.75 = f64[500,5]{0,1} parameter(0)
  %copy.743 = f64[500,5]{1,0} copy(f64[500,5]{0,1} %param_0.75), metadata={op_name="jit(_update)/jit(main)/triangular_solve[left_side=False lower=True transpose_a=False conjugate_a=False unit_diagonal=False]" source_file="/home/mathis/repos/backward_ica/src/utils/misc.py" source_line=566}
  %multiply.185 = f64[500,5]{1,0} multiply(f64[500,5]{1,0} %copy.743, f64[500,5]{1,0} %broadcast.910), metadata={op_name="jit(_update)/jit(main)/div" source_file="/home/mathis/repos/backward_ica/src/utils/misc.py" source_line=566}
  %reshape.2054 = f64[5,100,5]{2,1,0} reshape(f64[500,5]{1,0} %multiply.185), metadata={op_name="jit(_update)/jit(main)/div" source_file="/home/mathis/repos/backward_ica/src/utils/misc.py" source_line=566}
  %transpose.530 = f64[100,5,5]{2,0,1} transpose(f64[5,100,5]{2,1,0} %reshape.2054), dimensions={1,0,2}, metadata={op_name="jit(_update)/jit(main)/transpose[permutation=(1, 0, 2)]" source_file="/home/mathis/repos/backward_ica/src/utils/misc.py" source_line=566}
  %copy.742 = f64[100,5,5]{2,1,0} copy(f64[100,5,5]{2,0,1} %transpose.530), metadata={op_name="jit(_update)/jit(main)/transpose[permutation=(1, 0, 2)]" source_file="/home/mathis/repos/backward_ica/src/utils/misc.py" source_line=566}
  %transpose.529 = f64[100,5,5]{1,0,2} transpose(f64[5,100,5]{2,1,0} %reshape.2054), dimensions={1,2,0}, metadata={op_name="jit(_update)/jit(main)/transpose[permutation=(1, 2, 0)]" source_file="/home/mathis/repos/backward_ica/src/utils/misc.py" source_line=566}
  %copy.741 = f64[100,5,5]{2,1,0} copy(f64[100,5,5]{1,0,2} %transpose.529), metadata={op_name="jit(_update)/jit(main)/transpose[permutation=(1, 2, 0)]" source_file="/home/mathis/repos/backward_ica/src/utils/misc.py" source_line=566}
  %add.112 = f64[100,5,5]{2,1,0} add(f64[100,5,5]{2,1,0} %copy.742, f64[100,5,5]{2,1,0} %copy.741), metadata={op_name="jit(_update)/jit(main)/add_any" source_file="/home/mathis/repos/backward_ica/src/utils/misc.py" source_line=566}
  %add.111 = f64[100,5,5]{2,1,0} add(f64[100,5,5]{2,1,0} %add.113, f64[100,5,5]{2,1,0} %add.112), metadata={op_name="jit(_update)/jit(main)/add_any" source_file="/home/mathis/repos/backward_ica/src/stats/distributions.py" source_line=149}
  ROOT %reshape.2053 = f64[500,5]{1,0} reshape(f64[100,5,5]{2,1,0} %add.111), metadata={op_name="jit(_update)/jit(main)/mul" source_file="/home/mathis/repos/backward_ica/src/stats/distributions.py" source_line=164}
}

%fused_computation.21 (param_0.83: f64[500,5]) -> f64[5,500] {
  %param_0.83 = f64[500,5]{1,0} parameter(0)
  %reshape.2059 = f64[5,100,5]{2,1,0} reshape(f64[500,5]{1,0} %param_0.83), metadata={op_name="jit(_update)/jit(main)/dot_general[dimension_numbers=(((1,), (1,)), ((), ())) precision=(<Precision.HIGHEST: 2>, <Precision.HIGHEST: 2>) preferred_element_type=None]" source_file="/home/mathis/repos/backward_ica/src/utils/misc.py" source_line=573}
  %transpose.537 = f64[5,5,100]{1,2,0} transpose(f64[5,100,5]{2,1,0} %reshape.2059), dimensions={0,2,1}, metadata={op_name="jit(_update)/jit(main)/transpose[permutation=(0, 2, 1)]" source_file="/home/mathis/repos/backward_ica/src/utils/misc.py" source_line=573}
  %copy.755 = f64[5,5,100]{2,1,0} copy(f64[5,5,100]{1,2,0} %transpose.537), metadata={op_name="jit(_update)/jit(main)/transpose[permutation=(0, 2, 1)]" source_file="/home/mathis/repos/backward_ica/src/utils/misc.py" source_line=573}
  %reshape.2058 = f64[5,500]{1,0} reshape(f64[5,5,100]{2,1,0} %copy.755), metadata={op_name="jit(_update)/jit(main)/reshape[new_sizes=(5, 500) dimensions=None]" source_file="/home/mathis/repos/backward_ica/src/utils/misc.py" source_line=573}
  ROOT %copy.754 = f64[5,500]{0,1} copy(f64[5,500]{1,0} %reshape.2058), metadata={op_name="jit(_update)/jit(main)/reshape[new_sizes=(5, 500) dimensions=None]" source_file="/home/mathis/repos/backward_ica/src/utils/misc.py" source_line=573}
}

%fused_computation.22 (param_0.88: f64[5,500]) -> f64[500,5] {
  %param_0.88 = f64[5,500]{0,1} parameter(0)
  %copy.757 = f64[5,500]{1,0} copy(f64[5,500]{0,1} %param_0.88), metadata={op_name="jit(_update)/jit(main)/triangular_solve[left_side=True lower=True transpose_a=False conjugate_a=False unit_diagonal=False]" source_file="/home/mathis/repos/backward_ica/src/utils/misc.py" source_line=573}
  %reshape.2061 = f64[5,5,100]{2,1,0} reshape(f64[5,500]{1,0} %copy.757), metadata={op_name="jit(_update)/jit(main)/reshape[new_sizes=(5, 5, 100) dimensions=None]" source_file="/home/mathis/repos/backward_ica/src/utils/misc.py" source_line=573}
  %transpose.538 = f64[5,100,5]{1,2,0} transpose(f64[5,5,100]{2,1,0} %reshape.2061), dimensions={0,2,1}, metadata={op_name="jit(_update)/jit(main)/reshape[new_sizes=(5, 5, 100) dimensions=None]" source_file="/home/mathis/repos/backward_ica/src/utils/misc.py" source_line=573}
  %copy.756 = f64[5,100,5]{2,1,0} copy(f64[5,100,5]{1,2,0} %transpose.538), metadata={op_name="jit(_update)/jit(main)/reshape[new_sizes=(5, 5, 100) dimensions=None]" source_file="/home/mathis/repos/backward_ica/src/utils/misc.py" source_line=573}
  ROOT %reshape.2060 = f64[500,5]{1,0} reshape(f64[5,100,5]{2,1,0} %copy.756), metadata={op_name="jit(_update)/jit(main)/reshape[new_sizes=(5, 5, 100) dimensions=None]" source_file="/home/mathis/repos/backward_ica/src/utils/misc.py" source_line=573}
}

%fused_computation.23 (param_0.95: f64[500,5], param_1.98: f64[500,5], param_2.83: f64[500,5], param_3.85: f64[500,5]) -> f64[5,500] {
  %param_3.85 = f64[500,5]{0,1} parameter(3)
  %copy.771 = f64[500,5]{1,0} copy(f64[500,5]{0,1} %param_3.85), metadata={op_name="jit(_update)/jit(main)/triangular_solve[left_side=False lower=True transpose_a=False conjugate_a=False unit_diagonal=False]" source_file="/home/mathis/repos/backward_ica/src/utils/misc.py" source_line=566}
  %constant.493 = f64[] constant(0.5)
  %broadcast.913 = f64[500,5]{1,0} broadcast(f64[] %constant.493), dimensions={}, metadata={op_name="jit(_update)/jit(main)/div" source_file="/home/mathis/repos/backward_ica/src/utils/misc.py" source_line=566}
  %multiply.192 = f64[500,5]{1,0} multiply(f64[500,5]{1,0} %copy.771, f64[500,5]{1,0} %broadcast.913), metadata={op_name="jit(_update)/jit(main)/div" source_file="/home/mathis/repos/backward_ica/src/utils/misc.py" source_line=566}
  %reshape.2068 = f64[5,100,5]{2,1,0} reshape(f64[500,5]{1,0} %multiply.192), metadata={op_name="jit(_update)/jit(main)/div" source_file="/home/mathis/repos/backward_ica/src/utils/misc.py" source_line=566}
  %transpose.547 = f64[100,5,5]{2,0,1} transpose(f64[5,100,5]{2,1,0} %reshape.2068), dimensions={1,0,2}, metadata={op_name="jit(_update)/jit(main)/transpose[permutation=(1, 0, 2)]" source_file="/home/mathis/repos/backward_ica/src/utils/misc.py" source_line=566}
  %copy.770 = f64[100,5,5]{2,1,0} copy(f64[100,5,5]{2,0,1} %transpose.547), metadata={op_name="jit(_update)/jit(main)/transpose[permutation=(1, 0, 2)]" source_file="/home/mathis/repos/backward_ica/src/utils/misc.py" source_line=566}
  %transpose.546 = f64[100,5,5]{1,0,2} transpose(f64[5,100,5]{2,1,0} %reshape.2068), dimensions={1,2,0}, metadata={op_name="jit(_update)/jit(main)/transpose[permutation=(1, 2, 0)]" source_file="/home/mathis/repos/backward_ica/src/utils/misc.py" source_line=566}
  %copy.769 = f64[100,5,5]{2,1,0} copy(f64[100,5,5]{1,0,2} %transpose.546), metadata={op_name="jit(_update)/jit(main)/transpose[permutation=(1, 2, 0)]" source_file="/home/mathis/repos/backward_ica/src/utils/misc.py" source_line=566}
  %add.124 = f64[100,5,5]{2,1,0} add(f64[100,5,5]{2,1,0} %copy.770, f64[100,5,5]{2,1,0} %copy.769), metadata={op_name="jit(_update)/jit(main)/add_any" source_file="/home/mathis/repos/backward_ica/src/utils/misc.py" source_line=566}
  %param_2.83 = f64[500,5]{0,1} parameter(2)
  %copy.768 = f64[500,5]{1,0} copy(f64[500,5]{0,1} %param_2.83), metadata={op_name="jit(_update)/jit(main)/triangular_solve[left_side=False lower=True transpose_a=False conjugate_a=False unit_diagonal=False]" source_file="/home/mathis/repos/backward_ica/src/utils/misc.py" source_line=566}
  %multiply.191 = f64[500,5]{1,0} multiply(f64[500,5]{1,0} %copy.768, f64[500,5]{1,0} %broadcast.913), metadata={op_name="jit(_update)/jit(main)/div" source_file="/home/mathis/repos/backward_ica/src/utils/misc.py" source_line=566}
  %reshape.2067 = f64[5,100,5]{2,1,0} reshape(f64[500,5]{1,0} %multiply.191), metadata={op_name="jit(_update)/jit(main)/div" source_file="/home/mathis/repos/backward_ica/src/utils/misc.py" source_line=566}
  %transpose.545 = f64[100,5,5]{2,0,1} transpose(f64[5,100,5]{2,1,0} %reshape.2067), dimensions={1,0,2}, metadata={op_name="jit(_update)/jit(main)/transpose[permutation=(1, 0, 2)]" source_file="/home/mathis/repos/backward_ica/src/utils/misc.py" source_line=566}
  %copy.767 = f64[100,5,5]{2,1,0} copy(f64[100,5,5]{2,0,1} %transpose.545), metadata={op_name="jit(_update)/jit(main)/transpose[permutation=(1, 0, 2)]" source_file="/home/mathis/repos/backward_ica/src/utils/misc.py" source_line=566}
  %transpose.544 = f64[100,5,5]{1,0,2} transpose(f64[5,100,5]{2,1,0} %reshape.2067), dimensions={1,2,0}, metadata={op_name="jit(_update)/jit(main)/transpose[permutation=(1, 2, 0)]" source_file="/home/mathis/repos/backward_ica/src/utils/misc.py" source_line=566}
  %copy.766 = f64[100,5,5]{2,1,0} copy(f64[100,5,5]{1,0,2} %transpose.544), metadata={op_name="jit(_update)/jit(main)/transpose[permutation=(1, 2, 0)]" source_file="/home/mathis/repos/backward_ica/src/utils/misc.py" source_line=566}
  %add.123 = f64[100,5,5]{2,1,0} add(f64[100,5,5]{2,1,0} %copy.767, f64[100,5,5]{2,1,0} %copy.766), metadata={op_name="jit(_update)/jit(main)/add_any" source_file="/home/mathis/repos/backward_ica/src/utils/misc.py" source_line=566}
  %add.122 = f64[100,5,5]{2,1,0} add(f64[100,5,5]{2,1,0} %add.124, f64[100,5,5]{2,1,0} %add.123), metadata={op_name="jit(_update)/jit(main)/mul" source_file="/home/mathis/repos/backward_ica/src/stats/distributions.py" source_line=149}
  %param_1.98 = f64[500,5]{0,1} parameter(1)
  %copy.765 = f64[500,5]{1,0} copy(f64[500,5]{0,1} %param_1.98), metadata={op_name="jit(_update)/jit(main)/triangular_solve[left_side=False lower=True transpose_a=False conjugate_a=False unit_diagonal=False]" source_file="/home/mathis/repos/backward_ica/src/utils/misc.py" source_line=566}
  %multiply.190 = f64[500,5]{1,0} multiply(f64[500,5]{1,0} %copy.765, f64[500,5]{1,0} %broadcast.913), metadata={op_name="jit(_update)/jit(main)/div" source_file="/home/mathis/repos/backward_ica/src/utils/misc.py" source_line=566}
  %reshape.2065 = f64[5,100,5]{2,1,0} reshape(f64[500,5]{1,0} %multiply.190), metadata={op_name="jit(_update)/jit(main)/div" source_file="/home/mathis/repos/backward_ica/src/utils/misc.py" source_line=566}
  %transpose.543 = f64[100,5,5]{2,0,1} transpose(f64[5,100,5]{2,1,0} %reshape.2065), dimensions={1,0,2}, metadata={op_name="jit(_update)/jit(main)/transpose[permutation=(1, 0, 2)]" source_file="/home/mathis/repos/backward_ica/src/utils/misc.py" source_line=566}
  %copy.764 = f64[100,5,5]{2,1,0} copy(f64[100,5,5]{2,0,1} %transpose.543), metadata={op_name="jit(_update)/jit(main)/transpose[permutation=(1, 0, 2)]" source_file="/home/mathis/repos/backward_ica/src/utils/misc.py" source_line=566}
  %transpose.542 = f64[100,5,5]{1,0,2} transpose(f64[5,100,5]{2,1,0} %reshape.2065), dimensions={1,2,0}, metadata={op_name="jit(_update)/jit(main)/transpose[permutation=(1, 2, 0)]" source_file="/home/mathis/repos/backward_ica/src/utils/misc.py" source_line=566}
  %copy.763 = f64[100,5,5]{2,1,0} copy(f64[100,5,5]{1,0,2} %transpose.542), metadata={op_name="jit(_update)/jit(main)/transpose[permutation=(1, 2, 0)]" source_file="/home/mathis/repos/backward_ica/src/utils/misc.py" source_line=566}
  %add.121 = f64[100,5,5]{2,1,0} add(f64[100,5,5]{2,1,0} %copy.764, f64[100,5,5]{2,1,0} %copy.763), metadata={op_name="jit(_update)/jit(main)/add_any" source_file="/home/mathis/repos/backward_ica/src/utils/misc.py" source_line=566}
  %add.120 = f64[100,5,5]{2,1,0} add(f64[100,5,5]{2,1,0} %add.122, f64[100,5,5]{2,1,0} %add.121), metadata={op_name="jit(_update)/jit(main)/add_any" source_file="/home/mathis/repos/backward_ica/src/stats/distributions.py" source_line=149}
  %param_0.95 = f64[500,5]{0,1} parameter(0)
  %copy.762 = f64[500,5]{1,0} copy(f64[500,5]{0,1} %param_0.95), metadata={op_name="jit(_update)/jit(main)/triangular_solve[left_side=False lower=True transpose_a=False conjugate_a=False unit_diagonal=False]" source_file="/home/mathis/repos/backward_ica/src/utils/misc.py" source_line=566}
  %multiply.189 = f64[500,5]{1,0} multiply(f64[500,5]{1,0} %copy.762, f64[500,5]{1,0} %broadcast.913), metadata={op_name="jit(_update)/jit(main)/div" source_file="/home/mathis/repos/backward_ica/src/utils/misc.py" source_line=566}
  %reshape.2063 = f64[5,100,5]{2,1,0} reshape(f64[500,5]{1,0} %multiply.189), metadata={op_name="jit(_update)/jit(main)/div" source_file="/home/mathis/repos/backward_ica/src/utils/misc.py" source_line=566}
  %transpose.541 = f64[100,5,5]{2,0,1} transpose(f64[5,100,5]{2,1,0} %reshape.2063), dimensions={1,0,2}, metadata={op_name="jit(_update)/jit(main)/transpose[permutation=(1, 0, 2)]" source_file="/home/mathis/repos/backward_ica/src/utils/misc.py" source_line=566}
  %copy.761 = f64[100,5,5]{2,1,0} copy(f64[100,5,5]{2,0,1} %transpose.541), metadata={op_name="jit(_update)/jit(main)/transpose[permutation=(1, 0, 2)]" source_file="/home/mathis/repos/backward_ica/src/utils/misc.py" source_line=566}
  %transpose.540 = f64[100,5,5]{1,0,2} transpose(f64[5,100,5]{2,1,0} %reshape.2063), dimensions={1,2,0}, metadata={op_name="jit(_update)/jit(main)/transpose[permutation=(1, 2, 0)]" source_file="/home/mathis/repos/backward_ica/src/utils/misc.py" source_line=566}
  %copy.760 = f64[100,5,5]{2,1,0} copy(f64[100,5,5]{1,0,2} %transpose.540), metadata={op_name="jit(_update)/jit(main)/transpose[permutation=(1, 2, 0)]" source_file="/home/mathis/repos/backward_ica/src/utils/misc.py" source_line=566}
  %add.119 = f64[100,5,5]{2,1,0} add(f64[100,5,5]{2,1,0} %copy.761, f64[100,5,5]{2,1,0} %copy.760), metadata={op_name="jit(_update)/jit(main)/add_any" source_file="/home/mathis/repos/backward_ica/src/utils/misc.py" source_line=566}
  %add.118 = f64[100,5,5]{2,1,0} add(f64[100,5,5]{2,1,0} %add.120, f64[100,5,5]{2,1,0} %add.119), metadata={op_name="jit(_update)/jit(main)/add_any" source_file="/home/mathis/repos/backward_ica/src/stats/distributions.py" source_line=149}
  %transpose.539 = f64[5,5,100]{1,0,2} transpose(f64[100,5,5]{2,1,0} %add.118), dimensions={1,2,0}, metadata={op_name="jit(_update)/jit(main)/transpose[permutation=(1, 2, 0)]" source_file="/home/mathis/repos/backward_ica/src/utils/misc.py" source_line=573}
  %copy.759 = f64[5,5,100]{2,1,0} copy(f64[5,5,100]{1,0,2} %transpose.539), metadata={op_name="jit(_update)/jit(main)/transpose[permutation=(1, 2, 0)]" source_file="/home/mathis/repos/backward_ica/src/utils/misc.py" source_line=573}
  %reshape.2062 = f64[5,500]{1,0} reshape(f64[5,5,100]{2,1,0} %copy.759), metadata={op_name="jit(_update)/jit(main)/reshape[new_sizes=(5, 500) dimensions=None]" source_file="/home/mathis/repos/backward_ica/src/utils/misc.py" source_line=573}
  ROOT %copy.758 = f64[5,500]{0,1} copy(f64[5,500]{1,0} %reshape.2062), metadata={op_name="jit(_update)/jit(main)/reshape[new_sizes=(5, 500) dimensions=None]" source_file="/home/mathis/repos/backward_ica/src/utils/misc.py" source_line=573}
}

%fused_computation.24 (param_0.101: f64[5,500]) -> f64[500,5] {
  %param_0.101 = f64[5,500]{0,1} parameter(0)
  %copy.774 = f64[5,500]{1,0} copy(f64[5,500]{0,1} %param_0.101), metadata={op_name="jit(_update)/jit(main)/triangular_solve[left_side=True lower=True transpose_a=True conjugate_a=False unit_diagonal=False]" source_file="/home/mathis/repos/backward_ica/src/utils/misc.py" source_line=566}
  %reshape.2070 = f64[5,5,100]{2,1,0} reshape(f64[5,500]{1,0} %copy.774), metadata={op_name="jit(_update)/jit(main)/reshape[new_sizes=(5, 5, 100) dimensions=None]" source_file="/home/mathis/repos/backward_ica/src/utils/misc.py" source_line=566}
  %transpose.548 = f64[5,100,5]{1,2,0} transpose(f64[5,5,100]{2,1,0} %reshape.2070), dimensions={0,2,1}, metadata={op_name="jit(_update)/jit(main)/transpose[permutation=(0, 2, 1)]" source_file="/home/mathis/repos/backward_ica/src/utils/misc.py" source_line=566}
  %copy.773 = f64[5,100,5]{2,1,0} copy(f64[5,100,5]{1,2,0} %transpose.548), metadata={op_name="jit(_update)/jit(main)/transpose[permutation=(0, 2, 1)]" source_file="/home/mathis/repos/backward_ica/src/utils/misc.py" source_line=566}
  %reshape.2069 = f64[500,5]{1,0} reshape(f64[5,100,5]{2,1,0} %copy.773), metadata={op_name="jit(_update)/jit(main)/reshape[new_sizes=(500, 5) dimensions=None]" source_file="/home/mathis/repos/backward_ica/src/utils/misc.py" source_line=566}
  ROOT %copy.772 = f64[500,5]{0,1} copy(f64[500,5]{1,0} %reshape.2069), metadata={op_name="jit(_update)/jit(main)/reshape[new_sizes=(500, 5) dimensions=None]" source_file="/home/mathis/repos/backward_ica/src/utils/misc.py" source_line=566}
}

%fused_computation.25 (param_0.107: f64[500,5]) -> f64[5,500] {
  %iota.360 = s32[5,5]{1,0} iota(), iota_dimension=0, metadata={op_name="jit(_update)/jit(main)/iota[dtype=int32 shape=(5, 5) dimension=0]" source_file="/home/mathis/repos/backward_ica/src/utils/misc.py" source_line=566}
  %iota.359 = s32[5,5]{1,0} iota(), iota_dimension=1, metadata={op_name="jit(_update)/jit(main)/iota[dtype=int32 shape=(5, 5) dimension=1]" source_file="/home/mathis/repos/backward_ica/src/utils/misc.py" source_line=566}
  %compare.64 = pred[5,5]{1,0} compare(s32[5,5]{1,0} %iota.360, s32[5,5]{1,0} %iota.359), direction=GE, metadata={op_name="jit(_update)/jit(main)/ge" source_file="/home/mathis/repos/backward_ica/src/utils/misc.py" source_line=566}
  %broadcast.917 = pred[100,5,5]{2,1,0} broadcast(pred[5,5]{1,0} %compare.64), dimensions={1,2}, metadata={op_name="jit(_update)/jit(main)/broadcast_in_dim[shape=(100, 5, 5) broadcast_dimensions=(1, 2)]" source_file="/home/mathis/repos/backward_ica/src/utils/misc.py" source_line=566}
  %param_0.107 = f64[500,5]{1,0} parameter(0)
  %reshape.2072 = f64[100,5,5]{2,1,0} reshape(f64[500,5]{1,0} %param_0.107), metadata={op_name="jit(_update)/jit(main)/dot_general[dimension_numbers=(((1,), (0,)), ((), ())) precision=(<Precision.HIGHEST: 2>, <Precision.HIGHEST: 2>) preferred_element_type=None]" source_file="/home/mathis/repos/backward_ica/src/utils/misc.py" source_line=566}
  %transpose.550 = f64[100,5,5]{1,2,0} transpose(f64[100,5,5]{2,1,0} %reshape.2072), dimensions={0,2,1}, metadata={op_name="jit(_update)/jit(main)/transpose[permutation=(0, 2, 1)]" source_file="/home/mathis/repos/backward_ica/src/utils/misc.py" source_line=566}
  %copy.777 = f64[100,5,5]{2,1,0} copy(f64[100,5,5]{1,2,0} %transpose.550), metadata={op_name="jit(_update)/jit(main)/transpose[permutation=(0, 2, 1)]" source_file="/home/mathis/repos/backward_ica/src/utils/misc.py" source_line=566}
  %iota.358 = s32[5,5]{1,0} iota(), iota_dimension=0, metadata={op_name="jit(_update)/jit(main)/iota[dtype=int32 shape=(5, 5) dimension=0]" source_file="/home/mathis/repos/backward_ica/src/utils/misc.py" source_line=77}
  %iota.357 = s32[5,5]{1,0} iota(), iota_dimension=1, metadata={op_name="jit(_update)/jit(main)/iota[dtype=int32 shape=(5, 5) dimension=1]" source_file="/home/mathis/repos/backward_ica/src/utils/misc.py" source_line=77}
  %compare.63 = pred[5,5]{1,0} compare(s32[5,5]{1,0} %iota.358, s32[5,5]{1,0} %iota.357), direction=EQ, metadata={op_name="jit(_update)/jit(main)/eq" source_file="/home/mathis/repos/backward_ica/src/utils/misc.py" source_line=77}
  %convert.1 = f64[5,5]{1,0} convert(pred[5,5]{1,0} %compare.63), metadata={op_name="jit(_update)/jit(main)/convert_element_type[new_dtype=float64 weak_type=False]" source_file="/home/mathis/repos/backward_ica/src/utils/misc.py" source_line=571}
  %constant.495 = f64[] constant(1)
  %broadcast.918 = f64[5,5]{1,0} broadcast(f64[] %constant.495), dimensions={}
  %add.125 = f64[5,5]{1,0} add(f64[5,5]{1,0} %convert.1, f64[5,5]{1,0} %broadcast.918), metadata={op_name="jit(_update)/jit(main)/add" source_file="/home/mathis/repos/backward_ica/src/utils/misc.py" source_line=557}
  %broadcast.915 = f64[100,5,5]{2,1,0} broadcast(f64[5,5]{1,0} %add.125), dimensions={1,2}, metadata={op_name="jit(_update)/jit(main)/div" source_file="/home/mathis/repos/backward_ica/src/utils/misc.py" source_line=566}
  %divide.1 = f64[100,5,5]{2,1,0} divide(f64[100,5,5]{2,1,0} %copy.777, f64[100,5,5]{2,1,0} %broadcast.915), metadata={op_name="jit(_update)/jit(main)/div" source_file="/home/mathis/repos/backward_ica/src/utils/misc.py" source_line=566}
  %constant.494 = f64[] constant(0)
  %broadcast.916 = f64[100,5,5]{2,1,0} broadcast(f64[] %constant.494), dimensions={}, metadata={op_name="jit(_update)/jit(main)/broadcast_in_dim[shape=(100, 5, 5) broadcast_dimensions=(1, 2)]" source_file="/home/mathis/repos/backward_ica/src/utils/misc.py" source_line=573}
  %select.75 = f64[100,5,5]{2,1,0} select(pred[100,5,5]{2,1,0} %broadcast.917, f64[100,5,5]{2,1,0} %divide.1, f64[100,5,5]{2,1,0} %broadcast.916), metadata={op_name="jit(_update)/jit(main)/select_n" source_file="/home/mathis/repos/backward_ica/src/utils/misc.py" source_line=566}
  %transpose.549 = f64[5,5,100]{1,0,2} transpose(f64[100,5,5]{2,1,0} %select.75), dimensions={1,2,0}, metadata={op_name="jit(_update)/jit(main)/transpose[permutation=(1, 2, 0)]" source_file="/home/mathis/repos/backward_ica/src/utils/misc.py" source_line=566}
  %copy.776 = f64[5,5,100]{2,1,0} copy(f64[5,5,100]{1,0,2} %transpose.549), metadata={op_name="jit(_update)/jit(main)/transpose[permutation=(1, 2, 0)]" source_file="/home/mathis/repos/backward_ica/src/utils/misc.py" source_line=566}
  %reshape.2071 = f64[5,500]{1,0} reshape(f64[5,5,100]{2,1,0} %copy.776), metadata={op_name="jit(_update)/jit(main)/reshape[new_sizes=(5, 500) dimensions=None]" source_file="/home/mathis/repos/backward_ica/src/utils/misc.py" source_line=566}
  ROOT %copy.775 = f64[5,500]{0,1} copy(f64[5,500]{1,0} %reshape.2071), metadata={op_name="jit(_update)/jit(main)/reshape[new_sizes=(5, 500) dimensions=None]" source_file="/home/mathis/repos/backward_ica/src/utils/misc.py" source_line=566}
}

%fused_computation.26 (param_0.112: f64[5,500], param_1.109: f64[5,500]) -> f64[500,5] {
  %iota.362 = s32[5,5]{1,0} iota(), iota_dimension=0, metadata={op_name="jit(_update)/jit(main)/iota[dtype=int32 shape=(5, 5) dimension=0]" source_file="/home/mathis/repos/backward_ica/src/utils/misc.py" source_line=566}
  %iota.361 = s32[5,5]{1,0} iota(), iota_dimension=1, metadata={op_name="jit(_update)/jit(main)/iota[dtype=int32 shape=(5, 5) dimension=1]" source_file="/home/mathis/repos/backward_ica/src/utils/misc.py" source_line=566}
  %compare.65 = pred[5,5]{1,0} compare(s32[5,5]{1,0} %iota.362, s32[5,5]{1,0} %iota.361), direction=GE, metadata={op_name="jit(_update)/jit(main)/ge" source_file="/home/mathis/repos/backward_ica/src/utils/misc.py" source_line=566}
  %broadcast.924 = pred[100,5,5]{2,1,0} broadcast(pred[5,5]{1,0} %compare.65), dimensions={1,2}, metadata={op_name="jit(_update)/jit(main)/broadcast_in_dim[shape=(100, 5, 5) broadcast_dimensions=(1, 2)]" source_file="/home/mathis/repos/backward_ica/src/utils/misc.py" source_line=566}
  %broadcast.923 = pred[5,5,100]{2,1,0} broadcast(pred[5,5]{1,0} %compare.65), dimensions={0,1}, metadata={op_name="jit(_update)/jit(main)/broadcast_in_dim[shape=(100, 5, 5) broadcast_dimensions=(1, 2)]" source_file="/home/mathis/repos/backward_ica/src/utils/misc.py" source_line=573}
  %param_1.109 = f64[5,500]{0,1} parameter(1)
  %copy.782 = f64[5,500]{1,0} copy(f64[5,500]{0,1} %param_1.109), metadata={op_name="jit(_update)/jit(main)/triangular_solve[left_side=True lower=True transpose_a=True conjugate_a=False unit_diagonal=False]" source_file="/home/mathis/repos/backward_ica/src/utils/misc.py" source_line=573}
  %negate.127 = f64[5,500]{1,0} negate(f64[5,500]{1,0} %copy.782), metadata={op_name="jit(_update)/jit(main)/neg" source_file="/home/mathis/repos/backward_ica/src/utils/misc.py" source_line=573}
  %reshape.2075 = f64[5,5,100]{2,1,0} reshape(f64[5,500]{1,0} %negate.127), metadata={op_name="jit(_update)/jit(main)/neg" source_file="/home/mathis/repos/backward_ica/src/utils/misc.py" source_line=573}
  %constant.496 = f64[] constant(0)
  %broadcast.922 = f64[5,5,100]{2,1,0} broadcast(f64[] %constant.496), dimensions={}, metadata={op_name="jit(_update)/jit(main)/broadcast_in_dim[shape=(100, 5, 5) broadcast_dimensions=(1, 2)]" source_file="/home/mathis/repos/backward_ica/src/utils/misc.py" source_line=573}
  %select.78 = f64[5,5,100]{2,1,0} select(pred[5,5,100]{2,1,0} %broadcast.923, f64[5,5,100]{2,1,0} %reshape.2075, f64[5,5,100]{2,1,0} %broadcast.922), metadata={op_name="jit(_update)/jit(main)/select_n" source_file="/home/mathis/repos/backward_ica/src/utils/misc.py" source_line=573}
  %transpose.553 = f64[100,5,5]{0,2,1} transpose(f64[5,5,100]{2,1,0} %select.78), dimensions={2,0,1}, metadata={op_name="jit(_update)/jit(main)/select_n" source_file="/home/mathis/repos/backward_ica/src/utils/misc.py" source_line=573}
  %copy.781 = f64[100,5,5]{2,1,0} copy(f64[100,5,5]{0,2,1} %transpose.553), metadata={op_name="jit(_update)/jit(main)/select_n" source_file="/home/mathis/repos/backward_ica/src/utils/misc.py" source_line=573}
  %param_0.112 = f64[5,500]{0,1} parameter(0)
  %copy.780 = f64[5,500]{1,0} copy(f64[5,500]{0,1} %param_0.112), metadata={op_name="jit(_update)/jit(main)/triangular_solve[left_side=True lower=True transpose_a=False conjugate_a=False unit_diagonal=False]" source_file="/home/mathis/repos/backward_ica/src/utils/misc.py" source_line=573}
  %negate.126 = f64[5,500]{1,0} negate(f64[5,500]{1,0} %copy.780), metadata={op_name="jit(_update)/jit(main)/neg" source_file="/home/mathis/repos/backward_ica/src/utils/misc.py" source_line=573}
  %reshape.2074 = f64[5,5,100]{2,1,0} reshape(f64[5,500]{1,0} %negate.126), metadata={op_name="jit(_update)/jit(main)/neg" source_file="/home/mathis/repos/backward_ica/src/utils/misc.py" source_line=573}
  %transpose.552 = f64[100,5,5]{0,1,2} transpose(f64[5,5,100]{2,1,0} %reshape.2074), dimensions={2,1,0}, metadata={op_name="jit(_update)/jit(main)/neg" source_file="/home/mathis/repos/backward_ica/src/utils/misc.py" source_line=573}
  %copy.779 = f64[100,5,5]{2,1,0} copy(f64[100,5,5]{0,1,2} %transpose.552), metadata={op_name="jit(_update)/jit(main)/neg" source_file="/home/mathis/repos/backward_ica/src/utils/misc.py" source_line=573}
  %broadcast.920 = f64[100,5,5]{2,1,0} broadcast(f64[] %constant.496), dimensions={}, metadata={op_name="jit(_update)/jit(main)/broadcast_in_dim[shape=(100, 5, 5) broadcast_dimensions=(1, 2)]" source_file="/home/mathis/repos/backward_ica/src/utils/misc.py" source_line=573}
  %select.77 = f64[100,5,5]{2,1,0} select(pred[100,5,5]{2,1,0} %broadcast.924, f64[100,5,5]{2,1,0} %copy.779, f64[100,5,5]{2,1,0} %broadcast.920), metadata={op_name="jit(_update)/jit(main)/select_n" source_file="/home/mathis/repos/backward_ica/src/utils/misc.py" source_line=573}
  %add.126 = f64[100,5,5]{2,1,0} add(f64[100,5,5]{2,1,0} %copy.781, f64[100,5,5]{2,1,0} %select.77), metadata={op_name="jit(_update)/jit(main)/add_any" source_file="/home/mathis/repos/backward_ica/src/utils/misc.py" source_line=573}
  %select.76 = f64[100,5,5]{2,1,0} select(pred[100,5,5]{2,1,0} %broadcast.924, f64[100,5,5]{2,1,0} %add.126, f64[100,5,5]{2,1,0} %broadcast.920), metadata={op_name="jit(_update)/jit(main)/select_n" source_file="/home/mathis/repos/backward_ica/src/utils/misc.py" source_line=566}
  %transpose.551 = f64[100,5,5]{1,2,0} transpose(f64[100,5,5]{2,1,0} %select.76), dimensions={0,2,1}, metadata={op_name="jit(_update)/jit(main)/select_n" source_file="/home/mathis/repos/backward_ica/src/utils/misc.py" source_line=566}
  %copy.778 = f64[100,5,5]{2,1,0} copy(f64[100,5,5]{1,2,0} %transpose.551), metadata={op_name="jit(_update)/jit(main)/select_n" source_file="/home/mathis/repos/backward_ica/src/utils/misc.py" source_line=566}
  ROOT %reshape.2073 = f64[500,5]{1,0} reshape(f64[100,5,5]{2,1,0} %copy.778), metadata={op_name="jit(_update)/jit(main)/select_n" source_file="/home/mathis/repos/backward_ica/src/utils/misc.py" source_line=566}
}

%fused_computation.27 (param_0.117: f64[500,5]) -> f64[5,500] {
  %param_0.117 = f64[500,5]{1,0} parameter(0)
  %reshape.2077 = f64[100,5,5]{2,1,0} reshape(f64[500,5]{1,0} %param_0.117), metadata={op_name="jit(_update)/jit(main)/dot_general[dimension_numbers=(((2,), (1,)), ((), ())) precision=(<Precision.HIGHEST: 2>, <Precision.HIGHEST: 2>) preferred_element_type=None]" source_file="/home/mathis/repos/backward_ica/src/utils/misc.py" source_line=573}
  %transpose.554 = f64[5,5,100]{1,0,2} transpose(f64[100,5,5]{2,1,0} %reshape.2077), dimensions={1,2,0}, metadata={op_name="jit(_update)/jit(main)/transpose[permutation=(1, 2, 0)]" source_file="/home/mathis/repos/backward_ica/src/utils/misc.py" source_line=573}
  %copy.784 = f64[5,5,100]{2,1,0} copy(f64[5,5,100]{1,0,2} %transpose.554), metadata={op_name="jit(_update)/jit(main)/transpose[permutation=(1, 2, 0)]" source_file="/home/mathis/repos/backward_ica/src/utils/misc.py" source_line=573}
  %reshape.2076 = f64[5,500]{1,0} reshape(f64[5,5,100]{2,1,0} %copy.784), metadata={op_name="jit(_update)/jit(main)/reshape[new_sizes=(5, 500) dimensions=None]" source_file="/home/mathis/repos/backward_ica/src/utils/misc.py" source_line=573}
  ROOT %copy.783 = f64[5,500]{0,1} copy(f64[5,500]{1,0} %reshape.2076), metadata={op_name="jit(_update)/jit(main)/reshape[new_sizes=(5, 500) dimensions=None]" source_file="/home/mathis/repos/backward_ica/src/utils/misc.py" source_line=573}
}

%fused_computation.28 (param_0.124: f64[500,5]) -> f64[500,5] {
  %param_0.124 = f64[500,5]{0,1} parameter(0)
  %copy.787 = f64[500,5]{1,0} copy(f64[500,5]{0,1} %param_0.124), metadata={op_name="jit(_update)/jit(main)/triangular_solve[left_side=False lower=True transpose_a=False conjugate_a=False unit_diagonal=False]" source_file="/home/mathis/repos/backward_ica/src/stats/distributions.py" source_line=211}
  %constant.497 = f64[] constant(0.5)
  %broadcast.926 = f64[500,5]{1,0} broadcast(f64[] %constant.497), dimensions={}, metadata={op_name="jit(_update)/jit(main)/div" source_file="/home/mathis/repos/backward_ica/src/utils/misc.py" source_line=566}
  %multiply.193 = f64[500,5]{1,0} multiply(f64[500,5]{1,0} %copy.787, f64[500,5]{1,0} %broadcast.926), metadata={op_name="jit(_update)/jit(main)/div" source_file="/home/mathis/repos/backward_ica/src/stats/distributions.py" source_line=211}
  %reshape.2079 = f64[5,100,5]{2,1,0} reshape(f64[500,5]{1,0} %multiply.193), metadata={op_name="jit(_update)/jit(main)/div" source_file="/home/mathis/repos/backward_ica/src/stats/distributions.py" source_line=211}
  %transpose.556 = f64[100,5,5]{2,0,1} transpose(f64[5,100,5]{2,1,0} %reshape.2079), dimensions={1,0,2}, metadata={op_name="jit(_update)/jit(main)/transpose[permutation=(1, 0, 2)]" source_file="/home/mathis/repos/backward_ica/src/stats/distributions.py" source_line=211}
  %copy.786 = f64[100,5,5]{2,1,0} copy(f64[100,5,5]{2,0,1} %transpose.556), metadata={op_name="jit(_update)/jit(main)/transpose[permutation=(1, 0, 2)]" source_file="/home/mathis/repos/backward_ica/src/stats/distributions.py" source_line=211}
  %transpose.555 = f64[100,5,5]{1,0,2} transpose(f64[5,100,5]{2,1,0} %reshape.2079), dimensions={1,2,0}, metadata={op_name="jit(_update)/jit(main)/transpose[permutation=(1, 2, 0)]" source_file="/home/mathis/repos/backward_ica/src/stats/distributions.py" source_line=211}
  %copy.785 = f64[100,5,5]{2,1,0} copy(f64[100,5,5]{1,0,2} %transpose.555), metadata={op_name="jit(_update)/jit(main)/transpose[permutation=(1, 2, 0)]" source_file="/home/mathis/repos/backward_ica/src/stats/distributions.py" source_line=211}
  %add.127 = f64[100,5,5]{2,1,0} add(f64[100,5,5]{2,1,0} %copy.786, f64[100,5,5]{2,1,0} %copy.785), metadata={op_name="jit(_update)/jit(main)/add_any" source_file="/home/mathis/repos/backward_ica/src/stats/distributions.py" source_line=211}
  ROOT %reshape.2078 = f64[500,5]{1,0} reshape(f64[100,5,5]{2,1,0} %add.127), metadata={op_name="jit(_update)/jit(main)/add_any" source_file="/home/mathis/repos/backward_ica/src/stats/distributions.py" source_line=211}
}

%fused_computation.29 (param_0.129: f64[500,5]) -> f64[5,500] {
  %param_0.129 = f64[500,5]{1,0} parameter(0)
  %reshape.2081 = f64[5,100,5]{2,1,0} reshape(f64[500,5]{1,0} %param_0.129), metadata={op_name="jit(_update)/jit(main)/dot_general[dimension_numbers=(((1,), (1,)), ((), ())) precision=(<Precision.HIGHEST: 2>, <Precision.HIGHEST: 2>) preferred_element_type=None]" source_file="/home/mathis/repos/backward_ica/src/utils/misc.py" source_line=573}
  %transpose.557 = f64[5,5,100]{1,2,0} transpose(f64[5,100,5]{2,1,0} %reshape.2081), dimensions={0,2,1}, metadata={op_name="jit(_update)/jit(main)/transpose[permutation=(0, 2, 1)]" source_file="/home/mathis/repos/backward_ica/src/utils/misc.py" source_line=573}
  %copy.789 = f64[5,5,100]{2,1,0} copy(f64[5,5,100]{1,2,0} %transpose.557), metadata={op_name="jit(_update)/jit(main)/transpose[permutation=(0, 2, 1)]" source_file="/home/mathis/repos/backward_ica/src/utils/misc.py" source_line=573}
  %reshape.2080 = f64[5,500]{1,0} reshape(f64[5,5,100]{2,1,0} %copy.789), metadata={op_name="jit(_update)/jit(main)/reshape[new_sizes=(5, 500) dimensions=None]" source_file="/home/mathis/repos/backward_ica/src/utils/misc.py" source_line=573}
  ROOT %copy.788 = f64[5,500]{0,1} copy(f64[5,500]{1,0} %reshape.2080), metadata={op_name="jit(_update)/jit(main)/reshape[new_sizes=(5, 500) dimensions=None]" source_file="/home/mathis/repos/backward_ica/src/utils/misc.py" source_line=573}
}

%fused_computation.30 (param_0.134: f64[5,500]) -> f64[500,5] {
  %param_0.134 = f64[5,500]{0,1} parameter(0)
  %copy.791 = f64[5,500]{1,0} copy(f64[5,500]{0,1} %param_0.134), metadata={op_name="jit(_update)/jit(main)/triangular_solve[left_side=True lower=True transpose_a=False conjugate_a=False unit_diagonal=False]" source_file="/home/mathis/repos/backward_ica/src/utils/misc.py" source_line=573}
  %reshape.2083 = f64[5,5,100]{2,1,0} reshape(f64[5,500]{1,0} %copy.791), metadata={op_name="jit(_update)/jit(main)/reshape[new_sizes=(5, 5, 100) dimensions=None]" source_file="/home/mathis/repos/backward_ica/src/utils/misc.py" source_line=573}
  %transpose.558 = f64[5,100,5]{1,2,0} transpose(f64[5,5,100]{2,1,0} %reshape.2083), dimensions={0,2,1}, metadata={op_name="jit(_update)/jit(main)/reshape[new_sizes=(5, 5, 100) dimensions=None]" source_file="/home/mathis/repos/backward_ica/src/utils/misc.py" source_line=573}
  %copy.790 = f64[5,100,5]{2,1,0} copy(f64[5,100,5]{1,2,0} %transpose.558), metadata={op_name="jit(_update)/jit(main)/reshape[new_sizes=(5, 5, 100) dimensions=None]" source_file="/home/mathis/repos/backward_ica/src/utils/misc.py" source_line=573}
  ROOT %reshape.2082 = f64[500,5]{1,0} reshape(f64[5,100,5]{2,1,0} %copy.790), metadata={op_name="jit(_update)/jit(main)/reshape[new_sizes=(5, 5, 100) dimensions=None]" source_file="/home/mathis/repos/backward_ica/src/utils/misc.py" source_line=573}
}

%fused_computation.31 (param_0.144: f64[500,5]) -> f64[5,500] {
  %param_0.144 = f64[500,5]{0,1} parameter(0)
  %copy.796 = f64[500,5]{1,0} copy(f64[500,5]{0,1} %param_0.144), metadata={op_name="jit(_update)/jit(main)/triangular_solve[left_side=False lower=True transpose_a=False conjugate_a=False unit_diagonal=False]" source_file="/home/mathis/repos/backward_ica/src/stats/distributions.py" source_line=211}
  %constant.498 = f64[] constant(0.5)
  %broadcast.928 = f64[500,5]{1,0} broadcast(f64[] %constant.498), dimensions={}, metadata={op_name="jit(_update)/jit(main)/div" source_file="/home/mathis/repos/backward_ica/src/utils/misc.py" source_line=566}
  %multiply.194 = f64[500,5]{1,0} multiply(f64[500,5]{1,0} %copy.796, f64[500,5]{1,0} %broadcast.928), metadata={op_name="jit(_update)/jit(main)/div" source_file="/home/mathis/repos/backward_ica/src/stats/distributions.py" source_line=211}
  %reshape.2085 = f64[5,100,5]{2,1,0} reshape(f64[500,5]{1,0} %multiply.194), metadata={op_name="jit(_update)/jit(main)/div" source_file="/home/mathis/repos/backward_ica/src/stats/distributions.py" source_line=211}
  %transpose.561 = f64[100,5,5]{2,0,1} transpose(f64[5,100,5]{2,1,0} %reshape.2085), dimensions={1,0,2}, metadata={op_name="jit(_update)/jit(main)/transpose[permutation=(1, 0, 2)]" source_file="/home/mathis/repos/backward_ica/src/stats/distributions.py" source_line=211}
  %copy.795 = f64[100,5,5]{2,1,0} copy(f64[100,5,5]{2,0,1} %transpose.561), metadata={op_name="jit(_update)/jit(main)/transpose[permutation=(1, 0, 2)]" source_file="/home/mathis/repos/backward_ica/src/stats/distributions.py" source_line=211}
  %transpose.560 = f64[100,5,5]{1,0,2} transpose(f64[5,100,5]{2,1,0} %reshape.2085), dimensions={1,2,0}, metadata={op_name="jit(_update)/jit(main)/transpose[permutation=(1, 2, 0)]" source_file="/home/mathis/repos/backward_ica/src/stats/distributions.py" source_line=211}
  %copy.794 = f64[100,5,5]{2,1,0} copy(f64[100,5,5]{1,0,2} %transpose.560), metadata={op_name="jit(_update)/jit(main)/transpose[permutation=(1, 2, 0)]" source_file="/home/mathis/repos/backward_ica/src/stats/distributions.py" source_line=211}
  %add.128 = f64[100,5,5]{2,1,0} add(f64[100,5,5]{2,1,0} %copy.795, f64[100,5,5]{2,1,0} %copy.794), metadata={op_name="jit(_update)/jit(main)/add_any" source_file="/home/mathis/repos/backward_ica/src/stats/distributions.py" source_line=211}
  %transpose.559 = f64[5,5,100]{1,0,2} transpose(f64[100,5,5]{2,1,0} %add.128), dimensions={1,2,0}, metadata={op_name="jit(_update)/jit(main)/transpose[permutation=(1, 2, 0)]" source_file="/home/mathis/repos/backward_ica/src/utils/misc.py" source_line=573}
  %copy.793 = f64[5,5,100]{2,1,0} copy(f64[5,5,100]{1,0,2} %transpose.559), metadata={op_name="jit(_update)/jit(main)/transpose[permutation=(1, 2, 0)]" source_file="/home/mathis/repos/backward_ica/src/utils/misc.py" source_line=573}
  %reshape.2084 = f64[5,500]{1,0} reshape(f64[5,5,100]{2,1,0} %copy.793), metadata={op_name="jit(_update)/jit(main)/reshape[new_sizes=(5, 500) dimensions=None]" source_file="/home/mathis/repos/backward_ica/src/utils/misc.py" source_line=573}
  ROOT %copy.792 = f64[5,500]{0,1} copy(f64[5,500]{1,0} %reshape.2084), metadata={op_name="jit(_update)/jit(main)/reshape[new_sizes=(5, 500) dimensions=None]" source_file="/home/mathis/repos/backward_ica/src/utils/misc.py" source_line=573}
}

%fused_computation.32 (param_0.150: f64[5,500]) -> f64[500,5] {
  %param_0.150 = f64[5,500]{0,1} parameter(0)
  %copy.799 = f64[5,500]{1,0} copy(f64[5,500]{0,1} %param_0.150), metadata={op_name="jit(_update)/jit(main)/triangular_solve[left_side=True lower=True transpose_a=True conjugate_a=False unit_diagonal=False]" source_file="/home/mathis/repos/backward_ica/src/stats/distributions.py" source_line=211}
  %reshape.2087 = f64[5,5,100]{2,1,0} reshape(f64[5,500]{1,0} %copy.799), metadata={op_name="jit(_update)/jit(main)/reshape[new_sizes=(5, 5, 100) dimensions=None]" source_file="/home/mathis/repos/backward_ica/src/stats/distributions.py" source_line=211}
  %transpose.562 = f64[5,100,5]{1,2,0} transpose(f64[5,5,100]{2,1,0} %reshape.2087), dimensions={0,2,1}, metadata={op_name="jit(_update)/jit(main)/transpose[permutation=(0, 2, 1)]" source_file="/home/mathis/repos/backward_ica/src/stats/distributions.py" source_line=211}
  %copy.798 = f64[5,100,5]{2,1,0} copy(f64[5,100,5]{1,2,0} %transpose.562), metadata={op_name="jit(_update)/jit(main)/transpose[permutation=(0, 2, 1)]" source_file="/home/mathis/repos/backward_ica/src/stats/distributions.py" source_line=211}
  %reshape.2086 = f64[500,5]{1,0} reshape(f64[5,100,5]{2,1,0} %copy.798), metadata={op_name="jit(_update)/jit(main)/reshape[new_sizes=(500, 5) dimensions=None]" source_file="/home/mathis/repos/backward_ica/src/stats/distributions.py" source_line=211}
  ROOT %copy.797 = f64[500,5]{0,1} copy(f64[500,5]{1,0} %reshape.2086), metadata={op_name="jit(_update)/jit(main)/reshape[new_sizes=(500, 5) dimensions=None]" source_file="/home/mathis/repos/backward_ica/src/stats/distributions.py" source_line=211}
}

%fused_computation.33 (param_0.156: f64[500,5]) -> f64[5,500] {
  %iota.366 = s32[5,5]{1,0} iota(), iota_dimension=0, metadata={op_name="jit(_update)/jit(main)/iota[dtype=int32 shape=(5, 5) dimension=0]" source_file="/home/mathis/repos/backward_ica/src/utils/misc.py" source_line=566}
  %iota.365 = s32[5,5]{1,0} iota(), iota_dimension=1, metadata={op_name="jit(_update)/jit(main)/iota[dtype=int32 shape=(5, 5) dimension=1]" source_file="/home/mathis/repos/backward_ica/src/utils/misc.py" source_line=566}
  %compare.67 = pred[5,5]{1,0} compare(s32[5,5]{1,0} %iota.366, s32[5,5]{1,0} %iota.365), direction=GE, metadata={op_name="jit(_update)/jit(main)/ge" source_file="/home/mathis/repos/backward_ica/src/utils/misc.py" source_line=566}
  %broadcast.931 = pred[100,5,5]{2,1,0} broadcast(pred[5,5]{1,0} %compare.67), dimensions={1,2}, metadata={op_name="jit(_update)/jit(main)/broadcast_in_dim[shape=(100, 5, 5) broadcast_dimensions=(1, 2)]" source_file="/home/mathis/repos/backward_ica/src/utils/misc.py" source_line=566}
  %param_0.156 = f64[500,5]{1,0} parameter(0)
  %reshape.2089 = f64[100,5,5]{2,1,0} reshape(f64[500,5]{1,0} %param_0.156), metadata={op_name="jit(_update)/jit(main)/dot_general[dimension_numbers=(((1,), (0,)), ((), ())) precision=(<Precision.HIGHEST: 2>, <Precision.HIGHEST: 2>) preferred_element_type=None]" source_file="/home/mathis/repos/backward_ica/src/stats/distributions.py" source_line=211}
  %transpose.564 = f64[100,5,5]{1,2,0} transpose(f64[100,5,5]{2,1,0} %reshape.2089), dimensions={0,2,1}, metadata={op_name="jit(_update)/jit(main)/transpose[permutation=(0, 2, 1)]" source_file="/home/mathis/repos/backward_ica/src/stats/distributions.py" source_line=211}
  %copy.802 = f64[100,5,5]{2,1,0} copy(f64[100,5,5]{1,2,0} %transpose.564), metadata={op_name="jit(_update)/jit(main)/transpose[permutation=(0, 2, 1)]" source_file="/home/mathis/repos/backward_ica/src/stats/distributions.py" source_line=211}
  %iota.364 = s32[5,5]{1,0} iota(), iota_dimension=0, metadata={op_name="jit(_update)/jit(main)/iota[dtype=int32 shape=(5, 5) dimension=0]" source_file="/home/mathis/repos/backward_ica/src/utils/misc.py" source_line=77}
  %iota.363 = s32[5,5]{1,0} iota(), iota_dimension=1, metadata={op_name="jit(_update)/jit(main)/iota[dtype=int32 shape=(5, 5) dimension=1]" source_file="/home/mathis/repos/backward_ica/src/utils/misc.py" source_line=77}
  %compare.66 = pred[5,5]{1,0} compare(s32[5,5]{1,0} %iota.364, s32[5,5]{1,0} %iota.363), direction=EQ, metadata={op_name="jit(_update)/jit(main)/eq" source_file="/home/mathis/repos/backward_ica/src/utils/misc.py" source_line=77}
  %convert.2 = f64[5,5]{1,0} convert(pred[5,5]{1,0} %compare.66), metadata={op_name="jit(_update)/jit(main)/convert_element_type[new_dtype=float64 weak_type=False]" source_file="/home/mathis/repos/backward_ica/src/utils/misc.py" source_line=571}
  %constant.500 = f64[] constant(1)
  %broadcast.932 = f64[5,5]{1,0} broadcast(f64[] %constant.500), dimensions={}
  %add.129 = f64[5,5]{1,0} add(f64[5,5]{1,0} %convert.2, f64[5,5]{1,0} %broadcast.932), metadata={op_name="jit(_update)/jit(main)/add" source_file="/home/mathis/repos/backward_ica/src/utils/misc.py" source_line=557}
  %broadcast.929 = f64[100,5,5]{2,1,0} broadcast(f64[5,5]{1,0} %add.129), dimensions={1,2}, metadata={op_name="jit(_update)/jit(main)/div" source_file="/home/mathis/repos/backward_ica/src/utils/misc.py" source_line=566}
  %divide.2 = f64[100,5,5]{2,1,0} divide(f64[100,5,5]{2,1,0} %copy.802, f64[100,5,5]{2,1,0} %broadcast.929), metadata={op_name="jit(_update)/jit(main)/div" source_file="/home/mathis/repos/backward_ica/src/stats/distributions.py" source_line=211}
  %constant.499 = f64[] constant(0)
  %broadcast.930 = f64[100,5,5]{2,1,0} broadcast(f64[] %constant.499), dimensions={}, metadata={op_name="jit(_update)/jit(main)/broadcast_in_dim[shape=(100, 5, 5) broadcast_dimensions=(1, 2)]" source_file="/home/mathis/repos/backward_ica/src/utils/misc.py" source_line=573}
  %select.79 = f64[100,5,5]{2,1,0} select(pred[100,5,5]{2,1,0} %broadcast.931, f64[100,5,5]{2,1,0} %divide.2, f64[100,5,5]{2,1,0} %broadcast.930), metadata={op_name="jit(_update)/jit(main)/select_n" source_file="/home/mathis/repos/backward_ica/src/stats/distributions.py" source_line=211}
  %transpose.563 = f64[5,5,100]{1,0,2} transpose(f64[100,5,5]{2,1,0} %select.79), dimensions={1,2,0}, metadata={op_name="jit(_update)/jit(main)/transpose[permutation=(1, 2, 0)]" source_file="/home/mathis/repos/backward_ica/src/stats/distributions.py" source_line=211}
  %copy.801 = f64[5,5,100]{2,1,0} copy(f64[5,5,100]{1,0,2} %transpose.563), metadata={op_name="jit(_update)/jit(main)/transpose[permutation=(1, 2, 0)]" source_file="/home/mathis/repos/backward_ica/src/stats/distributions.py" source_line=211}
  %reshape.2088 = f64[5,500]{1,0} reshape(f64[5,5,100]{2,1,0} %copy.801), metadata={op_name="jit(_update)/jit(main)/reshape[new_sizes=(5, 500) dimensions=None]" source_file="/home/mathis/repos/backward_ica/src/stats/distributions.py" source_line=211}
  ROOT %copy.800 = f64[5,500]{0,1} copy(f64[5,500]{1,0} %reshape.2088), metadata={op_name="jit(_update)/jit(main)/reshape[new_sizes=(5, 500) dimensions=None]" source_file="/home/mathis/repos/backward_ica/src/stats/distributions.py" source_line=211}
}

%fused_computation.34 (param_0.161: f64[100,5], param_1.134: f64[5,5], param_2.115: f64[100,5]) -> f64[500,5] {
  %iota.368 = s32[5,5]{1,0} iota(), iota_dimension=0, metadata={op_name="jit(_update)/jit(main)/iota[dtype=int32 shape=(5, 5) dimension=0]" source_file="/home/mathis/repos/backward_ica/src/utils/misc.py" source_line=566}
  %iota.367 = s32[5,5]{1,0} iota(), iota_dimension=1, metadata={op_name="jit(_update)/jit(main)/iota[dtype=int32 shape=(5, 5) dimension=1]" source_file="/home/mathis/repos/backward_ica/src/utils/misc.py" source_line=566}
  %compare.68 = pred[5,5]{1,0} compare(s32[5,5]{1,0} %iota.368, s32[5,5]{1,0} %iota.367), direction=GE, metadata={op_name="jit(_update)/jit(main)/ge" source_file="/home/mathis/repos/backward_ica/src/utils/misc.py" source_line=566}
  %broadcast.937 = pred[100,5,5]{2,1,0} broadcast(pred[5,5]{1,0} %compare.68), dimensions={1,2}, metadata={op_name="jit(_update)/jit(main)/broadcast_in_dim[shape=(100, 5, 5) broadcast_dimensions=(1, 2)]" source_file="/home/mathis/repos/backward_ica/src/utils/misc.py" source_line=566}
  %param_1.134 = f64[5,5]{1,0} parameter(1)
  %transpose.566 = f64[5,5]{0,1} transpose(f64[5,5]{1,0} %param_1.134), dimensions={1,0}, metadata={op_name="jit(_update)/jit(main)/transpose[permutation=(1, 0)]" source_file="/home/mathis/repos/backward_ica/src/stats/distributions.py" source_line=211}
  %copy.805 = f64[5,5]{1,0} copy(f64[5,5]{0,1} %transpose.566), metadata={op_name="jit(_update)/jit(main)/transpose[permutation=(1, 0)]" source_file="/home/mathis/repos/backward_ica/src/stats/distributions.py" source_line=211}
  %broadcast.934 = f64[100,5,5]{2,1,0} broadcast(f64[5,5]{1,0} %copy.805), dimensions={1,2}, metadata={op_name="jit(_update)/jit(main)/broadcast_in_dim[shape=(100, 5, 5) broadcast_dimensions=(1, 2)]" source_file="/home/mathis/repos/backward_ica/src/stats/distributions.py" source_line=211}
  %param_2.115 = f64[100,5]{0,1} parameter(2)
  %copy.806 = f64[100,5]{1,0} copy(f64[100,5]{0,1} %param_2.115), metadata={op_name="jit(_update)/jit(main)/triangular_solve[left_side=False lower=True transpose_a=False conjugate_a=False unit_diagonal=False]" source_file="/home/mathis/repos/backward_ica/src/stats/distributions.py" source_line=211}
  %broadcast.935 = f64[100,5,5]{2,1,0} broadcast(f64[100,5]{1,0} %copy.806), dimensions={0,1}, metadata={op_name="jit(_update)/jit(main)/dot_general[dimension_numbers=(((), ()), ((0,), (0,))) precision=None preferred_element_type=None]" source_file="/home/mathis/repos/backward_ica/src/stats/distributions.py" source_line=207}
  %param_0.161 = f64[100,5]{0,1} parameter(0)
  %copy.804 = f64[100,5]{1,0} copy(f64[100,5]{0,1} %param_0.161), metadata={op_name="jit(_update)/jit(main)/triangular_solve[left_side=False lower=True transpose_a=True conjugate_a=False unit_diagonal=False]" source_file="/home/mathis/repos/backward_ica/src/stats/distributions.py" source_line=211}
  %broadcast.933 = f64[100,5,5]{2,1,0} broadcast(f64[100,5]{1,0} %copy.804), dimensions={0,2}, metadata={op_name="jit(_update)/jit(main)/dot_general[dimension_numbers=(((0,), (0,)), ((1,), (1,))) precision=(<Precision.HIGHEST: 2>, <Precision.HIGHEST: 2>) preferred_element_type=None]" source_file="/home/mathis/repos/backward_ica/src/stats/distributions.py" source_line=211}
  %multiply.195 = f64[100,5,5]{2,1,0} multiply(f64[100,5,5]{2,1,0} %broadcast.935, f64[100,5,5]{2,1,0} %broadcast.933), metadata={op_name="jit(_update)/jit(main)/dot_general[dimension_numbers=(((0,), (0,)), ((1,), (1,))) precision=(<Precision.HIGHEST: 2>, <Precision.HIGHEST: 2>) preferred_element_type=None]" source_file="/home/mathis/repos/backward_ica/src/stats/distributions.py" source_line=211}
  %negate.128 = f64[100,5,5]{2,1,0} negate(f64[100,5,5]{2,1,0} %multiply.195), metadata={op_name="jit(_update)/jit(main)/neg" source_file="/home/mathis/repos/backward_ica/src/stats/distributions.py" source_line=211}
  %constant.501 = f64[] constant(0)
  %broadcast.936 = f64[100,5,5]{2,1,0} broadcast(f64[] %constant.501), dimensions={}, metadata={op_name="jit(_update)/jit(main)/broadcast_in_dim[shape=(100, 5, 5) broadcast_dimensions=(1, 2)]" source_file="/home/mathis/repos/backward_ica/src/utils/misc.py" source_line=573}
  %select.81 = f64[100,5,5]{2,1,0} select(pred[100,5,5]{2,1,0} %broadcast.937, f64[100,5,5]{2,1,0} %negate.128, f64[100,5,5]{2,1,0} %broadcast.936), metadata={op_name="jit(_update)/jit(main)/select_n" source_file="/home/mathis/repos/backward_ica/src/stats/distributions.py" source_line=211}
  %add.130 = f64[100,5,5]{2,1,0} add(f64[100,5,5]{2,1,0} %broadcast.934, f64[100,5,5]{2,1,0} %select.81), metadata={op_name="jit(_update)/jit(main)/add_any" source_file="/home/mathis/repos/backward_ica/src/stats/distributions.py" source_line=211}
  %select.80 = f64[100,5,5]{2,1,0} select(pred[100,5,5]{2,1,0} %broadcast.937, f64[100,5,5]{2,1,0} %add.130, f64[100,5,5]{2,1,0} %broadcast.936), metadata={op_name="jit(_update)/jit(main)/select_n" source_file="/home/mathis/repos/backward_ica/src/stats/distributions.py" source_line=211}
  %transpose.565 = f64[100,5,5]{1,2,0} transpose(f64[100,5,5]{2,1,0} %select.80), dimensions={0,2,1}, metadata={op_name="jit(_update)/jit(main)/select_n" source_file="/home/mathis/repos/backward_ica/src/stats/distributions.py" source_line=211}
  %copy.803 = f64[100,5,5]{2,1,0} copy(f64[100,5,5]{1,2,0} %transpose.565), metadata={op_name="jit(_update)/jit(main)/select_n" source_file="/home/mathis/repos/backward_ica/src/stats/distributions.py" source_line=211}
  ROOT %reshape.2090 = f64[500,5]{1,0} reshape(f64[100,5,5]{2,1,0} %copy.803), metadata={op_name="jit(_update)/jit(main)/select_n" source_file="/home/mathis/repos/backward_ica/src/stats/distributions.py" source_line=211}
}

%fused_computation.35 (param_0.163: f64[5]) -> f64[5] {
  %constant.502 = f64[] constant(-1)
  %broadcast.938 = f64[5]{0} broadcast(f64[] %constant.502), dimensions={}
  %param_0.163 = f64[5]{0} parameter(0)
  ROOT %divide.3 = f64[5]{0} divide(f64[5]{0} %broadcast.938, f64[5]{0} %param_0.163), metadata={op_name="jit(_update)/jit(main)/div" source_file="/home/mathis/repos/backward_ica/src/stats/distributions.py" source_line=211}
}

%fused_computation.36 (param_0.165: s32[5,2], param_1.141: f64[5,5]) -> f64[5] {
  %iota.370 = s32[5,5]{1,0} iota(), iota_dimension=0, metadata={op_name="jit(_update)/jit(main)/iota[dtype=int32 shape=(5, 5) dimension=0]" source_file="/home/mathis/repos/backward_ica/src/utils/misc.py" source_line=566}
  %iota.369 = s32[5,5]{1,0} iota(), iota_dimension=1, metadata={op_name="jit(_update)/jit(main)/iota[dtype=int32 shape=(5, 5) dimension=1]" source_file="/home/mathis/repos/backward_ica/src/utils/misc.py" source_line=566}
  %compare.69 = pred[5,5]{1,0} compare(s32[5,5]{1,0} %iota.370, s32[5,5]{1,0} %iota.369), direction=GE, metadata={op_name="jit(_update)/jit(main)/ge" source_file="/home/mathis/repos/backward_ica/src/utils/misc.py" source_line=566}
  %param_1.141 = f64[5,5]{1,0} parameter(1)
  %constant.503 = f64[] constant(0)
  %broadcast.940 = f64[5,5]{1,0} broadcast(f64[] %constant.503), dimensions={}
  %select.82 = f64[5,5]{1,0} select(pred[5,5]{1,0} %compare.69, f64[5,5]{1,0} %param_1.141, f64[5,5]{1,0} %broadcast.940), metadata={op_name="jit(_update)/jit(main)/select_n" source_file="/home/mathis/repos/backward_ica/src/stats/distributions.py" source_line=211}
  %transpose.567 = f64[5,5]{0,1} transpose(f64[5,5]{1,0} %select.82), dimensions={1,0}, metadata={op_name="jit(_update)/jit(main)/transpose[permutation=(1, 0)]" source_file="/home/mathis/repos/backward_ica/src/stats/distributions.py" source_line=211}
  %copy.807 = f64[5,5]{1,0} copy(f64[5,5]{0,1} %transpose.567), metadata={op_name="jit(_update)/jit(main)/transpose[permutation=(1, 0)]" source_file="/home/mathis/repos/backward_ica/src/stats/distributions.py" source_line=211}
  %param_0.165 = s32[5,2]{1,0} parameter(0)
  ROOT %gather.0 = f64[5]{0} gather(f64[5,5]{1,0} %copy.807, s32[5,2]{1,0} %param_0.165), offset_dims={}, collapsed_slice_dims={0,1}, start_index_map={0,1}, index_vector_dim=1, slice_sizes={1,1}, metadata={op_name="jit(_update)/jit(main)/gather[dimension_numbers=GatherDimensionNumbers(offset_dims=(), collapsed_slice_dims=(0, 1), start_index_map=(0, 1)) slice_sizes=(1, 1) unique_indices=False indices_are_sorted=False mode=GatherScatterMode.PROMISE_IN_BOUNDS fill_value=None]" source_file="/home/mathis/repos/backward_ica/src/stats/distributions.py" source_line=211}
}

%fused_computation.37 (param_0.171: f64[5,500]) -> f64[500,5] {
  %param_0.171 = f64[5,500]{0,1} parameter(0)
  %copy.810 = f64[5,500]{1,0} copy(f64[5,500]{0,1} %param_0.171), metadata={op_name="jit(_update)/jit(main)/triangular_solve[left_side=True lower=True transpose_a=True conjugate_a=False unit_diagonal=False]" source_file="/home/mathis/repos/backward_ica/src/utils/misc.py" source_line=566}
  %reshape.2092 = f64[5,5,100]{2,1,0} reshape(f64[5,500]{1,0} %copy.810), metadata={op_name="jit(_update)/jit(main)/reshape[new_sizes=(5, 5, 100) dimensions=None]" source_file="/home/mathis/repos/backward_ica/src/utils/misc.py" source_line=566}
  %transpose.568 = f64[5,100,5]{1,2,0} transpose(f64[5,5,100]{2,1,0} %reshape.2092), dimensions={0,2,1}, metadata={op_name="jit(_update)/jit(main)/transpose[permutation=(0, 2, 1)]" source_file="/home/mathis/repos/backward_ica/src/utils/misc.py" source_line=566}
  %copy.809 = f64[5,100,5]{2,1,0} copy(f64[5,100,5]{1,2,0} %transpose.568), metadata={op_name="jit(_update)/jit(main)/transpose[permutation=(0, 2, 1)]" source_file="/home/mathis/repos/backward_ica/src/utils/misc.py" source_line=566}
  %reshape.2091 = f64[500,5]{1,0} reshape(f64[5,100,5]{2,1,0} %copy.809), metadata={op_name="jit(_update)/jit(main)/reshape[new_sizes=(500, 5) dimensions=None]" source_file="/home/mathis/repos/backward_ica/src/utils/misc.py" source_line=566}
  ROOT %copy.808 = f64[500,5]{0,1} copy(f64[500,5]{1,0} %reshape.2091), metadata={op_name="jit(_update)/jit(main)/reshape[new_sizes=(500, 5) dimensions=None]" source_file="/home/mathis/repos/backward_ica/src/utils/misc.py" source_line=566}
}

%fused_computation.38 (param_0.177: f64[500,5]) -> f64[5,500] {
  %iota.374 = s32[5,5]{1,0} iota(), iota_dimension=0, metadata={op_name="jit(_update)/jit(main)/iota[dtype=int32 shape=(5, 5) dimension=0]" source_file="/home/mathis/repos/backward_ica/src/utils/misc.py" source_line=566}
  %iota.373 = s32[5,5]{1,0} iota(), iota_dimension=1, metadata={op_name="jit(_update)/jit(main)/iota[dtype=int32 shape=(5, 5) dimension=1]" source_file="/home/mathis/repos/backward_ica/src/utils/misc.py" source_line=566}
  %compare.71 = pred[5,5]{1,0} compare(s32[5,5]{1,0} %iota.374, s32[5,5]{1,0} %iota.373), direction=GE, metadata={op_name="jit(_update)/jit(main)/ge" source_file="/home/mathis/repos/backward_ica/src/utils/misc.py" source_line=566}
  %broadcast.945 = pred[100,5,5]{2,1,0} broadcast(pred[5,5]{1,0} %compare.71), dimensions={1,2}, metadata={op_name="jit(_update)/jit(main)/broadcast_in_dim[shape=(100, 5, 5) broadcast_dimensions=(1, 2)]" source_file="/home/mathis/repos/backward_ica/src/utils/misc.py" source_line=566}
  %param_0.177 = f64[500,5]{1,0} parameter(0)
  %reshape.2094 = f64[100,5,5]{2,1,0} reshape(f64[500,5]{1,0} %param_0.177), metadata={op_name="jit(_update)/jit(main)/dot_general[dimension_numbers=(((1,), (0,)), ((), ())) precision=(<Precision.HIGHEST: 2>, <Precision.HIGHEST: 2>) preferred_element_type=None]" source_file="/home/mathis/repos/backward_ica/src/utils/misc.py" source_line=566}
  %transpose.570 = f64[100,5,5]{1,2,0} transpose(f64[100,5,5]{2,1,0} %reshape.2094), dimensions={0,2,1}, metadata={op_name="jit(_update)/jit(main)/transpose[permutation=(0, 2, 1)]" source_file="/home/mathis/repos/backward_ica/src/utils/misc.py" source_line=566}
  %copy.813 = f64[100,5,5]{2,1,0} copy(f64[100,5,5]{1,2,0} %transpose.570), metadata={op_name="jit(_update)/jit(main)/transpose[permutation=(0, 2, 1)]" source_file="/home/mathis/repos/backward_ica/src/utils/misc.py" source_line=566}
  %iota.372 = s32[5,5]{1,0} iota(), iota_dimension=0, metadata={op_name="jit(_update)/jit(main)/iota[dtype=int32 shape=(5, 5) dimension=0]" source_file="/home/mathis/repos/backward_ica/src/utils/misc.py" source_line=77}
  %iota.371 = s32[5,5]{1,0} iota(), iota_dimension=1, metadata={op_name="jit(_update)/jit(main)/iota[dtype=int32 shape=(5, 5) dimension=1]" source_file="/home/mathis/repos/backward_ica/src/utils/misc.py" source_line=77}
  %compare.70 = pred[5,5]{1,0} compare(s32[5,5]{1,0} %iota.372, s32[5,5]{1,0} %iota.371), direction=EQ, metadata={op_name="jit(_update)/jit(main)/eq" source_file="/home/mathis/repos/backward_ica/src/utils/misc.py" source_line=77}
  %convert.3 = f64[5,5]{1,0} convert(pred[5,5]{1,0} %compare.70), metadata={op_name="jit(_update)/jit(main)/convert_element_type[new_dtype=float64 weak_type=False]" source_file="/home/mathis/repos/backward_ica/src/utils/misc.py" source_line=571}
  %constant.505 = f64[] constant(1)
  %broadcast.947 = f64[5,5]{1,0} broadcast(f64[] %constant.505), dimensions={}
  %add.131 = f64[5,5]{1,0} add(f64[5,5]{1,0} %convert.3, f64[5,5]{1,0} %broadcast.947), metadata={op_name="jit(_update)/jit(main)/add" source_file="/home/mathis/repos/backward_ica/src/utils/misc.py" source_line=557}
  %broadcast.942 = f64[100,5,5]{2,1,0} broadcast(f64[5,5]{1,0} %add.131), dimensions={1,2}, metadata={op_name="jit(_update)/jit(main)/div" source_file="/home/mathis/repos/backward_ica/src/utils/misc.py" source_line=566}
  %divide.4 = f64[100,5,5]{2,1,0} divide(f64[100,5,5]{2,1,0} %copy.813, f64[100,5,5]{2,1,0} %broadcast.942), metadata={op_name="jit(_update)/jit(main)/div" source_file="/home/mathis/repos/backward_ica/src/utils/misc.py" source_line=566}
  %constant.504 = f64[] constant(0)
  %broadcast.943 = f64[100,5,5]{2,1,0} broadcast(f64[] %constant.504), dimensions={}, metadata={op_name="jit(_update)/jit(main)/broadcast_in_dim[shape=(100, 5, 5) broadcast_dimensions=(1, 2)]" source_file="/home/mathis/repos/backward_ica/src/utils/misc.py" source_line=573}
  %select.83 = f64[100,5,5]{2,1,0} select(pred[100,5,5]{2,1,0} %broadcast.945, f64[100,5,5]{2,1,0} %divide.4, f64[100,5,5]{2,1,0} %broadcast.943), metadata={op_name="jit(_update)/jit(main)/select_n" source_file="/home/mathis/repos/backward_ica/src/utils/misc.py" source_line=566}
  %transpose.569 = f64[5,5,100]{1,0,2} transpose(f64[100,5,5]{2,1,0} %select.83), dimensions={1,2,0}, metadata={op_name="jit(_update)/jit(main)/transpose[permutation=(1, 2, 0)]" source_file="/home/mathis/repos/backward_ica/src/utils/misc.py" source_line=566}
  %copy.812 = f64[5,5,100]{2,1,0} copy(f64[5,5,100]{1,0,2} %transpose.569), metadata={op_name="jit(_update)/jit(main)/transpose[permutation=(1, 2, 0)]" source_file="/home/mathis/repos/backward_ica/src/utils/misc.py" source_line=566}
  %reshape.2093 = f64[5,500]{1,0} reshape(f64[5,5,100]{2,1,0} %copy.812), metadata={op_name="jit(_update)/jit(main)/reshape[new_sizes=(5, 500) dimensions=None]" source_file="/home/mathis/repos/backward_ica/src/utils/misc.py" source_line=566}
  ROOT %copy.811 = f64[5,500]{0,1} copy(f64[5,500]{1,0} %reshape.2093), metadata={op_name="jit(_update)/jit(main)/reshape[new_sizes=(5, 500) dimensions=None]" source_file="/home/mathis/repos/backward_ica/src/utils/misc.py" source_line=566}
}

%fused_computation.39 (param_0.182: f64[5,500], param_1.152: f64[5,500]) -> f64[500,5] {
  %iota.376 = s32[5,5]{1,0} iota(), iota_dimension=0, metadata={op_name="jit(_update)/jit(main)/iota[dtype=int32 shape=(5, 5) dimension=0]" source_file="/home/mathis/repos/backward_ica/src/utils/misc.py" source_line=566}
  %iota.375 = s32[5,5]{1,0} iota(), iota_dimension=1, metadata={op_name="jit(_update)/jit(main)/iota[dtype=int32 shape=(5, 5) dimension=1]" source_file="/home/mathis/repos/backward_ica/src/utils/misc.py" source_line=566}
  %compare.72 = pred[5,5]{1,0} compare(s32[5,5]{1,0} %iota.376, s32[5,5]{1,0} %iota.375), direction=GE, metadata={op_name="jit(_update)/jit(main)/ge" source_file="/home/mathis/repos/backward_ica/src/utils/misc.py" source_line=566}
  %broadcast.953 = pred[100,5,5]{2,1,0} broadcast(pred[5,5]{1,0} %compare.72), dimensions={1,2}, metadata={op_name="jit(_update)/jit(main)/broadcast_in_dim[shape=(100, 5, 5) broadcast_dimensions=(1, 2)]" source_file="/home/mathis/repos/backward_ica/src/utils/misc.py" source_line=566}
  %broadcast.951 = pred[5,5,100]{2,1,0} broadcast(pred[5,5]{1,0} %compare.72), dimensions={0,1}, metadata={op_name="jit(_update)/jit(main)/broadcast_in_dim[shape=(100, 5, 5) broadcast_dimensions=(1, 2)]" source_file="/home/mathis/repos/backward_ica/src/utils/misc.py" source_line=573}
  %param_1.152 = f64[5,500]{0,1} parameter(1)
  %copy.818 = f64[5,500]{1,0} copy(f64[5,500]{0,1} %param_1.152), metadata={op_name="jit(_update)/jit(main)/triangular_solve[left_side=True lower=True transpose_a=True conjugate_a=False unit_diagonal=False]" source_file="/home/mathis/repos/backward_ica/src/utils/misc.py" source_line=573}
  %negate.130 = f64[5,500]{1,0} negate(f64[5,500]{1,0} %copy.818), metadata={op_name="jit(_update)/jit(main)/neg" source_file="/home/mathis/repos/backward_ica/src/utils/misc.py" source_line=573}
  %reshape.2097 = f64[5,5,100]{2,1,0} reshape(f64[5,500]{1,0} %negate.130), metadata={op_name="jit(_update)/jit(main)/neg" source_file="/home/mathis/repos/backward_ica/src/utils/misc.py" source_line=573}
  %constant.506 = f64[] constant(0)
  %broadcast.949 = f64[5,5,100]{2,1,0} broadcast(f64[] %constant.506), dimensions={}, metadata={op_name="jit(_update)/jit(main)/broadcast_in_dim[shape=(100, 5, 5) broadcast_dimensions=(1, 2)]" source_file="/home/mathis/repos/backward_ica/src/utils/misc.py" source_line=573}
  %select.86 = f64[5,5,100]{2,1,0} select(pred[5,5,100]{2,1,0} %broadcast.951, f64[5,5,100]{2,1,0} %reshape.2097, f64[5,5,100]{2,1,0} %broadcast.949), metadata={op_name="jit(_update)/jit(main)/select_n" source_file="/home/mathis/repos/backward_ica/src/utils/misc.py" source_line=573}
  %transpose.573 = f64[100,5,5]{0,2,1} transpose(f64[5,5,100]{2,1,0} %select.86), dimensions={2,0,1}, metadata={op_name="jit(_update)/jit(main)/select_n" source_file="/home/mathis/repos/backward_ica/src/utils/misc.py" source_line=573}
  %copy.817 = f64[100,5,5]{2,1,0} copy(f64[100,5,5]{0,2,1} %transpose.573), metadata={op_name="jit(_update)/jit(main)/select_n" source_file="/home/mathis/repos/backward_ica/src/utils/misc.py" source_line=573}
  %param_0.182 = f64[5,500]{0,1} parameter(0)
  %copy.816 = f64[5,500]{1,0} copy(f64[5,500]{0,1} %param_0.182), metadata={op_name="jit(_update)/jit(main)/triangular_solve[left_side=True lower=True transpose_a=False conjugate_a=False unit_diagonal=False]" source_file="/home/mathis/repos/backward_ica/src/utils/misc.py" source_line=573}
  %negate.129 = f64[5,500]{1,0} negate(f64[5,500]{1,0} %copy.816), metadata={op_name="jit(_update)/jit(main)/neg" source_file="/home/mathis/repos/backward_ica/src/utils/misc.py" source_line=573}
  %reshape.2096 = f64[5,5,100]{2,1,0} reshape(f64[5,500]{1,0} %negate.129), metadata={op_name="jit(_update)/jit(main)/neg" source_file="/home/mathis/repos/backward_ica/src/utils/misc.py" source_line=573}
  %transpose.572 = f64[100,5,5]{0,1,2} transpose(f64[5,5,100]{2,1,0} %reshape.2096), dimensions={2,1,0}, metadata={op_name="jit(_update)/jit(main)/neg" source_file="/home/mathis/repos/backward_ica/src/utils/misc.py" source_line=573}
  %copy.815 = f64[100,5,5]{2,1,0} copy(f64[100,5,5]{0,1,2} %transpose.572), metadata={op_name="jit(_update)/jit(main)/neg" source_file="/home/mathis/repos/backward_ica/src/utils/misc.py" source_line=573}
  %broadcast.948 = f64[100,5,5]{2,1,0} broadcast(f64[] %constant.506), dimensions={}, metadata={op_name="jit(_update)/jit(main)/broadcast_in_dim[shape=(100, 5, 5) broadcast_dimensions=(1, 2)]" source_file="/home/mathis/repos/backward_ica/src/utils/misc.py" source_line=573}
  %select.85 = f64[100,5,5]{2,1,0} select(pred[100,5,5]{2,1,0} %broadcast.953, f64[100,5,5]{2,1,0} %copy.815, f64[100,5,5]{2,1,0} %broadcast.948), metadata={op_name="jit(_update)/jit(main)/select_n" source_file="/home/mathis/repos/backward_ica/src/utils/misc.py" source_line=573}
  %add.132 = f64[100,5,5]{2,1,0} add(f64[100,5,5]{2,1,0} %copy.817, f64[100,5,5]{2,1,0} %select.85), metadata={op_name="jit(_update)/jit(main)/add_any" source_file="/home/mathis/repos/backward_ica/src/utils/misc.py" source_line=573}
  %select.84 = f64[100,5,5]{2,1,0} select(pred[100,5,5]{2,1,0} %broadcast.953, f64[100,5,5]{2,1,0} %add.132, f64[100,5,5]{2,1,0} %broadcast.948), metadata={op_name="jit(_update)/jit(main)/select_n" source_file="/home/mathis/repos/backward_ica/src/utils/misc.py" source_line=566}
  %transpose.571 = f64[100,5,5]{1,2,0} transpose(f64[100,5,5]{2,1,0} %select.84), dimensions={0,2,1}, metadata={op_name="jit(_update)/jit(main)/select_n" source_file="/home/mathis/repos/backward_ica/src/utils/misc.py" source_line=566}
  %copy.814 = f64[100,5,5]{2,1,0} copy(f64[100,5,5]{1,2,0} %transpose.571), metadata={op_name="jit(_update)/jit(main)/select_n" source_file="/home/mathis/repos/backward_ica/src/utils/misc.py" source_line=566}
  ROOT %reshape.2095 = f64[500,5]{1,0} reshape(f64[100,5,5]{2,1,0} %copy.814), metadata={op_name="jit(_update)/jit(main)/select_n" source_file="/home/mathis/repos/backward_ica/src/utils/misc.py" source_line=566}
}

%fused_computation.40 (param_0.187: f64[500,5]) -> f64[5,500] {
  %param_0.187 = f64[500,5]{1,0} parameter(0)
  %reshape.2099 = f64[100,5,5]{2,1,0} reshape(f64[500,5]{1,0} %param_0.187), metadata={op_name="jit(_update)/jit(main)/dot_general[dimension_numbers=(((2,), (1,)), ((), ())) precision=(<Precision.HIGHEST: 2>, <Precision.HIGHEST: 2>) preferred_element_type=None]" source_file="/home/mathis/repos/backward_ica/src/utils/misc.py" source_line=573}
  %transpose.574 = f64[5,5,100]{1,0,2} transpose(f64[100,5,5]{2,1,0} %reshape.2099), dimensions={1,2,0}, metadata={op_name="jit(_update)/jit(main)/transpose[permutation=(1, 2, 0)]" source_file="/home/mathis/repos/backward_ica/src/utils/misc.py" source_line=573}
  %copy.820 = f64[5,5,100]{2,1,0} copy(f64[5,5,100]{1,0,2} %transpose.574), metadata={op_name="jit(_update)/jit(main)/transpose[permutation=(1, 2, 0)]" source_file="/home/mathis/repos/backward_ica/src/utils/misc.py" source_line=573}
  %reshape.2098 = f64[5,500]{1,0} reshape(f64[5,5,100]{2,1,0} %copy.820), metadata={op_name="jit(_update)/jit(main)/reshape[new_sizes=(5, 500) dimensions=None]" source_file="/home/mathis/repos/backward_ica/src/utils/misc.py" source_line=573}
  ROOT %copy.819 = f64[5,500]{0,1} copy(f64[5,500]{1,0} %reshape.2098), metadata={op_name="jit(_update)/jit(main)/reshape[new_sizes=(5, 500) dimensions=None]" source_file="/home/mathis/repos/backward_ica/src/utils/misc.py" source_line=573}
}

%fused_computation.41 (param_0.192: f64[500,5]) -> f64[5,500] {
  %param_0.192 = f64[500,5]{1,0} parameter(0)
  %reshape.2101 = f64[5,100,5]{2,1,0} reshape(f64[500,5]{1,0} %param_0.192), metadata={op_name="jit(_update)/jit(main)/dot_general[dimension_numbers=(((1,), (1,)), ((), ())) precision=(<Precision.HIGHEST: 2>, <Precision.HIGHEST: 2>) preferred_element_type=None]" source_file="/home/mathis/repos/backward_ica/src/utils/misc.py" source_line=573}
  %transpose.575 = f64[5,5,100]{1,2,0} transpose(f64[5,100,5]{2,1,0} %reshape.2101), dimensions={0,2,1}, metadata={op_name="jit(_update)/jit(main)/transpose[permutation=(0, 2, 1)]" source_file="/home/mathis/repos/backward_ica/src/utils/misc.py" source_line=573}
  %copy.822 = f64[5,5,100]{2,1,0} copy(f64[5,5,100]{1,2,0} %transpose.575), metadata={op_name="jit(_update)/jit(main)/transpose[permutation=(0, 2, 1)]" source_file="/home/mathis/repos/backward_ica/src/utils/misc.py" source_line=573}
  %reshape.2100 = f64[5,500]{1,0} reshape(f64[5,5,100]{2,1,0} %copy.822), metadata={op_name="jit(_update)/jit(main)/reshape[new_sizes=(5, 500) dimensions=None]" source_file="/home/mathis/repos/backward_ica/src/utils/misc.py" source_line=573}
  ROOT %copy.821 = f64[5,500]{0,1} copy(f64[5,500]{1,0} %reshape.2100), metadata={op_name="jit(_update)/jit(main)/reshape[new_sizes=(5, 500) dimensions=None]" source_file="/home/mathis/repos/backward_ica/src/utils/misc.py" source_line=573}
}

%fused_computation.42 (param_0.197: f64[5,500]) -> f64[500,5] {
  %param_0.197 = f64[5,500]{0,1} parameter(0)
  %copy.824 = f64[5,500]{1,0} copy(f64[5,500]{0,1} %param_0.197), metadata={op_name="jit(_update)/jit(main)/triangular_solve[left_side=True lower=True transpose_a=False conjugate_a=False unit_diagonal=False]" source_file="/home/mathis/repos/backward_ica/src/utils/misc.py" source_line=573}
  %reshape.2103 = f64[5,5,100]{2,1,0} reshape(f64[5,500]{1,0} %copy.824), metadata={op_name="jit(_update)/jit(main)/reshape[new_sizes=(5, 5, 100) dimensions=None]" source_file="/home/mathis/repos/backward_ica/src/utils/misc.py" source_line=573}
  %transpose.576 = f64[5,100,5]{1,2,0} transpose(f64[5,5,100]{2,1,0} %reshape.2103), dimensions={0,2,1}, metadata={op_name="jit(_update)/jit(main)/reshape[new_sizes=(5, 5, 100) dimensions=None]" source_file="/home/mathis/repos/backward_ica/src/utils/misc.py" source_line=573}
  %copy.823 = f64[5,100,5]{2,1,0} copy(f64[5,100,5]{1,2,0} %transpose.576), metadata={op_name="jit(_update)/jit(main)/reshape[new_sizes=(5, 5, 100) dimensions=None]" source_file="/home/mathis/repos/backward_ica/src/utils/misc.py" source_line=573}
  ROOT %reshape.2102 = f64[500,5]{1,0} reshape(f64[5,100,5]{2,1,0} %copy.823), metadata={op_name="jit(_update)/jit(main)/reshape[new_sizes=(5, 5, 100) dimensions=None]" source_file="/home/mathis/repos/backward_ica/src/utils/misc.py" source_line=573}
}

%fused_computation.43 (param_0.205: f64[100,5], param_1.157: f64[5]) -> f64[5,500] {
  %param_0.205 = f64[100,5]{0,1} parameter(0)
  %copy.827 = f64[100,5]{1,0} copy(f64[100,5]{0,1} %param_0.205), metadata={op_name="jit(_update)/jit(main)/triangular_solve[left_side=False lower=True transpose_a=False conjugate_a=False unit_diagonal=False]" source_file="/home/mathis/repos/backward_ica/src/stats/distributions.py" source_line=211}
  %reshape.2108 = f64[500]{0} reshape(f64[100,5]{1,0} %copy.827)
  %broadcast.954 = f64[500,5]{1,0} broadcast(f64[500]{0} %reshape.2108), dimensions={0}, metadata={op_name="jit(_update)/jit(main)/dot_general[dimension_numbers=(((), ()), ((), ())) precision=None preferred_element_type=None]" source_file="/home/mathis/repos/backward_ica/src/stats/distributions.py" source_line=142}
  %param_1.157 = f64[5]{0} parameter(1)
  %broadcast.956 = f64[500,5]{1,0} broadcast(f64[5]{0} %param_1.157), dimensions={1}, metadata={op_name="jit(_update)/jit(main)/dot_general[dimension_numbers=(((), ()), ((), ())) precision=None preferred_element_type=None]" source_file="/home/mathis/repos/backward_ica/src/stats/distributions.py" source_line=142}
  %multiply.196 = f64[500,5]{1,0} multiply(f64[500,5]{1,0} %broadcast.954, f64[500,5]{1,0} %broadcast.956), metadata={op_name="jit(_update)/jit(main)/dot_general[dimension_numbers=(((), ()), ((), ())) precision=None preferred_element_type=None]" source_file="/home/mathis/repos/backward_ica/src/stats/distributions.py" source_line=142}
  %reshape.2107 = f64[100,5,5]{2,1,0} reshape(f64[500,5]{1,0} %multiply.196), metadata={op_name="jit(_update)/jit(main)/dot_general[dimension_numbers=(((), ()), ((), ())) precision=None preferred_element_type=None]" source_file="/home/mathis/repos/backward_ica/src/stats/distributions.py" source_line=142}
  %transpose.577 = f64[5,5,100]{1,0,2} transpose(f64[100,5,5]{2,1,0} %reshape.2107), dimensions={1,2,0}, metadata={op_name="jit(_update)/jit(main)/transpose[permutation=(1, 2, 0)]" source_file="/home/mathis/repos/backward_ica/src/utils/misc.py" source_line=573}
  %copy.826 = f64[5,5,100]{2,1,0} copy(f64[5,5,100]{1,0,2} %transpose.577), metadata={op_name="jit(_update)/jit(main)/transpose[permutation=(1, 2, 0)]" source_file="/home/mathis/repos/backward_ica/src/utils/misc.py" source_line=573}
  %reshape.2105 = f64[5,500]{1,0} reshape(f64[5,5,100]{2,1,0} %copy.826), metadata={op_name="jit(_update)/jit(main)/reshape[new_sizes=(5, 500) dimensions=None]" source_file="/home/mathis/repos/backward_ica/src/utils/misc.py" source_line=573}
  ROOT %copy.825 = f64[5,500]{0,1} copy(f64[5,500]{1,0} %reshape.2105), metadata={op_name="jit(_update)/jit(main)/reshape[new_sizes=(5, 500) dimensions=None]" source_file="/home/mathis/repos/backward_ica/src/utils/misc.py" source_line=573}
}

%fused_computation.44 (param_0.208: f64[100,5], param_1.162: f64[5]) -> f64[500,5] {
  %param_0.208 = f64[100,5]{0,1} parameter(0)
  %copy.828 = f64[100,5]{1,0} copy(f64[100,5]{0,1} %param_0.208), metadata={op_name="jit(_update)/jit(main)/triangular_solve[left_side=False lower=True transpose_a=False conjugate_a=False unit_diagonal=False]" source_file="/home/mathis/repos/backward_ica/src/stats/distributions.py" source_line=211}
  %reshape.2109 = f64[500]{0} reshape(f64[100,5]{1,0} %copy.828)
  %broadcast.958 = f64[500,5]{1,0} broadcast(f64[500]{0} %reshape.2109), dimensions={0}, metadata={op_name="jit(_update)/jit(main)/dot_general[dimension_numbers=(((), ()), ((), ())) precision=None preferred_element_type=None]" source_file="/home/mathis/repos/backward_ica/src/stats/distributions.py" source_line=142}
  %param_1.162 = f64[5]{0} parameter(1)
  %broadcast.959 = f64[500,5]{1,0} broadcast(f64[5]{0} %param_1.162), dimensions={1}, metadata={op_name="jit(_update)/jit(main)/dot_general[dimension_numbers=(((), ()), ((), ())) precision=None preferred_element_type=None]" source_file="/home/mathis/repos/backward_ica/src/stats/distributions.py" source_line=142}
  ROOT %multiply.197 = f64[500,5]{1,0} multiply(f64[500,5]{1,0} %broadcast.958, f64[500,5]{1,0} %broadcast.959), metadata={op_name="jit(_update)/jit(main)/dot_general[dimension_numbers=(((), ()), ((), ())) precision=None preferred_element_type=None]" source_file="/home/mathis/repos/backward_ica/src/stats/distributions.py" source_line=142}
}

%fused_computation.45 (param_0.214: f64[5,500]) -> f64[500,5] {
  %param_0.214 = f64[5,500]{0,1} parameter(0)
  %copy.831 = f64[5,500]{1,0} copy(f64[5,500]{0,1} %param_0.214), metadata={op_name="jit(_update)/jit(main)/triangular_solve[left_side=True lower=True transpose_a=True conjugate_a=False unit_diagonal=False]" source_file="/home/mathis/repos/backward_ica/src/utils/misc.py" source_line=566}
  %reshape.2111 = f64[5,5,100]{2,1,0} reshape(f64[5,500]{1,0} %copy.831), metadata={op_name="jit(_update)/jit(main)/reshape[new_sizes=(5, 5, 100) dimensions=None]" source_file="/home/mathis/repos/backward_ica/src/utils/misc.py" source_line=566}
  %transpose.578 = f64[5,100,5]{1,2,0} transpose(f64[5,5,100]{2,1,0} %reshape.2111), dimensions={0,2,1}, metadata={op_name="jit(_update)/jit(main)/transpose[permutation=(0, 2, 1)]" source_file="/home/mathis/repos/backward_ica/src/utils/misc.py" source_line=566}
  %copy.830 = f64[5,100,5]{2,1,0} copy(f64[5,100,5]{1,2,0} %transpose.578), metadata={op_name="jit(_update)/jit(main)/transpose[permutation=(0, 2, 1)]" source_file="/home/mathis/repos/backward_ica/src/utils/misc.py" source_line=566}
  %reshape.2110 = f64[500,5]{1,0} reshape(f64[5,100,5]{2,1,0} %copy.830), metadata={op_name="jit(_update)/jit(main)/reshape[new_sizes=(500, 5) dimensions=None]" source_file="/home/mathis/repos/backward_ica/src/utils/misc.py" source_line=566}
  ROOT %copy.829 = f64[500,5]{0,1} copy(f64[500,5]{1,0} %reshape.2110), metadata={op_name="jit(_update)/jit(main)/reshape[new_sizes=(500, 5) dimensions=None]" source_file="/home/mathis/repos/backward_ica/src/utils/misc.py" source_line=566}
}

%fused_computation.46 (param_0.220: f64[500,5]) -> f64[5,500] {
  %iota.381 = s32[5,5]{1,0} iota(), iota_dimension=0, metadata={op_name="jit(_update)/jit(main)/iota[dtype=int32 shape=(5, 5) dimension=0]" source_file="/home/mathis/repos/backward_ica/src/utils/misc.py" source_line=566}
  %iota.380 = s32[5,5]{1,0} iota(), iota_dimension=1, metadata={op_name="jit(_update)/jit(main)/iota[dtype=int32 shape=(5, 5) dimension=1]" source_file="/home/mathis/repos/backward_ica/src/utils/misc.py" source_line=566}
…
  %dot.22 = f64[500,5]{1,0} dot(f64[500,5]{1,0} %fusion.30, f64[5,5]{1,0} %copy.248), lhs_contracting_dims={1}, rhs_contracting_dims={1}, operand_precision={highest,highest}, metadata={op_name="jit(_update)/jit(main)/dot_general[dimension_numbers=(((1,), (1,)), ((), ())) precision=(<Precision.HIGHEST: 2>, <Precision.HIGHEST: 2>) preferred_element_type=None]" source_file="/home/mathis/repos/backward_ica/src/utils/misc.py" source_line=573}
  %fusion.29 = f64[5,500]{0,1} fusion(f64[500,5]{1,0} %dot.22), kind=kLoop, calls=%fused_computation.29, metadata={op_name="jit(_update)/jit(main)/reshape[new_sizes=(5, 500) dimensions=None]" source_file="/home/mathis/repos/backward_ica/src/utils/misc.py" source_line=573}
  %custom-call.1748 = f64[5,500]{0,1} custom-call(s32[] %constant.140, s32[] %constant.140, s32[] %constant.140, s32[] %constant.138, s32[] %constant.374, /*index=5*/s32[] %constant.242, s32[] %constant.140, f64[] %constant.56, f64[5,5]{0,1} %copy.156, f64[5,500]{0,1} %fusion.29), custom_call_target="blas_dtrsm", operand_layout_constraints={s32[], s32[], s32[], s32[], s32[], s32[], s32[], f64[], f64[5,5]{0,1}, f64[5,500]{0,1}}, output_to_operand_aliasing={{}: (9, {})}, api_version=API_VERSION_STATUS_RETURNING, metadata={op_name="jit(_update)/jit(main)/triangular_solve[left_side=True lower=True transpose_a=True conjugate_a=False unit_diagonal=False]" source_file="/home/mathis/repos/backward_ica/src/utils/misc.py" source_line=573}
  %fusion.26 = f64[500,5]{1,0} fusion(f64[5,500]{0,1} %custom-call.1757, f64[5,500]{0,1} %custom-call.1748), kind=kLoop, calls=%fused_computation.26, metadata={op_name="jit(_update)/jit(main)/select_n" source_file="/home/mathis/repos/backward_ica/src/utils/misc.py" source_line=566}
  %dot.24 = f64[500,5]{1,0} dot(f64[500,5]{1,0} %fusion.26, f64[5,5]{1,0} %fusion.252), lhs_contracting_dims={1}, rhs_contracting_dims={0}, operand_precision={highest,highest}, metadata={op_name="jit(_update)/jit(main)/dot_general[dimension_numbers=(((1,), (0,)), ((), ())) precision=(<Precision.HIGHEST: 2>, <Precision.HIGHEST: 2>) preferred_element_type=None]" source_file="/home/mathis/repos/backward_ica/src/utils/misc.py" source_line=566}
  %fusion.25 = f64[5,500]{0,1} fusion(f64[500,5]{1,0} %dot.24), kind=kLoop, calls=%fused_computation.25, metadata={op_name="jit(_update)/jit(main)/reshape[new_sizes=(5, 500) dimensions=None]" source_file="/home/mathis/repos/backward_ica/src/utils/misc.py" source_line=566}
  %custom-call.1777 = f64[5,500]{0,1} custom-call(s32[] %constant.140, s32[] %constant.140, s32[] %constant.140, s32[] %constant.138, s32[] %constant.374, /*index=5*/s32[] %constant.242, s32[] %constant.140, f64[] %constant.56, f64[5,5]{0,1} %copy.271, f64[5,500]{0,1} %fusion.25), custom_call_target="blas_dtrsm", operand_layout_constraints={s32[], s32[], s32[], s32[], s32[], s32[], s32[], f64[], f64[5,5]{0,1}, f64[5,500]{0,1}}, output_to_operand_aliasing={{}: (9, {})}, api_version=API_VERSION_STATUS_RETURNING, metadata={op_name="jit(_update)/jit(main)/triangular_solve[left_side=True lower=True transpose_a=True conjugate_a=False unit_diagonal=False]" source_file="/home/mathis/repos/backward_ica/src/utils/misc.py" source_line=566}
  %fusion.24 = f64[500,5]{0,1} fusion(f64[5,500]{0,1} %custom-call.1777), kind=kLoop, calls=%fused_computation.24, metadata={op_name="jit(_update)/jit(main)/reshape[new_sizes=(500, 5) dimensions=None]" source_file="/home/mathis/repos/backward_ica/src/utils/misc.py" source_line=566}
  %custom-call.1781 = f64[500,5]{0,1} custom-call(s32[] %constant.138, s32[] %constant.140, s32[] %constant.138, s32[] %constant.138, s32[] %constant.242, /*index=5*/s32[] %constant.374, s32[] %constant.140, f64[] %constant.56, f64[5,5]{0,1} %copy.271, f64[500,5]{0,1} %fusion.24), custom_call_target="blas_dtrsm", operand_layout_constraints={s32[], s32[], s32[], s32[], s32[], s32[], s32[], f64[], f64[5,5]{0,1}, f64[500,5]{0,1}}, output_to_operand_aliasing={{}: (9, {})}, api_version=API_VERSION_STATUS_RETURNING, metadata={op_name="jit(_update)/jit(main)/triangular_solve[left_side=False lower=True transpose_a=False conjugate_a=False unit_diagonal=False]" source_file="/home/mathis/repos/backward_ica/src/utils/misc.py" source_line=566}
  %fusion.44 = f64[500,5]{1,0} fusion(f64[100,5]{0,1} %custom-call.1510, f64[5]{0} %fusion.325), kind=kLoop, calls=%fused_computation.44, metadata={op_name="jit(_update)/jit(main)/dot_general[dimension_numbers=(((), ()), ((), ())) precision=None preferred_element_type=None]" source_file="/home/mathis/repos/backward_ica/src/stats/distributions.py" source_line=142}
  %dot.18 = f64[500,5]{1,0} dot(f64[500,5]{1,0} %fusion.44, f64[5,5]{1,0} %copy.254), lhs_contracting_dims={1}, rhs_contracting_dims={1}, operand_precision={highest,highest}, metadata={op_name="jit(_update)/jit(main)/dot_general[dimension_numbers=(((2,), (1,)), ((), ())) precision=(<Precision.HIGHEST: 2>, <Precision.HIGHEST: 2>) preferred_element_type=None]" source_file="/home/mathis/repos/backward_ica/src/utils/misc.py" source_line=573}
  %fusion.40 = f64[5,500]{0,1} fusion(f64[500,5]{1,0} %dot.18), kind=kLoop, calls=%fused_computation.40, metadata={op_name="jit(_update)/jit(main)/reshape[new_sizes=(5, 500) dimensions=None]" source_file="/home/mathis/repos/backward_ica/src/utils/misc.py" source_line=573}
  %custom-call.1677 = f64[5,500]{0,1} custom-call(s32[] %constant.140, s32[] %constant.140, s32[] %constant.138, s32[] %constant.138, s32[] %constant.374, /*index=5*/s32[] %constant.242, s32[] %constant.140, f64[] %constant.56, f64[5,5]{0,1} %copy.156, f64[5,500]{0,1} %fusion.40), custom_call_target="blas_dtrsm", operand_layout_constraints={s32[], s32[], s32[], s32[], s32[], s32[], s32[], f64[], f64[5,5]{0,1}, f64[5,500]{0,1}}, output_to_operand_aliasing={{}: (9, {})}, api_version=API_VERSION_STATUS_RETURNING, metadata={op_name="jit(_update)/jit(main)/triangular_solve[left_side=True lower=True transpose_a=False conjugate_a=False unit_diagonal=False]" source_file="/home/mathis/repos/backward_ica/src/utils/misc.py" source_line=573}
  %fusion.43 = f64[5,500]{0,1} fusion(f64[100,5]{0,1} %custom-call.1510, f64[5]{0} %fusion.325), kind=kLoop, calls=%fused_computation.43, metadata={op_name="jit(_update)/jit(main)/reshape[new_sizes=(5, 500) dimensions=None]" source_file="/home/mathis/repos/backward_ica/src/utils/misc.py" source_line=573}
  %custom-call.1663 = f64[5,500]{0,1} custom-call(s32[] %constant.140, s32[] %constant.140, s32[] %constant.138, s32[] %constant.138, s32[] %constant.374, /*index=5*/s32[] %constant.242, s32[] %constant.140, f64[] %constant.56, f64[5,5]{0,1} %copy.156, f64[5,500]{0,1} %fusion.43), custom_call_target="blas_dtrsm", operand_layout_constraints={s32[], s32[], s32[], s32[], s32[], s32[], s32[], f64[], f64[5,5]{0,1}, f64[5,500]{0,1}}, output_to_operand_aliasing={{}: (9, {})}, api_version=API_VERSION_STATUS_RETURNING, metadata={op_name="jit(_update)/jit(main)/triangular_solve[left_side=True lower=True transpose_a=False conjugate_a=False unit_diagonal=False]" source_file="/home/mathis/repos/backward_ica/src/utils/misc.py" source_line=573}
  %fusion.42 = f64[500,5]{1,0} fusion(f64[5,500]{0,1} %custom-call.1663), kind=kLoop, calls=%fused_computation.42, metadata={op_name="jit(_update)/jit(main)/reshape[new_sizes=(5, 5, 100) dimensions=None]" source_file="/home/mathis/repos/backward_ica/src/utils/misc.py" source_line=573}
  %dot.17 = f64[500,5]{1,0} dot(f64[500,5]{1,0} %fusion.42, f64[5,5]{1,0} %copy.248), lhs_contracting_dims={1}, rhs_contracting_dims={1}, operand_precision={highest,highest}, metadata={op_name="jit(_update)/jit(main)/dot_general[dimension_numbers=(((1,), (1,)), ((), ())) precision=(<Precision.HIGHEST: 2>, <Precision.HIGHEST: 2>) preferred_element_type=None]" source_file="/home/mathis/repos/backward_ica/src/utils/misc.py" source_line=573}
  %fusion.41 = f64[5,500]{0,1} fusion(f64[500,5]{1,0} %dot.17), kind=kLoop, calls=%fused_computation.41, metadata={op_name="jit(_update)/jit(main)/reshape[new_sizes=(5, 500) dimensions=None]" source_file="/home/mathis/repos/backward_ica/src/utils/misc.py" source_line=573}
  %custom-call.1668 = f64[5,500]{0,1} custom-call(s32[] %constant.140, s32[] %constant.140, s32[] %constant.140, s32[] %constant.138, s32[] %constant.374, /*index=5*/s32[] %constant.242, s32[] %constant.140, f64[] %constant.56, f64[5,5]{0,1} %copy.156, f64[5,500]{0,1} %fusion.41), custom_call_target="blas_dtrsm", operand_layout_constraints={s32[], s32[], s32[], s32[], s32[], s32[], s32[], f64[], f64[5,5]{0,1}, f64[5,500]{0,1}}, output_to_operand_aliasing={{}: (9, {})}, api_version=API_VERSION_STATUS_RETURNING, metadata={op_name="jit(_update)/jit(main)/triangular_solve[left_side=True lower=True transpose_a=True conjugate_a=False unit_diagonal=False]" source_file="/home/mathis/repos/backward_ica/src/utils/misc.py" source_line=573}
  %fusion.39 = f64[500,5]{1,0} fusion(f64[5,500]{0,1} %custom-call.1677, f64[5,500]{0,1} %custom-call.1668), kind=kLoop, calls=%fused_computation.39, metadata={op_name="jit(_update)/jit(main)/select_n" source_file="/home/mathis/repos/backward_ica/src/utils/misc.py" source_line=566}
  %dot.19 = f64[500,5]{1,0} dot(f64[500,5]{1,0} %fusion.39, f64[5,5]{1,0} %fusion.252), lhs_contracting_dims={1}, rhs_contracting_dims={0}, operand_precision={highest,highest}, metadata={op_name="jit(_update)/jit(main)/dot_general[dimension_numbers=(((1,), (0,)), ((), ())) precision=(<Precision.HIGHEST: 2>, <Precision.HIGHEST: 2>) preferred_element_type=None]" source_file="/home/mathis/repos/backward_ica/src/utils/misc.py" source_line=566}
  %fusion.38 = f64[5,500]{0,1} fusion(f64[500,5]{1,0} %dot.19), kind=kLoop, calls=%fused_computation.38, metadata={op_name="jit(_update)/jit(main)/reshape[new_sizes=(5, 500) dimensions=None]" source_file="/home/mathis/repos/backward_ica/src/utils/misc.py" source_line=566}
  %custom-call.1697 = f64[5,500]{0,1} custom-call(s32[] %constant.140, s32[] %constant.140, s32[] %constant.140, s32[] %constant.138, s32[] %constant.374, /*index=5*/s32[] %constant.242, s32[] %constant.140, f64[] %constant.56, f64[5,5]{0,1} %copy.271, f64[5,500]{0,1} %fusion.38), custom_call_target="blas_dtrsm", operand_layout_constraints={s32[], s32[], s32[], s32[], s32[], s32[], s32[], f64[], f64[5,5]{0,1}, f64[5,500]{0,1}}, output_to_operand_aliasing={{}: (9, {})}, api_version=API_VERSION_STATUS_RETURNING, metadata={op_name="jit(_update)/jit(main)/triangular_solve[left_side=True lower=True transpose_a=True conjugate_a=False unit_diagonal=False]" source_file="/home/mathis/repos/backward_ica/src/utils/misc.py" source_line=566}
  %fusion.37 = f64[500,5]{0,1} fusion(f64[5,500]{0,1} %custom-call.1697), kind=kLoop, calls=%fused_computation.37, metadata={op_name="jit(_update)/jit(main)/reshape[new_sizes=(500, 5) dimensions=None]" source_file="/home/mathis/repos/backward_ica/src/utils/misc.py" source_line=566}
  %custom-call.1701 = f64[500,5]{0,1} custom-call(s32[] %constant.138, s32[] %constant.140, s32[] %constant.138, s32[] %constant.138, s32[] %constant.242, /*index=5*/s32[] %constant.374, s32[] %constant.140, f64[] %constant.56, f64[5,5]{0,1} %copy.271, f64[500,5]{0,1} %fusion.37), custom_call_target="blas_dtrsm", operand_layout_constraints={s32[], s32[], s32[], s32[], s32[], s32[], s32[], f64[], f64[5,5]{0,1}, f64[500,5]{0,1}}, output_to_operand_aliasing={{}: (9, {})}, api_version=API_VERSION_STATUS_RETURNING, metadata={op_name="jit(_update)/jit(main)/triangular_solve[left_side=False lower=True transpose_a=False conjugate_a=False unit_diagonal=False]" source_file="/home/mathis/repos/backward_ica/src/utils/misc.py" source_line=566}
  %call.8 = f64[500,5]{1,0} call(f64[100,5]{0,1} %custom-call.1510, f64[100,5]{1,0} %fusion.306, f64[100,5]{1,0} %fusion.307, u32[100,4]{1,0} %fusion.308), to_apply=%parallel_fusion.54
  %dot.7 = f64[500,5]{1,0} dot(f64[500,5]{1,0} %call.8, f64[5,5]{1,0} %copy.160), lhs_contracting_dims={1}, rhs_contracting_dims={1}, operand_precision={highest,highest}, metadata={op_name="jit(_update)/jit(main)/dot_general[dimension_numbers=(((2,), (1,)), ((), ())) precision=(<Precision.HIGHEST: 2>, <Precision.HIGHEST: 2>) preferred_element_type=None]" source_file="/home/mathis/repos/backward_ica/src/utils/misc.py" source_line=560}
  %fusion.53 = f64[5,500]{0,1} fusion(f64[500,5]{1,0} %dot.7), kind=kLoop, calls=%fused_computation.53, metadata={op_name="jit(_update)/jit(main)/reshape[new_sizes=(5, 500) dimensions=None]" source_file="/home/mathis/repos/backward_ica/src/utils/misc.py" source_line=560}
  %custom-call.1571 = f64[5,500]{0,1} custom-call(s32[] %constant.140, s32[] %constant.140, s32[] %constant.140, s32[] %constant.138, s32[] %constant.374, /*index=5*/s32[] %constant.242, s32[] %constant.140, f64[] %constant.56, f64[5,5]{0,1} %fusion.245, f64[5,500]{0,1} %fusion.53), custom_call_target="blas_dtrsm", operand_layout_constraints={s32[], s32[], s32[], s32[], s32[], s32[], s32[], f64[], f64[5,5]{0,1}, f64[5,500]{0,1}}, output_to_operand_aliasing={{}: (9, {})}, api_version=API_VERSION_STATUS_RETURNING, metadata={op_name="jit(_update)/jit(main)/triangular_solve[left_side=True lower=True transpose_a=True conjugate_a=False unit_diagonal=False]" source_file="/home/mathis/repos/backward_ica/src/utils/misc.py" source_line=560}
  %fusion.52 = f64[500,5]{1,0} fusion(f64[5,500]{0,1} %custom-call.1571), kind=kLoop, calls=%fused_computation.52, metadata={op_name="jit(_update)/jit(main)/select_n" source_file="/home/mathis/repos/backward_ica/src/utils/misc.py" source_line=557}
  %dot.8 = f64[500,5]{1,0} dot(f64[500,5]{1,0} %fusion.52, f64[5,5]{1,0} %fusion.246), lhs_contracting_dims={1}, rhs_contracting_dims={0}, operand_precision={highest,highest}, metadata={op_name="jit(_update)/jit(main)/dot_general[dimension_numbers=(((1,), (0,)), ((), ())) precision=(<Precision.HIGHEST: 2>, <Precision.HIGHEST: 2>) preferred_element_type=None]" source_file="/home/mathis/repos/backward_ica/src/utils/misc.py" source_line=557}
  %fusion.51 = f64[5,500]{0,1} fusion(f64[500,5]{1,0} %dot.8), kind=kLoop, calls=%fused_computation.51, metadata={op_name="jit(_update)/jit(main)/reshape[new_sizes=(5, 500) dimensions=None]" source_file="/home/mathis/repos/backward_ica/src/utils/misc.py" source_line=557}
  %custom-call.1592 = f64[5,500]{0,1} custom-call(s32[] %constant.140, s32[] %constant.140, s32[] %constant.140, s32[] %constant.138, s32[] %constant.374, /*index=5*/s32[] %constant.242, s32[] %constant.140, f64[] %constant.56, f64[5,5]{0,1} %copy.221, f64[5,500]{0,1} %fusion.51), custom_call_target="blas_dtrsm", operand_layout_constraints={s32[], s32[], s32[], s32[], s32[], s32[], s32[], f64[], f64[5,5]{0,1}, f64[5,500]{0,1}}, output_to_operand_aliasing={{}: (9, {})}, api_version=API_VERSION_STATUS_RETURNING, metadata={op_name="jit(_update)/jit(main)/triangular_solve[left_side=True lower=True transpose_a=True conjugate_a=False unit_diagonal=False]" source_file="/home/mathis/repos/backward_ica/src/utils/misc.py" source_line=557}
  %fusion.50 = f64[500,5]{0,1} fusion(f64[5,500]{0,1} %custom-call.1592), kind=kLoop, calls=%fused_computation.50, metadata={op_name="jit(_update)/jit(main)/reshape[new_sizes=(500, 5) dimensions=None]" source_file="/home/mathis/repos/backward_ica/src/utils/misc.py" source_line=557}
  %custom-call.1596 = f64[500,5]{0,1} custom-call(s32[] %constant.138, s32[] %constant.140, s32[] %constant.138, s32[] %constant.138, s32[] %constant.242, /*index=5*/s32[] %constant.374, s32[] %constant.140, f64[] %constant.56, f64[5,5]{0,1} %copy.221, f64[500,5]{0,1} %fusion.50), custom_call_target="blas_dtrsm", operand_layout_constraints={s32[], s32[], s32[], s32[], s32[], s32[], s32[], f64[], f64[5,5]{0,1}, f64[500,5]{0,1}}, output_to_operand_aliasing={{}: (9, {})}, api_version=API_VERSION_STATUS_RETURNING, metadata={op_name="jit(_update)/jit(main)/triangular_solve[left_side=False lower=True transpose_a=False conjugate_a=False unit_diagonal=False]" source_file="/home/mathis/repos/backward_ica/src/utils/misc.py" source_line=557}
  %fusion.49 = f64[500,5]{1,0} fusion(f64[500,5]{0,1} %custom-call.1596), kind=kLoop, calls=%fused_computation.49, metadata={op_name="jit(_update)/jit(main)/rev[dimensions=(1, 2)]" source_file="/home/mathis/repos/backward_ica/src/utils/misc.py" source_line=557}
  %dot.9 = f64[500,5]{1,0} dot(f64[500,5]{1,0} %fusion.49, f64[5,5]{1,0} %fusion.251), lhs_contracting_dims={1}, rhs_contracting_dims={0}, metadata={op_name="jit(_update)/jit(main)/dot_general[dimension_numbers=(((1,), (0,)), ((), ())) precision=None preferred_element_type=None]" source_file="/home/mathis/repos/backward_ica/src/utils/misc.py" source_line=563}
  %fusion.48 = f64[500,5]{1,0} fusion(f64[500,5]{0,1} %custom-call.1596), kind=kLoop, calls=%fused_computation.48, metadata={op_name="jit(_update)/jit(main)/rev[dimensions=(1, 2)]" source_file="/home/mathis/repos/backward_ica/src/utils/misc.py" source_line=557}
  %dot.10 = f64[500,5]{1,0} dot(f64[500,5]{1,0} %fusion.48, f64[5,5]{1,0} %fusion.251), lhs_contracting_dims={1}, rhs_contracting_dims={0}, metadata={op_name="jit(_update)/jit(main)/dot_general[dimension_numbers=(((2,), (1,)), ((), ())) precision=None preferred_element_type=None]" source_file="/home/mathis/repos/backward_ica/src/utils/misc.py" source_line=563}
  %fusion.47 = f64[500,5]{1,0} fusion(f64[500,5]{1,0} %dot.9, f64[500,5]{1,0} %dot.10), kind=kLoop, calls=%fused_computation.47, metadata={op_name="jit(_update)/jit(main)/select_n" source_file="/home/mathis/repos/backward_ica/src/utils/misc.py" source_line=566}
  %dot.11 = f64[500,5]{1,0} dot(f64[500,5]{1,0} %fusion.47, f64[5,5]{1,0} %fusion.252), lhs_contracting_dims={1}, rhs_contracting_dims={0}, operand_precision={highest,highest}, metadata={op_name="jit(_update)/jit(main)/dot_general[dimension_numbers=(((1,), (0,)), ((), ())) precision=(<Precision.HIGHEST: 2>, <Precision.HIGHEST: 2>) preferred_element_type=None]" source_file="/home/mathis/repos/backward_ica/src/utils/misc.py" source_line=566}
  %fusion.46 = f64[5,500]{0,1} fusion(f64[500,5]{1,0} %dot.11), kind=kLoop, calls=%fused_computation.46, metadata={op_name="jit(_update)/jit(main)/reshape[new_sizes=(5, 500) dimensions=None]" source_file="/home/mathis/repos/backward_ica/src/utils/misc.py" source_line=566}
  %custom-call.1619 = f64[5,500]{0,1} custom-call(s32[] %constant.140, s32[] %constant.140, s32[] %constant.140, s32[] %constant.138, s32[] %constant.374, /*index=5*/s32[] %constant.242, s32[] %constant.140, f64[] %constant.56, f64[5,5]{0,1} %copy.271, f64[5,500]{0,1} %fusion.46), custom_call_target="blas_dtrsm", operand_layout_constraints={s32[], s32[], s32[], s32[], s32[], s32[], s32[], f64[], f64[5,5]{0,1}, f64[5,500]{0,1}}, output_to_operand_aliasing={{}: (9, {})}, api_version=API_VERSION_STATUS_RETURNING, metadata={op_name="jit(_update)/jit(main)/triangular_solve[left_side=True lower=True transpose_a=True conjugate_a=False unit_diagonal=False]" source_file="/home/mathis/repos/backward_ica/src/utils/misc.py" source_line=566}
  %fusion.45 = f64[500,5]{0,1} fusion(f64[5,500]{0,1} %custom-call.1619), kind=kLoop, calls=%fused_computation.45, metadata={op_name="jit(_update)/jit(main)/reshape[new_sizes=(500, 5) dimensions=None]" source_file="/home/mathis/repos/backward_ica/src/utils/misc.py" source_line=566}
  %custom-call.1623 = f64[500,5]{0,1} custom-call(s32[] %constant.138, s32[] %constant.140, s32[] %constant.138, s32[] %constant.138, s32[] %constant.242, /*index=5*/s32[] %constant.374, s32[] %constant.140, f64[] %constant.56, f64[5,5]{0,1} %copy.271, f64[500,5]{0,1} %fusion.45), custom_call_target="blas_dtrsm", operand_layout_constraints={s32[], s32[], s32[], s32[], s32[], s32[], s32[], f64[], f64[5,5]{0,1}, f64[500,5]{0,1}}, output_to_operand_aliasing={{}: (9, {})}, api_version=API_VERSION_STATUS_RETURNING, metadata={op_name="jit(_update)/jit(main)/triangular_solve[left_side=False lower=True transpose_a=False conjugate_a=False unit_diagonal=False]" source_file="/home/mathis/repos/backward_ica/src/utils/misc.py" source_line=566}
  %fusion.62 = f64[500,5]{1,0} fusion(f64[5]{0} %fusion.325, f64[100,5]{0,1} %custom-call.1510), kind=kLoop, calls=%fused_computation.62, metadata={op_name="jit(_update)/jit(main)/dot_general[dimension_numbers=(((), ()), ((), ())) precision=None preferred_element_type=None]" source_file="/home/mathis/repos/backward_ica/src/stats/distributions.py" source_line=142}
  %dot.4 = f64[500,5]{1,0} dot(f64[500,5]{1,0} %fusion.62, f64[5,5]{1,0} %copy.254), lhs_contracting_dims={1}, rhs_contracting_dims={1}, operand_precision={highest,highest}, metadata={op_name="jit(_update)/jit(main)/dot_general[dimension_numbers=(((2,), (1,)), ((), ())) precision=(<Precision.HIGHEST: 2>, <Precision.HIGHEST: 2>) preferred_element_type=None]" source_file="/home/mathis/repos/backward_ica/src/utils/misc.py" source_line=573}
  %fusion.58 = f64[5,500]{0,1} fusion(f64[500,5]{1,0} %dot.4), kind=kLoop, calls=%fused_computation.58, metadata={op_name="jit(_update)/jit(main)/reshape[new_sizes=(5, 500) dimensions=None]" source_file="/home/mathis/repos/backward_ica/src/utils/misc.py" source_line=573}
  %custom-call.1536 = f64[5,500]{0,1} custom-call(s32[] %constant.140, s32[] %constant.140, s32[] %constant.138, s32[] %constant.138, s32[] %constant.374, /*index=5*/s32[] %constant.242, s32[] %constant.140, f64[] %constant.56, f64[5,5]{0,1} %copy.156, f64[5,500]{0,1} %fusion.58), custom_call_target="blas_dtrsm", operand_layout_constraints={s32[], s32[], s32[], s32[], s32[], s32[], s32[], f64[], f64[5,5]{0,1}, f64[5,500]{0,1}}, output_to_operand_aliasing={{}: (9, {})}, api_version=API_VERSION_STATUS_RETURNING, metadata={op_name="jit(_update)/jit(main)/triangular_solve[left_side=True lower=True transpose_a=False conjugate_a=False unit_diagonal=False]" source_file="/home/mathis/repos/backward_ica/src/utils/misc.py" source_line=573}
  %fusion.61 = f64[5,500]{0,1} fusion(f64[5]{0} %fusion.325, f64[100,5]{0,1} %custom-call.1510), kind=kLoop, calls=%fused_computation.61, metadata={op_name="jit(_update)/jit(main)/reshape[new_sizes=(5, 500) dimensions=None]" source_file="/home/mathis/repos/backward_ica/src/utils/misc.py" source_line=573}
  %custom-call.1522 = f64[5,500]{0,1} custom-call(s32[] %constant.140, s32[] %constant.140, s32[] %constant.138, s32[] %constant.138, s32[] %constant.374, /*index=5*/s32[] %constant.242, s32[] %constant.140, f64[] %constant.56, f64[5,5]{0,1} %copy.156, f64[5,500]{0,1} %fusion.61), custom_call_target="blas_dtrsm", operand_layout_constraints={s32[], s32[], s32[], s32[], s32[], s32[], s32[], f64[], f64[5,5]{0,1}, f64[5,500]{0,1}}, output_to_operand_aliasing={{}: (9, {})}, api_version=API_VERSION_STATUS_RETURNING, metadata={op_name="jit(_update)/jit(main)/triangular_solve[left_side=True lower=True transpose_a=False conjugate_a=False unit_diagonal=False]" source_file="/home/mathis/repos/backward_ica/src/utils/misc.py" source_line=573}
  %fusion.60 = f64[500,5]{1,0} fusion(f64[5,500]{0,1} %custom-call.1522), kind=kLoop, calls=%fused_computation.60, metadata={op_name="jit(_update)/jit(main)/reshape[new_sizes=(5, 5, 100) dimensions=None]" source_file="/home/mathis/repos/backward_ica/src/utils/misc.py" source_line=573}
  %dot.3 = f64[500,5]{1,0} dot(f64[500,5]{1,0} %fusion.60, f64[5,5]{1,0} %copy.248), lhs_contracting_dims={1}, rhs_contracting_dims={1}, operand_precision={highest,highest}, metadata={op_name="jit(_update)/jit(main)/dot_general[dimension_numbers=(((1,), (1,)), ((), ())) precision=(<Precision.HIGHEST: 2>, <Precision.HIGHEST: 2>) preferred_element_type=None]" source_file="/home/mathis/repos/backward_ica/src/utils/misc.py" source_line=573}
  %fusion.59 = f64[5,500]{0,1} fusion(f64[500,5]{1,0} %dot.3), kind=kLoop, calls=%fused_computation.59, metadata={op_name="jit(_update)/jit(main)/reshape[new_sizes=(5, 500) dimensions=None]" source_file="/home/mathis/repos/backward_ica/src/utils/misc.py" source_line=573}
  %custom-call.1527 = f64[5,500]{0,1} custom-call(s32[] %constant.140, s32[] %constant.140, s32[] %constant.140, s32[] %constant.138, s32[] %constant.374, /*index=5*/s32[] %constant.242, s32[] %constant.140, f64[] %constant.56, f64[5,5]{0,1} %copy.156, f64[5,500]{0,1} %fusion.59), custom_call_target="blas_dtrsm", operand_layout_constraints={s32[], s32[], s32[], s32[], s32[], s32[], s32[], f64[], f64[5,5]{0,1}, f64[5,500]{0,1}}, output_to_operand_aliasing={{}: (9, {})}, api_version=API_VERSION_STATUS_RETURNING, metadata={op_name="jit(_update)/jit(main)/triangular_solve[left_side=True lower=True transpose_a=True conjugate_a=False unit_diagonal=False]" source_file="/home/mathis/repos/backward_ica/src/utils/misc.py" source_line=573}
  %fusion.57 = f64[500,5]{1,0} fusion(f64[5,500]{0,1} %custom-call.1536, f64[5,500]{0,1} %custom-call.1527), kind=kLoop, calls=%fused_computation.57, metadata={op_name="jit(_update)/jit(main)/select_n" source_file="/home/mathis/repos/backward_ica/src/utils/misc.py" source_line=566}
  %dot.5 = f64[500,5]{1,0} dot(f64[500,5]{1,0} %fusion.57, f64[5,5]{1,0} %fusion.252), lhs_contracting_dims={1}, rhs_contracting_dims={0}, operand_precision={highest,highest}, metadata={op_name="jit(_update)/jit(main)/dot_general[dimension_numbers=(((1,), (0,)), ((), ())) precision=(<Precision.HIGHEST: 2>, <Precision.HIGHEST: 2>) preferred_element_type=None]" source_file="/home/mathis/repos/backward_ica/src/utils/misc.py" source_line=566}
  %fusion.56 = f64[5,500]{0,1} fusion(f64[500,5]{1,0} %dot.5), kind=kLoop, calls=%fused_computation.56, metadata={op_name="jit(_update)/jit(main)/reshape[new_sizes=(5, 500) dimensions=None]" source_file="/home/mathis/repos/backward_ica/src/utils/misc.py" source_line=566}
  %custom-call.1556 = f64[5,500]{0,1} custom-call(s32[] %constant.140, s32[] %constant.140, s32[] %constant.140, s32[] %constant.138, s32[] %constant.374, /*index=5*/s32[] %constant.242, s32[] %constant.140, f64[] %constant.56, f64[5,5]{0,1} %copy.271, f64[5,500]{0,1} %fusion.56), custom_call_target="blas_dtrsm", operand_layout_constraints={s32[], s32[], s32[], s32[], s32[], s32[], s32[], f64[], f64[5,5]{0,1}, f64[5,500]{0,1}}, output_to_operand_aliasing={{}: (9, {})}, api_version=API_VERSION_STATUS_RETURNING, metadata={op_name="jit(_update)/jit(main)/triangular_solve[left_side=True lower=True transpose_a=True conjugate_a=False unit_diagonal=False]" source_file="/home/mathis/repos/backward_ica/src/utils/misc.py" source_line=566}
  %fusion.55 = f64[500,5]{0,1} fusion(f64[5,500]{0,1} %custom-call.1556), kind=kLoop, calls=%fused_computation.55, metadata={op_name="jit(_update)/jit(main)/reshape[new_sizes=(500, 5) dimensions=None]" source_file="/home/mathis/repos/backward_ica/src/utils/misc.py" source_line=566}
  %custom-call.1560 = f64[500,5]{0,1} custom-call(s32[] %constant.138, s32[] %constant.140, s32[] %constant.138, s32[] %constant.138, s32[] %constant.242, /*index=5*/s32[] %constant.374, s32[] %constant.140, f64[] %constant.56, f64[5,5]{0,1} %copy.271, f64[500,5]{0,1} %fusion.55), custom_call_target="blas_dtrsm", operand_layout_constraints={s32[], s32[], s32[], s32[], s32[], s32[], s32[], f64[], f64[5,5]{0,1}, f64[500,5]{0,1}}, output_to_operand_aliasing={{}: (9, {})}, api_version=API_VERSION_STATUS_RETURNING, metadata={op_name="jit(_update)/jit(main)/triangular_solve[left_side=False lower=True transpose_a=False conjugate_a=False unit_diagonal=False]" source_file="/home/mathis/repos/backward_ica/src/utils/misc.py" source_line=566}
  %fusion.19 = f64[500,5]{1,0} fusion(f64[500,5]{0,1} %custom-call.1781, f64[500,5]{0,1} %custom-call.1701, f64[500,5]{0,1} %custom-call.1623, f64[500,5]{0,1} %custom-call.1560), kind=kLoop, calls=%fused_computation.19, metadata={op_name="jit(_update)/jit(main)/mul" source_file="/home/mathis/repos/backward_ica/src/stats/distributions.py" source_line=164}
  %dot.26 = f64[500,5]{1,0} dot(f64[500,5]{1,0} %fusion.19, f64[5,5]{1,0} %copy.121), lhs_contracting_dims={1}, rhs_contracting_dims={1}, operand_precision={highest,highest}, metadata={op_name="jit(_update)/jit(main)/dot_general[dimension_numbers=(((2,), (1,)), ((), ())) precision=(<Precision.HIGHEST: 2>, <Precision.HIGHEST: 2>) preferred_element_type=None]" source_file="/home/mathis/repos/backward_ica/src/utils/misc.py" source_line=573}
  %fusion.18 = f64[5,500]{0,1} fusion(f64[500,5]{1,0} %dot.26), kind=kLoop, calls=%fused_computation.18, metadata={op_name="jit(_update)/jit(main)/reshape[new_sizes=(5, 500) dimensions=None]" source_file="/home/mathis/repos/backward_ica/src/utils/misc.py" source_line=573}
  %custom-call.1807 = f64[5,500]{0,1} custom-call(s32[] %constant.140, s32[] %constant.140, s32[] %constant.138, s32[] %constant.138, s32[] %constant.374, /*index=5*/s32[] %constant.242, s32[] %constant.140, f64[] %constant.56, f64[5,5]{0,1} %fusion.331, f64[5,500]{0,1} %fusion.18), custom_call_target="blas_dtrsm", operand_layout_constraints={s32[], s32[], s32[], s32[], s32[], s32[], s32[], f64[], f64[5,5]{0,1}, f64[5,500]{0,1}}, output_to_operand_aliasing={{}: (9, {})}, api_version=API_VERSION_STATUS_RETURNING, metadata={op_name="jit(_update)/jit(main)/triangular_solve[left_side=True lower=True transpose_a=False conjugate_a=False unit_diagonal=False]" source_file="/home/mathis/repos/backward_ica/src/utils/misc.py" source_line=573}
  %fusion.23 = f64[5,500]{0,1} fusion(f64[500,5]{0,1} %custom-call.1781, f64[500,5]{0,1} %custom-call.1701, f64[500,5]{0,1} %custom-call.1623, f64[500,5]{0,1} %custom-call.1560), kind=kLoop, calls=%fused_computation.23, metadata={op_name="jit(_update)/jit(main)/reshape[new_sizes=(5, 500) dimensions=None]" source_file="/home/mathis/repos/backward_ica/src/utils/misc.py" source_line=573}
  %custom-call.1792 = f64[5,500]{0,1} custom-call(s32[] %constant.140, s32[] %constant.140, s32[] %constant.138, s32[] %constant.138, s32[] %constant.374, /*index=5*/s32[] %constant.242, s32[] %constant.140, f64[] %constant.56, f64[5,5]{0,1} %fusion.331, f64[5,500]{0,1} %fusion.23), custom_call_target="blas_dtrsm", operand_layout_constraints={s32[], s32[], s32[], s32[], s32[], s32[], s32[], f64[], f64[5,5]{0,1}, f64[5,500]{0,1}}, output_to_operand_aliasing={{}: (9, {})}, api_version=API_VERSION_STATUS_RETURNING, metadata={op_name="jit(_update)/jit(main)/triangular_solve[left_side=True lower=True transpose_a=False conjugate_a=False unit_diagonal=False]" source_file="/home/mathis/repos/backward_ica/src/utils/misc.py" source_line=573}
  %fusion.22 = f64[500,5]{1,0} fusion(f64[5,500]{0,1} %custom-call.1792), kind=kLoop, calls=%fused_computation.22, metadata={op_name="jit(_update)/jit(main)/reshape[new_sizes=(5, 5, 100) dimensions=None]" source_file="/home/mathis/repos/backward_ica/src/utils/misc.py" source_line=573}
  %dot.25 = f64[500,5]{1,0} dot(f64[500,5]{1,0} %fusion.22, f64[5,5]{1,0} %copy.282), lhs_contracting_dims={1}, rhs_contracting_dims={1}, operand_precision={highest,highest}, metadata={op_name="jit(_update)/jit(main)/dot_general[dimension_numbers=(((1,), (1,)), ((), ())) precision=(<Precision.HIGHEST: 2>, <Precision.HIGHEST: 2>) preferred_element_type=None]" source_file="/home/mathis/repos/backward_ica/src/utils/misc.py" source_line=573}
  %fusion.21 = f64[5,500]{0,1} fusion(f64[500,5]{1,0} %dot.25), kind=kLoop, calls=%fused_computation.21, metadata={op_name="jit(_update)/jit(main)/reshape[new_sizes=(5, 500) dimensions=None]" source_file="/home/mathis/repos/backward_ica/src/utils/misc.py" source_line=573}
  %custom-call.1797 = f64[5,500]{0,1} custom-call(s32[] %constant.140, s32[] %constant.140, s32[] %constant.140, s32[] %constant.138, s32[] %constant.374, /*index=5*/s32[] %constant.242, s32[] %constant.140, f64[] %constant.56, f64[5,5]{0,1} %fusion.331, f64[5,500]{0,1} %fusion.21), custom_call_target="blas_dtrsm", operand_layout_constraints={s32[], s32[], s32[], s32[], s32[], s32[], s32[], f64[], f64[5,5]{0,1}, f64[5,500]{0,1}}, output_to_operand_aliasing={{}: (9, {})}, api_version=API_VERSION_STATUS_RETURNING, metadata={op_name="jit(_update)/jit(main)/triangular_solve[left_side=True lower=True transpose_a=True conjugate_a=False unit_diagonal=False]" source_file="/home/mathis/repos/backward_ica/src/utils/misc.py" source_line=573}
  %fusion.73 = f64[100,5]{1,0} fusion(f64[100,5]{0,1} %custom-call.1510), kind=kLoop, calls=%fused_computation.73, metadata={op_name="jit(_update)/jit(main)/neg" source_file="/home/mathis/repos/backward_ica/src/stats/distributions.py" source_line=211}
  %dot.1518 = f64[100,5]{1,0} dot(f64[100,5]{1,0} %fusion.73, f64[5,5]{1,0} %copy.254), lhs_contracting_dims={1}, rhs_contracting_dims={0}, metadata={op_name="jit(_update)/jit(main)/dot_general[dimension_numbers=(((1,), (0,)), ((), ())) precision=None preferred_element_type=None]" source_file="/home/mathis/repos/backward_ica/src/stats/distributions.py" source_line=142}
  %copy.544 = f64[100,5]{1,0} copy(f64[100,5]{0,1} %custom-call.1510), metadata={op_name="jit(_update)/jit(main)/triangular_solve[left_side=False lower=True transpose_a=False conjugate_a=False unit_diagonal=False]" source_file="/home/mathis/repos/backward_ica/src/stats/distributions.py" source_line=211}
  %dot.1631 = f64[100,5]{1,0} dot(f64[100,5]{1,0} %copy.544, f64[5,5]{1,0} %copy.254), lhs_contracting_dims={1}, rhs_contracting_dims={0}, metadata={op_name="jit(_update)/jit(main)/dot_general[dimension_numbers=(((1,), (0,)), ((), ())) precision=None preferred_element_type=None]" source_file="/home/mathis/repos/backward_ica/src/stats/distributions.py" source_line=142}
  %add.1632 = f64[100,5]{1,0} add(f64[100,5]{1,0} %dot.1518, f64[100,5]{1,0} %dot.1631), metadata={op_name="jit(_update)/jit(main)/add_any" source_file="/home/mathis/repos/backward_ica/src/stats/distributions.py" source_line=142}
  %fusion.70 = f64[500,5]{1,0} fusion(f64[5]{0} %fusion.326, f64[100,5]{1,0} %add.1632), kind=kLoop, calls=%fused_computation.70, metadata={op_name="jit(_update)/jit(main)/dot_general[dimension_numbers=(((), ()), ((), ())) precision=None preferred_element_type=None]" source_file="/home/mathis/repos/backward_ica/src/stats/distributions.py" source_line=156}
  %dot.15 = f64[500,5]{1,0} dot(f64[500,5]{1,0} %fusion.70, f64[5,5]{1,0} %copy.121), lhs_contracting_dims={1}, rhs_contracting_dims={1}, operand_precision={highest,highest}, metadata={op_name="jit(_update)/jit(main)/dot_general[dimension_numbers=(((2,), (1,)), ((), ())) precision=(<Precision.HIGHEST: 2>, <Precision.HIGHEST: 2>) preferred_element_type=None]" source_file="/home/mathis/repos/backward_ica/src/utils/misc.py" source_line=573}
  %fusion.65 = f64[5,500]{0,1} fusion(f64[500,5]{1,0} %dot.15), kind=kLoop, calls=%fused_computation.65, metadata={op_name="jit(_update)/jit(main)/reshape[new_sizes=(5, 500) dimensions=None]" source_file="/home/mathis/repos/backward_ica/src/utils/misc.py" source_line=573}
  %custom-call.1652 = f64[5,500]{0,1} custom-call(s32[] %constant.140, s32[] %constant.140, s32[] %constant.138, s32[] %constant.138, s32[] %constant.374, /*index=5*/s32[] %constant.242, s32[] %constant.140, f64[] %constant.56, f64[5,5]{0,1} %fusion.331, f64[5,500]{0,1} %fusion.65), custom_call_target="blas_dtrsm", operand_layout_constraints={s32[], s32[], s32[], s32[], s32[], s32[], s32[], f64[], f64[5,5]{0,1}, f64[5,500]{0,1}}, output_to_operand_aliasing={{}: (9, {})}, api_version=API_VERSION_STATUS_RETURNING, metadata={op_name="jit(_update)/jit(main)/triangular_solve[left_side=True lower=True transpose_a=False conjugate_a=False unit_diagonal=False]" source_file="/home/mathis/repos/backward_ica/src/utils/misc.py" source_line=573}
  %fusion.69 = f64[5,500]{0,1} fusion(f64[5]{0} %fusion.326, f64[100,5]{1,0} %add.1632), kind=kLoop, calls=%fused_computation.69, metadata={op_name="jit(_update)/jit(main)/reshape[new_sizes=(5, 500) dimensions=None]" source_file="/home/mathis/repos/backward_ica/src/utils/misc.py" source_line=573}
  %custom-call.1638 = f64[5,500]{0,1} custom-call(s32[] %constant.140, s32[] %constant.140, s32[] %constant.138, s32[] %constant.138, s32[] %constant.374, /*index=5*/s32[] %constant.242, s32[] %constant.140, f64[] %constant.56, f64[5,5]{0,1} %fusion.331, f64[5,500]{0,1} %fusion.69), custom_call_target="blas_dtrsm", operand_layout_constraints={s32[], s32[], s32[], s32[], s32[], s32[], s32[], f64[], f64[5,5]{0,1}, f64[5,500]{0,1}}, output_to_operand_aliasing={{}: (9, {})}, api_version=API_VERSION_STATUS_RETURNING, metadata={op_name="jit(_update)/jit(main)/triangular_solve[left_side=True lower=True transpose_a=False conjugate_a=False unit_diagonal=False]" source_file="/home/mathis/repos/backward_ica/src/utils/misc.py" source_line=573}
  %fusion.68 = f64[500,5]{1,0} fusion(f64[5,500]{0,1} %custom-call.1638), kind=kLoop, calls=%fused_computation.68, metadata={op_name="jit(_update)/jit(main)/reshape[new_sizes=(5, 5, 100) dimensions=None]" source_file="/home/mathis/repos/backward_ica/src/utils/misc.py" source_line=573}
  %dot.14 = f64[500,5]{1,0} dot(f64[500,5]{1,0} %fusion.68, f64[5,5]{1,0} %copy.282), lhs_contracting_dims={1}, rhs_contracting_dims={1}, operand_precision={highest,highest}, metadata={op_name="jit(_update)/jit(main)/dot_general[dimension_numbers=(((1,), (1,)), ((), ())) precision=(<Precision.HIGHEST: 2>, <Precision.HIGHEST: 2>) preferred_element_type=None]" source_file="/home/mathis/repos/backward_ica/src/utils/misc.py" source_line=573}
  %fusion.67 = f64[5,500]{0,1} fusion(f64[500,5]{1,0} %dot.14), kind=kLoop, calls=%fused_computation.67, metadata={op_name="jit(_update)/jit(main)/reshape[new_sizes=(5, 500) dimensions=None]" source_file="/home/mathis/repos/backward_ica/src/utils/misc.py" source_line=573}
  %custom-call.1643 = f64[5,500]{0,1} custom-call(s32[] %constant.140, s32[] %constant.140, s32[] %constant.140, s32[] %constant.138, s32[] %constant.374, /*index=5*/s32[] %constant.242, s32[] %constant.140, f64[] %constant.56, f64[5,5]{0,1} %fusion.331, f64[5,500]{0,1} %fusion.67), custom_call_target="blas_dtrsm", operand_layout_constraints={s32[], s32[], s32[], s32[], s32[], s32[], s32[], f64[], f64[5,5]{0,1}, f64[5,500]{0,1}}, output_to_operand_aliasing={{}: (9, {})}, api_version=API_VERSION_STATUS_RETURNING, metadata={op_name="jit(_update)/jit(main)/triangular_solve[left_side=True lower=True transpose_a=True conjugate_a=False unit_diagonal=False]" source_file="/home/mathis/repos/backward_ica/src/utils/misc.py" source_line=573}
  %fusion.17 = f64[500,5]{1,0} fusion(f64[5,500]{0,1} %custom-call.1807, f64[5,500]{0,1} %custom-call.1797, f64[5,500]{0,1} %custom-call.1652, f64[5,500]{0,1} %custom-call.1643), kind=kLoop, calls=%fused_computation.17, metadata={op_name="jit(_update)/jit(main)/select_n" source_file="/home/mathis/repos/backward_ica/src/utils/misc.py" source_line=566}
  %dot.27 = f64[500,5]{1,0} dot(f64[500,5]{1,0} %fusion.17, f64[5,5]{1,0} %fusion.332), lhs_contracting_dims={1}, rhs_contracting_dims={0}, operand_precision={highest,highest}, metadata={op_name="jit(_update)/jit(main)/dot_general[dimension_numbers=(((1,), (0,)), ((), ())) precision=(<Precision.HIGHEST: 2>, <Precision.HIGHEST: 2>) preferred_element_type=None]" source_file="/home/mathis/repos/backward_ica/src/utils/misc.py" source_line=566}
  %fusion.16 = f64[5,500]{0,1} fusion(f64[500,5]{1,0} %dot.27), kind=kLoop, calls=%fused_computation.16, metadata={op_name="jit(_update)/jit(main)/reshape[new_sizes=(5, 500) dimensions=None]" source_file="/home/mathis/repos/backward_ica/src/utils/misc.py" source_line=566}
  %custom-call.1827 = f64[5,500]{0,1} custom-call(s32[] %constant.140, s32[] %constant.140, s32[] %constant.140, s32[] %constant.138, s32[] %constant.374, /*index=5*/s32[] %constant.242, s32[] %constant.140, f64[] %constant.56, f64[5,5]{0,1} %copy.126, f64[5,500]{0,1} %fusion.16), custom_call_target="blas_dtrsm", operand_layout_constraints={s32[], s32[], s32[], s32[], s32[], s32[], s32[], f64[], f64[5,5]{0,1}, f64[5,500]{0,1}}, output_to_operand_aliasing={{}: (9, {})}, api_version=API_VERSION_STATUS_RETURNING, metadata={op_name="jit(_update)/jit(main)/triangular_solve[left_side=True lower=True transpose_a=True conjugate_a=False unit_diagonal=False]" source_file="/home/mathis/repos/backward_ica/src/utils/misc.py" source_line=566}
  %fusion.15 = f64[500,5]{0,1} fusion(f64[5,500]{0,1} %custom-call.1827), kind=kLoop, calls=%fused_computation.15, metadata={op_name="jit(_update)/jit(main)/reshape[new_sizes=(500, 5) dimensions=None]" source_file="/home/mathis/repos/backward_ica/src/utils/misc.py" source_line=566}
  %custom-call.1831 = f64[500,5]{0,1} custom-call(s32[] %constant.138, s32[] %constant.140, s32[] %constant.138, s32[] %constant.138, s32[] %constant.242, /*index=5*/s32[] %constant.374, s32[] %constant.140, f64[] %constant.56, f64[5,5]{0,1} %copy.126, f64[500,5]{0,1} %fusion.15), custom_call_target="blas_dtrsm", operand_layout_constraints={s32[], s32[], s32[], s32[], s32[], s32[], s32[], f64[], f64[5,5]{0,1}, f64[500,5]{0,1}}, output_to_operand_aliasing={{}: (9, {})}, api_version=API_VERSION_STATUS_RETURNING, metadata={op_name="jit(_update)/jit(main)/triangular_solve[left_side=False lower=True transpose_a=False conjugate_a=False unit_diagonal=False]" source_file="/home/mathis/repos/backward_ica/src/utils/misc.py" source_line=566}
  %fusion.13 = f64[500,5]{1,0} fusion(f64[500,5]{0,1} %custom-call.1831), kind=kLoop, calls=%fused_computation.13, metadata={op_name="jit(_update)/jit(main)/add_any" source_file="/home/mathis/repos/backward_ica/src/utils/misc.py" source_line=566}
  %dot.31 = f64[500,5]{1,0} dot(f64[500,5]{1,0} %fusion.13, f64[5,5]{1,0} %fusion.340), lhs_contracting_dims={1}, rhs_contracting_dims={0}, metadata={op_name="jit(_update)/jit(main)/dot_general[dimension_numbers=(((2,), (1,)), ((), ())) precision=None preferred_element_type=None]" source_file="/home/mathis/repos/backward_ica/src/stats/kalman.py" source_line=16}
  %dot.32 = f64[500,5]{1,0} dot(f64[500,5]{1,0} %dot.31, f64[5,5]{1,0} %copy.114), lhs_contracting_dims={1}, rhs_contracting_dims={1}, metadata={op_name="jit(_update)/jit(main)/dot_general[dimension_numbers=(((2,), (1,)), ((), ())) precision=None preferred_element_type=None]" source_file="/home/mathis/repos/backward_ica/src/stats/kalman.py" source_line=16}
  %fusion.14 = f64[500,5]{1,0} fusion(f64[500,5]{0,1} %custom-call.1831), kind=kLoop, calls=%fused_computation.14, metadata={op_name="jit(_update)/jit(main)/add_any" source_file="/home/mathis/repos/backward_ica/src/utils/misc.py" source_line=566}
  %dot.30 = f64[500,5]{1,0} dot(f64[500,5]{1,0} %fusion.14, f64[5,5]{1,0} %dot.763), lhs_contracting_dims={1}, rhs_contracting_dims={0}, metadata={op_name="jit(_update)/jit(main)/dot_general[dimension_numbers=(((1,), (0,)), ((), ())) precision=None preferred_element_type=None]" source_file="/home/mathis/repos/backward_ica/src/stats/kalman.py" source_line=16}
  %dot.1633 = f64[100,5]{1,0} dot(f64[100,5]{1,0} %add.1632, f64[5,5]{1,0} %copy.121), lhs_contracting_dims={1}, rhs_contracting_dims={0}, metadata={op_name="jit(_update)/jit(main)/dot_general[dimension_numbers=(((1,), (0,)), ((), ())) precision=None preferred_element_type=None]" source_file="/home/mathis/repos/backward_ica/src/stats/distributions.py" source_line=156}
  %fusion.12 = f64[100,5,5]{2,1,0} fusion(f64[500,5]{1,0} %dot.32, f64[500,5]{1,0} %dot.30, f64[5]{0} %fusion.327, f64[100,5]{1,0} %dot.1633), kind=kLoop, calls=%fused_computation.12, metadata={op_name="jit(_update)/jit(main)/select_n" source_file="/home/mathis/repos/backward_ica/src/utils/misc.py" source_line=77}
  %reduce.1858 = f64[100,5]{1,0} reduce(f64[100,5,5]{2,1,0} %fusion.12, f64[] %constant.20), dimensions={1}, to_apply=%region_5.1854, metadata={op_name="jit(_update)/jit(main)/reduce_sum[axes=(1,)]" source_file="/home/mathis/repos/backward_ica/src/utils/misc.py" source_line=77}
  %dot.28 = f64[500,5]{1,0} dot(f64[500,5]{1,0} %fusion.14, f64[5,5]{1,0} %fusion.334), lhs_contracting_dims={1}, rhs_contracting_dims={0}, metadata={op_name="jit(_update)/jit(main)/dot_general[dimension_numbers=(((1,), (0,)), ((), ())) precision=None preferred_element_type=None]" source_file="/home/mathis/repos/backward_ica/src/utils/misc.py" source_line=563}
  %dot.29 = f64[500,5]{1,0} dot(f64[500,5]{1,0} %fusion.13, f64[5,5]{1,0} %fusion.334), lhs_contracting_dims={1}, rhs_contracting_dims={0}, metadata={op_name="jit(_update)/jit(main)/dot_general[dimension_numbers=(((2,), (1,)), ((), ())) precision=None preferred_element_type=None]" source_file="/home/mathis/repos/backward_ica/src/utils/misc.py" source_line=563}
  %fusion.11 = f64[100,5,5]{2,1,0} fusion(f64[500,5]{1,0} %dot.28, f64[500,5]{1,0} %dot.29), kind=kLoop, calls=%fused_computation.11, metadata={op_name="jit(_update)/jit(main)/select_n" source_file="/home/mathis/repos/backward_ica/src/stats/distributions.py" source_line=88}
  %reduce.1846 = f64[100,5]{1,0} reduce(f64[100,5,5]{2,1,0} %fusion.11, f64[] %constant.20), dimensions={1}, to_apply=%region_4.1842, metadata={op_name="jit(_update)/jit(main)/reduce_sum[axes=(1,)]" source_file="/home/mathis/repos/backward_ica/src/stats/distributions.py" source_line=88}
  %fusion.10 = f64[100,5,5]{2,1,0} fusion(f64[500,5]{0,1} %custom-call.1781, f64[500,5]{0,1} %custom-call.1701, f64[500,5]{0,1} %custom-call.1623, f64[500,5]{0,1} %custom-call.1560), kind=kLoop, calls=%fused_computation.10, metadata={op_name="jit(_update)/jit(main)/select_n" source_file="/home/mathis/repos/backward_ica/src/variational/inference_nets.py" source_line=107}
  %reduce.1866 = f64[100,5]{1,0} reduce(f64[100,5,5]{2,1,0} %fusion.10, f64[] %constant.20), dimensions={1}, to_apply=%region_6.1862, metadata={op_name="jit(_update)/jit(main)/reduce_sum[axes=(1,)]" source_file="/home/mathis/repos/backward_ica/src/variational/inference_nets.py" source_line=107}
  %fusion.9 = f64[100,10]{1,0} fusion(f64[100,5]{1,0} %reduce.1866, f64[5]{0} %fusion.94, f64[100,5]{1,0} %add.1632), kind=kLoop, calls=%fused_computation.9, metadata={op_name="jit(_update)/jit(main)/add_any" source_file="/home/mathis/repos/backward_ica/src/variational/inference_nets.py" source_line=106}
  %dot.1876 = f64[100,100]{1,0} dot(f64[100,10]{1,0} %fusion.9, f64[100,10]{1,0} %Arg_17.18), lhs_contracting_dims={1}, rhs_contracting_dims={1}, metadata={op_name="jit(_update)/jit(main)/vmap(transpose(jvp(mlp)))/linear_1/dot_general[dimension_numbers=(((1,), (1,)), ((), ())) precision=None preferred_element_type=None]" source_file="/home/mathis/venvs/jax_gpu/lib/python3.10/site-packages/haiku/_src/basic.py" source_line=178}
  %fusion.8 = f64[100,100]{1,0} fusion(f64[100]{0} %tanh.805, f64[100,100]{1,0} %dot.1876), kind=kLoop, calls=%fused_computation.8, metadata={op_name="jit(_update)/jit(main)/vmap(transpose(jvp(mlp)))/add_any" source_file="/home/mathis/venvs/jax_gpu/lib/python3.10/site-packages/haiku/_src/nets/mlp.py" source_line=118}
  %fusion.7 = f64[100,5,100]{1,2,0} fusion(f64[100,100]{1,0} %fusion.8, f64[1,5]{1,0} %Arg_18.19), kind=kLoop, calls=%fused_computation.7, metadata={op_name="jit(_update)/jit(main)/vmap(transpose(jvp(mlp)))/linear_0/transpose[permutation=(0, 2, 1)]" source_file="/home/mathis/venvs/jax_gpu/lib/python3.10/site-packages/haiku/_src/basic.py" source_line=178}
  %copy.703 = f64[100,5,100]{2,1,0} copy(f64[100,5,100]{1,2,0} %fusion.7)
  %call.7 = f64[100,100,10]{1,2,0} call(f64[100]{0} %tanh.805, f64[100,10]{1,0} %fusion.9), to_apply=%parallel_fusion.6
  %call.6 = f64[100,100,10]{2,1,0} call(f64[100,100,10]{1,2,0} %call.7), to_apply=%parallel_copy.704
  %fusion.5 = f64[] fusion(f64[5]{0} %fusion.36), kind=kLoop, calls=%fused_computation.5, metadata={op_name="jit(_update)/jit(main)/reduce_sum[axes=(0,)]" source_file="/home/mathis/repos/backward_ica/src/stats/distributions.py" source_line=211}
  %copy.699 = f64[100,5]{1,0} copy(f64[100,5]{0,1} %custom-call.1461), metadata={op_name="jit(_update)/jit(main)/triangular_solve[left_side=False lower=True transpose_a=True conjugate_a=False unit_diagonal=False]" source_file="/home/mathis/repos/backward_ica/src/stats/distributions.py" source_line=211}
  %dot.1468 = f64[100]{0} dot(f64[100,5]{1,0} %copy.699, f64[100,5]{1,0} %copy.699), lhs_batch_dims={0}, lhs_contracting_dims={1}, rhs_batch_dims={0}, rhs_contracting_dims={1}, metadata={op_name="jit(_update)/jit(main)/vmap(jvp(...i,...i->...))/dot_general[dimension_numbers=(((1,), (1,)), ((0,), (0,))) precision=None preferred_element_type=None]" source_file="/home/mathis/repos/backward_ica/src/stats/distributions.py" source_line=211}
  %fusion.4 = f64[100]{0} fusion(f64[] %fusion.5, f64[100]{0} %dot.1468), kind=kLoop, calls=%fused_computation.4, metadata={op_name="jit(_update)/jit(main)/sub" source_file="/home/mathis/repos/backward_ica/src/stats/distributions.py" source_line=211}
  %fusion.230 = f64[100]{0} fusion(f64[100]{0} %fusion.231), kind=kLoop, calls=%fused_computation.230, metadata={op_name="jit(_update)/jit(main)/div" source_file="/home/mathis/repos/backward_ica/src/online_smoothing.py" source_line=811}
  %copy.1536 = f64[5]{0} copy(f64[5]{0} %fusion.325)
  %copy.1537 = f64[5,5]{1,0} copy(f64[5,5]{1,0} %fusion.323)
  ROOT %tuple.29 = (f64[5]{0}, f64[5,5]{1,0}, f64[100,5]{1,0}, f64[100,5]{1,0}, f64[100,5]{1,0}, /*index=5*/f64[100,5]{1,0}, f64[100,100]{1,0}, f64[100,5,100]{2,1,0}, f64[100,10]{1,0}, f64[100,100,10]{2,1,0}, /*index=10*/f64[100,5]{1,0}, f64[100,5]{1,0}, f64[100,5]{1,0}, f64[100,5]{1,0}, f64[100,100]{1,0}, /*index=15*/f64[100,5,100]{2,1,0}, f64[100,10]{1,0}, f64[100,100,10]{2,1,0}, f64[100]{0}, f64[100]{0}, /*index=20*/f64[100,5]{1,0}, f64[5]{0}, f64[5,5]{1,0}, f64[5,5]{1,0}, f64[5]{0}, /*index=25*/f64[5,5]{1,0}) tuple(f64[5]{0} %fusion.325, f64[5,5]{1,0} %fusion.323, f64[100,5]{1,0} %fusion.228, f64[100,5]{1,0} %copy.1534, f64[100,5]{1,0} %fusion.101, /*index=5*/f64[100,5]{1,0} %fusion.97, f64[100,100]{1,0} %fusion.86, f64[100,5,100]{2,1,0} %copy.701, f64[100,10]{1,0} %fusion.82, f64[100,100,10]{2,1,0} %call.5, /*index=10*/f64[100,5]{1,0} %broadcast.21, f64[100,5]{1,0} %copy.1535, f64[100,5]{1,0} %reduce.1858, f64[100,5]{1,0} %reduce.1846, f64[100,100]{1,0} %fusion.8, /*index=15*/f64[100,5,100]{2,1,0} %copy.703, f64[100,10]{1,0} %fusion.9, f64[100,100,10]{2,1,0} %call.6, f64[100]{0} %fusion.4, f64[100]{0} %fusion.230, /*index=20*/f64[100,5]{1,0} %fusion.243, f64[5]{0} %copy.1536, f64[5,5]{1,0} %copy.1537, f64[5,5]{1,0} %dot.2123, f64[5]{0} %subtract.2128, /*index=25*/f64[5,5]{1,0} %fusion.318)
}

